QNet_model_best.pth (torch, 276311 bytes, 6 tensors)

fc.0.weight f4 [256, 6]
00000000: feef b93d 2c9e a2be 75d1 fdbc 9d50 36be
00000010: 4727 12be 5a05 003f e1b7 b53d 2d19 12be
00000020: 60d1 7f3e 7bbb 8e3e 4619 2abd d8fd 6c3d
00000030: 1af0 4b3d b6a5 9dbd f61c a3be 802f 6ebc
00000040: 9d81 15bf 0bc0 8cbb 1a00 193e b013 19bd
00000050: 268b 2f3e f5b5 d83d 05ae 45be 6ddb a1be
00000060: 144c cb3d 0d94 d1bd 6f11 703e 1bb6 b4bd
00000070: d3ae 703c 6cee 013f cb04 58be 47bd 6f3d
00000080: a1c9 83be 4101 6c3e 6e45 bebe 5c2b b03d
00000090: a509 0c3e 93ed 90be efec d6be c0fc a2be
000000a0: fc30 ca3e d09a 06bf 6eec b8be 0ca7 e1bc
000000b0: df55 97bd b146 86bd b374 23bc 727f abbe
000000c0: 2cd0 3dbe df2b 32be e703 7dbe 2c1f d23d
000000d0: 4329 bc3e 3fbb 813e aefa 85be 799b 623e
000000e0: 4e04 713d 0583 9b3e 58d4 0bbe e9a6 c3be
000000f0: 0cbf cb3e a623 4c39 e277 a6bd 687a 5c3e
00000100: 820b 57be 84ef a5be 358a 35be 7ecb 73be
00000110: b566 f73d 8bbe efbd ab11 fbbe c49c 943e
00000120: 671a 033e 699e 98be 8e7f 33be 3cec a7bd
00000130: 4706 113e a6af c4be 4f27 6f3d 34fe ccbe
00000140: 0682 4abb 1582 6abd f141 1abe 9a62 aa3e
00000150: baeb 103e ee85 04bd 6ea3 41be 9a80 003e
00000160: 5589 cf3e b24f 89be 6ca2 7c3e 44d1 d13d
00000170: 6b46 41be 8837 5cbb 1311 443e fe07 f2be
00000180: fe2e 453e b2da 983e d2fc 16bf 0740 22bf
00000190: ed8b bc3d 995e 303e bcfd 3f3c a021 86be
000001a0: b10d 433e e8fe e13d 537f f8bd b94d 1bbf
000001b0: 078a 063e 4628 d73b 1b9d 43bd 79ad 403e
000001c0: 81d7 b3be ad21 bebe f7d4 903d 9db5 97bc
000001d0: 676b 8cbe c3d6 023e 8b88 c33e c2d9 91be
000001e0: a3f6 303e 82a0 62be 253b 9d3e 3e52 35be
000001f0: 52d8 043f 8ee6 08bf 0537 da3e 262a efbc
00000200: 676f 923e 386e 0a3e 9a79 633e b497 433e
00000210: 9dc9 c43e 2b94 e53d 85bb 76be 015c 6dbd
00000220: a83c c5bd 15c9 d0bd 896f a5be eeb9 ab3e
00000230: 67f9 ab3e a071 913d 7d37 173d 44ee 683e
00000240: 9c7e 5a3c b826 93be d785 e7bd 4ecb 64be
00000250: c3e7 8ebe 3bbd a33d 51c0 2b3e df5e 89be
00000260: 79ed 993e 94e0 29be 0423 a63e d4b4 143c
00000270: ce68 4dbe 2741 4e3e fef4 343d e89c 693e
00000280: 9549 11bf fb83 cabe 8aa5 133e 6ea5 dd3e
00000290: ef3d 4dbe d526 6b3e 8522 d4be 27d3 8f3e
000002a0: 7ee9 113e b90a 08be 35d9 5f3e f6dc d93d
000002b0: 82d3 91bb 5c31 d03e c8e7 64be 3b24 d9be
000002c0: 18eb 12be 37df aebd 3065 c2be 4bab ef3d
000002d0: b797 96bd fd7f c9be 9fb9 033c 1c09 a9bd
000002e0: af8d aabe b447 95be 2cc9 043b 092a 7f3d
000002f0: 197d 6ebd 7be7 5a3e 9fe1 413d d5d3 ca3e
00000300: 8df7 a2be 9fc7 f23d cd2f 6dbe 4d8d a9be
00000310: 51b3 a6be 518e b53e 3ee5 a23e ce54 ae3d
00000320: 7d5d c5bd 0587 9bbe 6a08 96bd 3351 1cbe
00000330: 3539 0cbe 2056 f03d 9b6b 6bbe 7e8a f5bd
00000340: 901e fdbe d0f6 d03d f8a3 10be bf60 c1be
00000350: df2a 85be 27d4 0abe 88ce fb3d 633f ca3e
00000360: ccbf c23e f711 cebd a014 683e 6fa5 8fbe
00000370: 719e 833c a239 eabe 931b 3abe 9254 d5bd
00000380: 1275 abbe 85ed 1dbe 0b59 16bf 2a3f 5bbe
00000390: f7c2 8b3d d1f4 5f3e 0ade d73e b285 87bd
000003a0: 91f4 fcbd d795 64bd 089d fcbd 39aa c3be
000003b0: 4e2e 703e 1fd2 823e 6ad4 7eb8 9985 0dbe
000003c0: 8adf adbe 488a bd3d c229 3c3e 2331 c33e
000003d0: 3ad9 903e 2c54 ebbc d5d8 c03e 6234 b93e
000003e0: 2c64 323e 3324 833e 6fda 78bd d845 eabe
000003f0: 6bc2 553d d705 cebd a82a dfbd 3351 933e
0.09078978 -0.317613 -0.030983666 -0.17804189 -0.14272796 0.50008166 0.08872963 -0.14267416
0.24982214 0.2787741 -0.04152801 0.05785927 0.049789526 -0.076976225 -0.31858033 -0.014537692
-0.584009 -0.0042953542 0.14941445 -0.03737229 0.17142925 0.105815805 -0.19304664 -0.3161272
0.0992662 -0.102333166 0.2344415 -0.08823796 0.014690119 0.5075443 -0.21095578 0.05853012
-0.25739768 0.23047353 -0.37162346 0.0860202 0.13675554 -0.28306255 -0.4197764 -0.31833458
0.39490497 -0.52579975 -0.36117882 -0.027545474 -0.073894255 -0.06556452 -0.009976554 -0.3349567
-0.18536443 -0.17399548 -0.2470852 0.10259852 0.3675023 0.2533817 -0.26167816 0.2212962
0.058841996 0.30373397 -0.13655221 -0.3821328 0.39794195 0.00019468236 -0.081283346 0.2153107
-0.21000484 -0.32409298 -0.17728503 -0.23808095 0.12080137 -0.11706265 -0.49036917 0.29025853
0.1280304 -0.29808357 -0.17529127 -0.08199355 0.14162551 -0.3841526 0.058387097 -0.40037692
-0.0030900254 -0.057252962 -0.15064217 0.33278352 0.14152423 -0.032354288 -0.1891 0.12549058
0.40534464 -0.26818615 0.24671334 0.102449924 -0.18874519 -0.0033602435 0.19147138 -0.47271723
0.19256207 0.2985435 -0.58979523 -0.6337895 0.09206376 0.17223586 0.01171821 -0.2619753
0.19048192 0.11034948 -0.1213366 -0.6066547 0.13138591 0.0065660803 -0.04775725 0.18816175
-0.35125354 -0.37135068 0.0707187 -0.018519217 -0.2742569 0.12777238 0.38190112 -0.2848645
0.17281584 -0.22131541 0.30709186 -0.17707154 0.5189258 -0.534768 0.42620102 -0.029194903
0.28600618 0.13518608 0.22214356 0.19100839 0.3843507 0.112099014 -0.2409497 -0.05794907
-0.0963071 -0.10194603 -0.32311657 0.3354029 0.33588716 0.071017504 0.036918152 0.22747141
0.01333585 -0.28740478 -0.11304825 -0.2234318 -0.27911195 0.07995077 0.16772582 -0.26830193
0.3006399 -0.16589576 0.3244859 0.009076316 -0.20059511 0.20142041 0.044178955 0.22813761
-0.567529 -0.39553818 0.14418617 0.43290275 -0.20043157 0.22964032 -0.41432586 0.28090784
0.14249226 -0.1328534 0.21860202 0.10637848 -0.0044502625 0.40662658 -0.22354043 -0.42410454
-0.14347494 -0.085386686 -0.37967825 0.117025934 -0.07353156 -0.3935546 0.008039861 -0.082536906
-0.3331122 -0.29156268 0.002026151 0.062295947 -0.05822477 0.21377365 0.04733431 0.3961474
-0.3182949 0.11854481 -0.23162766 -0.33115616 -0.32558683 0.3546014 0.31815523 0.08512269
-0.09636972 -0.3037645 -0.073258236 -0.1526535 -0.13693698 0.11735177 -0.22990267 -0.11989306
-0.4943738 0.10203326 -0.14125049 -0.37769124 -0.2600927 -0.13557492 0.12295252 0.39501485
0.38036954 -0.1006202 0.22664118 -0.28055903 0.016066762 -0.45747095 -0.18174581 -0.10416521
-0.33487755 -0.15422638 -0.5872962 -0.21410814 0.06824296 0.21870734 0.4216159 -0.06617297
-0.12351335 -0.05580696 -0.12334639 -0.38215807 0.23455164 0.25550935 -6.0756145e-05 -0.13820495
-0.3395961 0.09254891 0.18375304 0.38123426 0.2829073 -0.02872666 0.3766543 0.36172777
0.17421025 0.25613555 -0.06075519 -0.45756412 0.052187365 -0.100597076 -0.10896808 0.28772888

fc.0.bias f4 [256]
00000000: 873c 5b3e b8ce 82be c1a3 ac3e b9f0 80be
00000010: c112 2dbe ad46 8d3e 2cfa ba3e b8cd 9abe
00000020: 6c7d b33e 4bfe 50be 7b38 973d f117 d03d
00000030: 24ce be3e 0e92 c3bd f9e5 9bbe c5e3 0f3e
00000040: 74be 1cbf 2936 9bbe ecf9 a93d 494e 483e
00000050: a460 893e 15ee 2f3e 7040 aebe 590e 1dbe
00000060: 187a bc3d 56f2 cc3e 4e79 96bc 34a1 b2bd
00000070: a629 af3e 0697 88be b833 debd a99c 00bd
00000080: 8b43 da3d 6824 babe 2317 8e3c bdf8 0b3e
00000090: 133d c4bd 5104 913e ffc1 86be 7e54 e93e
000000a0: 4e3f b73e 4ef6 50bd 02bb aabd 8488 1dbd
000000b0: 7bd2 a8be 8e68 ef3d df79 893e b8ab 963d
000000c0: 0c62 5cbe 2460 0f3e 6788 093d a90a 643e
000000d0: 866a bd3e da02 203d 57d4 66be 1c73 663e
000000e0: bc92 953e 3d2c b93e b64f 44bd 8ace aabe
000000f0: 8cad 673e fc97 0e3e c259 0ebe 1bdc 3f3d
00000100: b164 413e c872 153e a24c 6c3e f0ee e43e
00000110: 6e7d 2d3e f17f 4fbd b349 aabd e9c9 74be
00000120: e401 5cbd 9ee0 85be 2d31 06bc db57 c23e
00000130: 7141 c03e fc6b a53e a80b 6b3e 014f cb3e
00000140: 7d17 0c3e 1597 c53d 3062 bb3e b6f7 5c3d
00000150: aa0e 2c3e 5fe8 7cbe 7e27 943e 082e acbd
00000160: e5ad cbbd 599e 16be ff6d 1b3e 7b73 c63e
00000170: a97f 8fbe a538 783e febd 863e ff4d 8e3e
00000180: 938b 013e 4513 a3be 408d 9e3e 7853 9abd
00000190: b84a bd3d f1d3 f5bd 70d7 7fbd 4c34 c83d
000001a0: 6a41 6f3d eef1 96be 5f2e b03e 634a 963c
000001b0: b33f 48be c3a3 5b3e 5d1a 033e 055d a43d
000001c0: 31c7 803d 6c58 91be 675c ab3e 7e16 33be
000001d0: 4e9b cc3e 5386 123e 6661 c8bd ac15 5a3d
000001e0: 8441 a93e 0fc0 a1be 1122 28be 51b4 933e
000001f0: 9194 b03c 5b8b 523e cb9f ecbe 0e02 62be
00000200: 437c 913e 8867 bf3c 6965 e1bd 3cdd b33e
00000210: 480a 9ebe 71c0 cc3e 631b 873e 4e92 f83e
00000220: 17b5 093f f535 503e 3388 c0be 9ecd 4b3d
00000230: 63cf 7f3d 6563 203e 8421 9abe 543b 3d3e
00000240: cf3b edbe 3a1c 0e3f 0afa 2c3e 8096 a2be
00000250: 2bce 803e f01c d7be f43b 75bd a657 6dbc
00000260: 7903 47be c036 6eba 9932 b53d 6d4d 07bf
00000270: c999 0dbe 1ebc bd3e f199 57be dd82 9ebe
00000280: 5342 a4be fe46 69bd a456 5fbe 821c a2be
00000290: 55b6 9bbe e1e9 55bd cf3c bf3d 9ca1 333e
000002a0: 2d96 7ebe 308e 803e 0e38 18be f589 9c3e
000002b0: eb81 68be 4285 73bd 9049 09bd ad07 4f3e
000002c0: 19d2 8e3e 3327 70bd 1286 18bd 4243 6ebe
000002d0: 791b 643e 1753 523e 4986 7fbe 1105 81be
000002e0: 4f04 203e 6e73 9d3e 081d cb3e 696f 02be
000002f0: 5044 753c ab47 f13c 6ce0 c13e f4cb b3be
00000300: 280c 9cbe 10a0 9ebe 0b21 a33d 773e edbe
00000310: 5110 c03c 5561 c23d 9313 353e e814 bd3e
00000320: 94e2 c13e 5d5b 96bd cb9a 93be a483 0cbe
00000330: a51a 5a3d 8167 3ebe 2298 083e 4596 c33e
00000340: b3c3 96be c56b 9abe 284a c4be dd10 9a3e
00000350: 9ab0 8abe 5137 86be a418 a1be cbc8 d33d
00000360: 21e4 fabe 8511 94be 244f 803d 9bc6 46bd
00000370: 342a 85bd b82d 563e c61d 73be 460c 92bc
00000380: d721 21be ed4d af3e 7eb8 953e 60ba debd
00000390: 7335 b5be c0a2 2b3e 63dc 0b3d 0d2c ea3e
000003a0: 2ce3 23bb 3021 ed3e fc76 c03e ac6a 6c3e
000003b0: b216 553e 8d8a 6bbe 33d1 12be 2996 69bd
000003c0: cbac 313d c27e 14be 6b6a ae3e af94 42be
000003d0: 54f3 26bd a0e3 2cbe f136 9c3d 3ee5 99be
000003e0: 923f 3f3e f9e1 9d3e 9e84 cfbd 8ba4 213e
000003f0: 703a 7abe 0bdd e3be 9a98 883e cb94 983e
0.21409808 -0.2554834 0.33718684 -0.25183657 -0.16901685 0.27592984 0.3651899 -0.30235076
0.35056627 -0.20409505 0.0738382 0.101608165 0.37266648 -0.09549342 -0.30448893 0.14051731
-0.6122811 -0.30314758 0.08299622 0.19561113 0.26831543 0.17180665 -0.34033537 -0.15337504
0.09202975 0.40028638 -0.01836839 -0.08722153 0.34211463 -0.26677722 -0.10849708 -0.031399403
0.10657414 -0.363559 0.017345017 0.13669105 -0.095819615 0.28323606 -0.26319882 0.45572275
0.35790485 -0.051016144 -0.0833645 -0.03846027 -0.32973084 0.11689864 0.26850793 0.073569715
-0.21521777 0.14001518 0.03357735 0.22269692 0.36995333 0.03906522 -0.22541939 0.22504848
0.29213512 0.36166564 -0.04792758 -0.33360702 0.22624797 0.13925165 -0.13901427 0.04684077
0.18886067 0.14594567 0.23076108 0.44713545 0.16942379 -0.050659124 -0.08314838 -0.23905148
-0.05371274 -0.26147932 -0.008190435 0.37957653 0.37549928 0.32308948 0.22953665 0.39708713
0.13680835 0.09647957 0.3659835 0.053947173 0.16802469 -0.24698018 0.2893638 -0.08407217
-0.09945277 -0.14708842 0.15178679 0.3875998 -0.28027084 0.24240358 0.26316828 0.2779388
0.126509 -0.3185064 0.3096714 -0.07535452 0.09242767 -0.12003315 -0.062461317 0.097756
0.058411993 -0.29481453 0.34410378 0.018346017 -0.1955555 0.21449189 0.12803026 0.080255546
0.06287993 -0.28387773 0.33468935 -0.17489049 0.39962238 0.14309053 -0.09784202 0.053243324
0.33057797 -0.31591842 -0.16419245 0.28848508 0.021555217 0.20560972 -0.46215662 -0.22071096
0.28415117 0.023364797 -0.110056706 0.35129726 -0.3086722 0.3999057 0.26388082 0.48549122
0.53791946 0.20333083 -0.37603912 0.04975664 0.06245364 0.15662916 -0.30103695 0.18479663
-0.46334693 0.5551182 0.16892257 -0.31755447 0.25157294 -0.42014265 -0.05987163 -0.014486229
-0.19434918 -0.0009087138 0.08847541 -0.5285252 -0.13828196 0.37057585 -0.21054818 -0.30959216
-0.3208185 -0.05695247 -0.21810395 -0.31662375 -0.30412546 -0.052224997 0.0933777 0.17542118
-0.24861975 0.2510848 -0.14865133 0.30574003 -0.2270581 -0.059453256 -0.03351742 0.20217772
0.27894667 -0.058631133 -0.037237234 -0.23267844 0.22276105 0.20539509 -0.2495357 -0.25199178
0.15626644 0.30752128 0.39670587 -0.12737812 0.0149699 0.02945312 0.37866533 -0.3511654
-0.30478024 -0.30981493 0.07965287 -0.4633672 0.02344528 0.09491221 0.17683248 0.36930013
0.37868178 -0.07341645 -0.28829035 -0.13722092 0.053248066 -0.18594171 0.13339284 0.38200584
-0.29446182 -0.30160347 -0.38337827 0.3009099 -0.2708786 -0.26214078 -0.31464112 0.103410326
-0.49002174 -0.28919616 0.06265095 -0.04852925 -0.0650219 0.20915878 -0.23741826 -0.017828118
-0.15735565 0.3423914 0.2924232 -0.10875392 -0.3539234 0.16761303 0.034145724 0.45736733
-0.002500723 0.46314383 0.37590778 0.23087567 0.20809439 -0.23002072 -0.14337616 -0.05702797
0.04337768 -0.1450148 0.34065565 -0.19002031 -0.0407594 -0.16883707 0.07627667 -0.3005771
0.18676594 0.30836466 -0.101327166 0.15785424 -0.24436355 -0.4450458 0.26678926 0.2980102

fc.2.weight f4 [256, 256]
00000000: 60cd 02bd 1d83 98bb b431 b8bd 1b3c 8bbc
00000010: 7103 f53b e8f3 78bd bf79 143e f209 613c
00000020: dbc8 d6bc 16c3 89bd 8886 913d 6aa8 31be
00000030: 7621 e93d 5a56 13be f5cf 973d a2c6 723d
00000040: ab86 12bd 20fa a8bc 3f0e d23c 5c22 183d
00000050: 8326 793d d454 ce3c 8dae 723d 3938 d7bd
00000060: 1c9d bf3b 062e 913c 4301 8abd 4f8b 86bd
00000070: bbea e6bc 138c eebd a46e bd3c 67c4 5bbd
00000080: b8c5 923d d658 3d3d 710a febc a373 63bd
00000090: cf7c af3d af9e a9bb 4e14 7abc 65b7 66bc
000000a0: d146 84bd 03ff d53d 452a 55bd c197 c3bc
000000b0: 1889 f4bd 159d 0a3d f212 073e 6b1c ac3c
000000c0: 0bdc 06be 788a d6bd d759 67bd b8ad 68bd
000000d0: c82f 12bc 52ad 23bc eced 863d 2027 74bc
000000e0: 03cd 0abd 6a9a bab9 b592 303e 3d48 b9bc
000000f0: cabe bbbd 46aa 92bd cfde 3bbb c54f 66bd
00000100: f940 59bd e5fb e73d 65c1 c7bc a5c3 ebbb
00000110: 0af8 be3d 01a3 0ebc e31c 253d d604 a6bd
00000120: fc33 153e f24c 103d c082 0fbc 7d18 c13d
00000130: d195 503c d45d a33c 8b70 d2bc 8031 383d
00000140: f5fc 0ebd 9bd4 93bd e0fd 863c a505 d03c
00000150: 76e1 a13d 0e16 b03d eb8d 6e3d 2773 393d
00000160: 2833 05be b064 12bc f477 6c3c 22c2 a43c
00000170: 7cef 093d 49dc b3bd 43c8 efbd 5e55 493d
00000180: 9f95 063e e7f8 cebc 47db 223e fa40 41bd
00000190: f1d2 9fbd a5a3 60bc 8377 3f3c 4bd7 b7bc
000001a0: 6596 eebc 3b10 37bd a081 d0bd d4d6 963c
000001b0: 29e0 fb3d fecc bebc 3b66 9a3c 51e4 bcbd
000001c0: 8a6a 373d 2c22 e3b8 1cee 063d d410 40ba
000001d0: dd15 bbbc a298 9dbd bd05 353c 3f87 153e
000001e0: 4946 2dbd 6b71 593d 934c 8c3d fdce 1a3c
000001f0: 6613 473d 7a62 b3ba d0dd 423c af7b b53d
00000200: 0e0e 1dbd 20aa b5bd 5f6f 083e f804 853d
00000210: f3aa f2bd 983e 71bd 7c09 fabc ed48 163d
00000220: 4d82 7f3d 9f8e 0cbc c973 b5bb 4908 a3bc
00000230: d5bb d13d f69c 0cbd efb9 06be 6831 c1bd
00000240: 94df eb3c 6120 8a3b 14c6 593c fe5c da3c
00000250: 87b4 5bbd b23a d2bc 69ab 45bd 3546 ebbc
00000260: 4b0d 4ebd 63ad c03c 6ec1 213e bfc0 44bd
00000270: 5ac8 8dbd 0824 863d d491 89bb 5d8c cc3c
00000280: 1b54 3f3d 7f7c 9dbd 5df3 f03d 331f cabb
00000290: fcad 2e3e cbd5 a6bd 31ec 973d ae1f 873d
000002a0: ef20 89bd 16fa 2dbc 8e73 823d 7e4b aa3d
000002b0: c6ab 3c3e 0ede 1b3d 720a 453d 2fb4 533d
000002c0: 4e80 e13d 65ea ad3d 2cac ffbc be9f 7abd
000002d0: 2b61 eaba 8ecf a4bd ff42 573c ec6b 0fbc
000002e0: d479 373d 8752 3abd 18ef 063e b133 d23c
000002f0: 3e21 8c3d cbb0 86bd b04d 58bd e000 783d
00000300: a09b 9ebd 9e6f 2e3d 1bd4 93bb b4c6 8fbb
00000310: 5cd2 27bd 8243 8bbd 365c 3c3d 39cc 003c
00000320: 42b0 2c3d 1b95 06be 0b72 233d 6414 61bc
00000330: 49ec 87bc 412a 0cbd 9252 b83d bafa da3d
00000340: b652 3f3d f780 cbbd 9d90 e5bc d047 933c
00000350: 3101 623d 9f27 61bc 7d62 dd3c 9e08 183d
00000360: ce63 553d ce95 153d c475 33bd 10ec f0ba
00000370: af12 86bd 7bb1 aa3d 2e14 363d 64f2 6ebd
00000380: 6bd1 2b3c 1001 05be bff6 63bd 8725 c93d
00000390: 920f 1ebd 11ba f83c a7d0 1abd 2901 1a3d
000003a0: 9109 81bd 263a 84bc a980 e83d 68a7 95bd
000003b0: 6039 283d aeb8 22bd 7ccb 4f3d b1a4 143e
000003c0: 87aa b7bd a6be 26bd b918 65bd 1357 d5bd
000003d0: d9fb 0e3e b596 9ebc 9484 f8bc 015b 053d
000003e0: d7e8 18bd fe7e 2d3d 8832 83bd 9f2d 86bd
000003f0: fc13 853d 008f cebd 68ed 4e3c 950d 5bbd
-0.031934142 -0.004654302 -0.08993855 -0.016996434 0.007477217 -0.060779482 0.14499567 0.013735281
-0.026218822 -0.06726663 0.07105738 -0.17349401 0.11383335 -0.1438841 0.074127115 0.059271462
-0.03577296 -0.020627081 0.025641559 0.037142143 0.060827743 0.025186934 0.059248496 -0.105087705
0.0058475863 0.017722141 -0.06738522 -0.0656954 -0.0281881 -0.11647811 0.023124047 -0.0536541
0.07166618 0.0462273 -0.031010838 -0.0555302 0.08568727 -0.0051763873 -0.01526363 -0.014081811
-0.0645882 0.1044903 -0.052042264 -0.023876073 -0.11940211 0.03384121 0.13190821 0.021009644
-0.13169877 -0.104756296 -0.056482162 -0.056806296 -0.008922525 -0.009990053 0.06588349 -0.014901906
-0.03388692 -0.00035591732 0.17243464 -0.022617454 -0.091672495 -0.07161383 -0.002866674 -0.056228418
-0.05304048 0.11327342 -0.02438421 -0.0071949535 0.093246534 -0.008705855 0.04031075 -0.08106391
0.14570612 0.03522963 -0.008759201 0.09428499 0.0127310315 0.019942202 -0.02568843 0.044969082
-0.034909207 -0.07218286 0.016478479 0.025393317 0.079043314 0.085979566 0.058240812 0.045275833
-0.13007796 -0.008935139 0.014432896 0.020112101 0.033675656 -0.087822504 -0.11708119 0.049153678
0.13143013 -0.02526517 0.1590396 -0.047181107 -0.07803906 -0.013710891 0.011686209 -0.022441527
-0.029124448 -0.044693213 -0.10180974 0.018412985 0.122986145 -0.023291107 0.018847575 -0.092232354
0.044779338 -0.000108305685 0.032941923 -0.00073267263 -0.022837574 -0.07695128 0.011048731 0.14602374
-0.042303357 0.05308668 0.06850543 0.009448764 0.048602484 -0.0013685965 0.0118937045 0.088614814
-0.03834348 -0.088703394 0.13323735 0.06495088 -0.11849012 -0.058897585 -0.0305221 0.03669064
0.062380124 -0.008578925 -0.0055374843 -0.019901412 0.10240904 -0.034329377 -0.13156866 -0.094332516
0.028793134 0.0042152856 0.013291854 0.02665567 -0.05363896 -0.025662754 -0.048259173 -0.02872
-0.050305646 0.023520177 0.15796444 -0.04803538 -0.0692298 0.06549841 -0.0041982923 0.024969274
0.04671107 -0.07689761 0.11765168 -0.00616827 0.17058557 -0.081462465 0.07418097 0.06597839
-0.06695735 -0.010618707 0.063696966 0.0831518 0.18424901 0.038053565 0.048105665 0.05168551
0.110108 0.08491973 -0.031210028 -0.0611875 -0.0017881742 -0.080474004 0.013138532 -0.008753758
0.04479392 -0.04548886 0.13177145 0.025659414 0.06842278 -0.06576689 -0.052808464 0.06054771
-0.07744527 0.042586915 -0.004511369 -0.004387701 -0.0409721 -0.067999855 0.045986377 0.0078611905
0.04216028 -0.13142817 0.03990368 -0.013737772 -0.016592162 -0.034219984 0.09000124 0.106923535
0.04670974 -0.099367075 -0.028023059 0.017978579 0.055176917 -0.013742357 0.027024502 0.037117593
0.052097134 0.036519818 -0.043813482 -0.0018380899 -0.06546532 0.08334633 0.04445284 -0.05833663
0.010486941 -0.12988687 -0.055655237 0.09821611 -0.038589068 0.03036216 -0.037796643 0.037598763
-0.06300653 -0.016141009 0.11352665 -0.07307321 0.041070342 -0.039726906 0.050731167 0.1451595
-0.089680724 -0.04070916 -0.05593178 -0.10416999 0.1396326 -0.019358972 -0.030336656 0.03255749
-0.03733143 0.042357437 -0.064061224 -0.0655167 0.06497952 -0.10085869 0.012629844 -0.05347975

fc.2.bias f4 [256]
00000000: e1b3 1d3d 09d4 80bc 2425 76bd f408 8f3d
00000010: 05ba 84bd 2047 e43c 6ce4 6d3d 8a8a fa3c
00000020: d418 aabd fe83 8d3c 98e4 2cbd 58cf dbbc
00000030: b937 0b3c 4013 5d3c 10fb f3bc d466 16bd
00000040: 60d5 c93c 5bf4 ec3b 80ff d93b 0fab 073c
00000050: dedd 43bd 65bc 313d a2d1 36bc 5d5c 5fbd
00000060: 919d 433d 2ac0 bb3c 27e7 61bd b000 afbc
00000070: 5e90 ac3b b2e6 153d 1a3f babd c229 46bd
00000080: a52d 3ebd fcb9 823c 3ca4 803c ad2e a8bd
00000090: 3d50 5e3a cd3a bfbd b00a 363d a07e 83bd
000000a0: cb90 fc3c 2b84 95bd 62b3 49bd 699e 2d3b
000000b0: b4c4 90bd 99e2 7a3d 7249 3f3d e1cb e8ba
000000c0: 5d8c 1d3c d1e0 8e3d 5fc2 513c ddc6 083d
000000d0: c9b1 3c3d 6cda 023d aa8e b23d 2857 41bc
000000e0: 5983 cb3c d363 053b 2cdc 2e3d b387 73bd
000000f0: 926e 63bc 5806 363c a711 18bd bb70 4ebd
00000100: 286f 53bc 9af5 2dbd 87e3 113d 9852 233d
00000110: ecf9 74bd ab1c a4bb 3971 83bd e5e8 83bd
00000120: 11ca fb3c df1d 8c3d 6c21 a4bb e186 4cbc
00000130: 3b93 19bd a47e 7cbb c3e3 37bc f318 fabc
00000140: 7fa6 2e3c 585a 013d 00be bfbc fe6f 633d
00000150: ebdb 363d 3619 44bd 040f 3a3d bdfb 95bd
00000160: 565b 14bd 7bc6 78bd d7d8 893b 86cc b73c
00000170: 7f65 f43b 5fde 983d 930d cabd 85ba 813c
00000180: 2241 f93c c32a 813d 3e25 48bc 00f2 ecbc
00000190: 728d b33c 0857 65bd e0b0 583d 16c7 563c
000001a0: 3484 b7bd 8a98 48bd b43c 3bbd 3526 c03c
000001b0: 7318 94bc f031 a73c 810c 80ba 2d8b d73b
000001c0: 2a77 eabc 59cc 853d fffe 163c 7d0f 13bd
000001d0: 60e5 e53c 039a 823d bae3 703d cea4 75bd
000001e0: e66b dabc e9c3 e8bd 5a24 24bd 7080 34bd
000001f0: 8d8c 2a3d 4f0d 063d a7ef dd3d a1e9 a3bc
00000200: 1db5 c8bb 42a4 e4bc f9c9 5f3d 854b 853d
00000210: 6a55 603b 8307 29bd 6d4c a63b 55b5 c43c
00000220: e342 063d bcee 463d b9ff 213c 9a30 bebc
00000230: 0633 99bc 8267 bfbd 02d4 7a3d 9b20 073d
00000240: 6d55 3ebd 12ea 143c 3db6 fd3b 9545 1fbb
00000250: 860d d53c 9ffa 74bd 6223 3dbd 34fe 8e3d
00000260: b348 373b 14e0 403d 5eb4 9bbc 7144 b2bc
00000270: fd1f b0bd ab20 17bd 8df2 48bc 0add c43c
00000280: 9b91 f1bd 8586 603c d095 4abc 6d29 38bc
00000290: bd76 923d c975 6fbd 91ef 65bc 9dab cfbc
000002a0: 3ed9 24bd 16d5 83bd 8e22 623d 7fa3 9e3d
000002b0: a1a9 c2bc 5b58 553d e7ae d4bb e90f 0fbd
000002c0: c8ca 89bd fd66 c9bd 929c 5bbd ae58 853d
000002d0: fa03 993c 950e 90bc 606c 583d 332b cebb
000002e0: d49c 9b3c 591d d83b 70b7 9ebd db3e 7c3d
000002f0: 5e6e 81bd bbec b3bc 1a23 3a3d 4df7 71bd
00000300: 80e9 a5bc bf9e ba3d 3550 8abd c142 8fbd
00000310: bbfc 1abc 50b6 c33d 67ea e23c 6e43 8fbd
00000320: a15d b1bd 81af b3bc 6e2e 093d 5c3c 93bd
00000330: bfcf 96bc 9dab 603d 3652 c43b 1823 35bd
00000340: 60f7 69bc f28b 0abd dc2c d4bb f0f6 99bd
00000350: 2bb6 323d 32ae d7bd 72f4 e23c 900f 81ba
00000360: 4c94 253d 2857 65bd 2dc4 4dbd ee62 293d
00000370: 26f5 a0bc b67d 3fbd 6cf4 bf3c 18be f3bc
00000380: b4ac a43c a98a 99bd df91 783d a749 8fbc
00000390: 3881 83bd 6623 e4bc 4951 a8bd c59a ffbc
000003a0: 6608 23bd 7c20 253d f146 82bc 7696 6dbd
000003b0: 0477 59bd 873f a6bd 06db bc3c 284c 913b
000003c0: 68bb ca3c 2b7b d63d 2f3c 29bc 7ead a63d
000003d0: 9058 473d 544c d3bd 0b95 303c 284d d6bc
000003e0: b05f edbc 162d 9cbd 1c7e afbd 0710 c43b
000003f0: 0804 333d 955b b8bd ec67 78bd b4d6 67bd
0.038501624 -0.015726106 -0.060094014 0.069841295 -0.06480793 0.027865946 0.05807917 0.030583639
-0.08305517 0.017274853 -0.04221019 -0.026832268 0.008497172 0.013493359 -0.029782802 -0.03671916
0.024637878 0.007231278 0.0066527724 0.00828053 -0.04781901 0.043392558 -0.011158379 -0.054531444
0.04775769 0.02291878 -0.055152085 -0.021362633 0.0052662333 0.03659696 -0.09094067 -0.048379667
-0.04643025 0.015957825 0.015703313 -0.08212028 0.00084805844 -0.09337387 0.044443786 -0.06420636
0.030830761 -0.073006 -0.04924334 0.0026492125 -0.07068768 0.061251257 0.046700902 -0.0017760956
0.009615985 0.06976474 0.012802689 0.033392776 0.046067987 0.031946585 0.08718617 -0.011800565
0.024842905 0.002035369 0.04269044 -0.059455585 -0.0138813425 0.011109911 -0.03712621 -0.050400477
-0.01290492 -0.042470552 0.035617378 0.03987369 -0.059808657 -0.0050083003 -0.0641808 -0.064409055
0.030736001 0.06841635 -0.005008867 -0.0124833295 -0.037493926 -0.0038527632 -0.011223736 -0.030529475
0.010659813 0.0315803 -0.023406029 0.055526726 0.044643324 -0.047875606 0.045424476 -0.07323406
-0.036219917 -0.06073616 0.0042067575 0.022436392 0.0074583883 0.07464289 -0.0986587 0.01583601
0.030426566 0.06306984 -0.0122159105 -0.028923988 0.021918032 -0.055991203 0.052903056 0.013108989
-0.089607626 -0.048973598 -0.045712188 0.023455719 -0.018078065 0.020409554 -0.0009769351 0.0065778703
-0.028621275 0.06533117 0.009216069 -0.035903443 0.028063476 0.06377032 0.058810927 -0.059971623
-0.026662778 -0.11365492 -0.04007373 -0.0440678 0.041637946 0.032727536 0.10836726 -0.020008864
-0.006125106 -0.027910355 0.054635976 0.06508545 0.0034230598 -0.04126693 0.0050750286 0.024012247
0.032778632 0.04856752 0.009887629 -0.023216534 -0.018701088 -0.093459144 0.061237343 0.03299008
-0.046468187 0.00908901 0.0077426718 -0.0024302949 0.026007425 -0.059809323 -0.04617632 0.06982079
0.0027966916 0.047088698 -0.019006904 -0.021761151 -0.08599851 -0.03689639 -0.01226486 0.02403118
-0.1179535 0.013703947 -0.01236482 -0.011240345 0.07151554 -0.058461938 -0.014034168 -0.025350386
-0.04024624 -0.06437127 0.055208735 0.07746028 -0.023762526 0.052086215 -0.0064905765 -0.034927282
-0.067281306 -0.098340966 -0.053616114 0.06511055 0.018678654 -0.017585078 0.05283773 -0.006291771
0.01899568 0.0065952954 -0.07749832 0.06158338 -0.06319879 -0.021963468 0.04544363 -0.059073735
-0.020252943 0.0911231 -0.067535795 -0.06995154 -0.00945967 0.09556258 0.027699662 -0.06995283
-0.086604364 -0.021934273 0.033491544 -0.07189247 -0.018409608 0.054851163 0.0059912456 -0.04422292
-0.01428017 -0.03382487 -0.006475074 -0.07517803 0.04363076 -0.10531272 0.027704451 -0.0009846557
0.04042463 -0.05599132 -0.050235916 0.041354112 -0.019648146 -0.046750747 0.02343198 -0.02975373
0.020101883 -0.074971505 0.06068599 -0.017491175 -0.06421131 -0.02784891 -0.08218629 -0.03120173
-0.03980293 0.040314183 -0.015902968 -0.05800482 -0.053092018 -0.08117586 0.023053657 0.0044341274
0.024747565 0.10472711 -0.01032929 0.0813856 0.048668444 -0.10317293 0.010777722 -0.026159838
-0.028976291 -0.07625787 -0.08568975 0.005983356 0.043705016 -0.09001843 -0.060645983 -0.05660124

fc.4.weight f4 [4, 256]
00000000: a5fa 66bd c1d4 62bd 6a70 aabc 42ab 65bd
00000010: 7c2d edbc 1637 1b3d 9859 05bd 9aaf 16bd
00000020: d473 363d e0c4 543d 0abe c6bd bf13 7c3b
00000030: d8d2 88bd db2a e0bd b7a8 b5bb 1cda 0fbd
00000040: e141 eebb 324d c33c f6e0 ea3a c248 27bd
00000050: d815 903c 0c19 153d de57 23bd 992f d4bb
00000060: 7682 cc3b 50cf e33c db3b 15be f910 be3b
00000070: dfa9 aabd ecce 96bd 114d debc 244b ad3c
00000080: d136 19bd 909e 233d 7a1d 303d 2a1c 463d
00000090: 789b 6abd 26be 19bc 8613 94bc 9ad7 59bc
000000a0: 0348 6fbd 56fd 1d3d 1124 013d 3fa8 45bd
000000b0: 429f 083d 31b0 203c f5b9 2abd cab0 a2bd
000000c0: 6d3f 7dbd 8895 94bd 1864 bf3c cd4b d4bd
000000d0: 2ecf 8f3c 92e1 2fbd c06c 77bd d0fe 913c
000000e0: 15eb aebc 9292 53bc 2c39 6cbd 7e18 34bd
000000f0: 1b16 e6bb 5f06 71bd 0aec 44bd 5bd3 2dbb
00000100: c8a6 9dbc 789a 3cbd a197 e6ba 9e1c 89bc
00000110: feb2 b3bd f1c6 42bc 1414 4ebd 1460 d4bd
00000120: d31b 7cbd 7087 5cbd 25d9 91bc 3645 2dbd
00000130: 56e7 5fbd 0b32 afbb 59e9 fabc ac59 e5bd
00000140: 9711 83bc 0f2a 55bc 3ca6 7cbd 4d85 34bd
00000150: 875c 6bbc 4f6a e73a 31ba b2bd 78be 7e3d
00000160: 6ca6 38bd 7416 26bc 0cae 73bd c45a 293d
00000170: 19be bebc 3448 a7bd 6b71 f1bb d836 0dbc
00000180: 0b15 82bd 64e7 aabd d3bf 7ebd 4c8b 8abd
00000190: 5dfe 3b3d da12 26bd 085d 42bd 6663 bfbc
000001a0: 14b7 82bc 6314 1c3c 6cd5 833c bc7c 1b3d
000001b0: 13fc 863c face 723d a0a3 2c3c 08ce c5ba
000001c0: 5f3c 95bd b440 ec3c 104b 6bbd 51f1 82bd
000001d0: cc4b 5dbd 085a 36bd b76f 8f3d 7159 9f3c
000001e0: c44d 97bd 4b6d 9ebd 0b9f a23d 974e 5bbd
000001f0: 4cd9 cdbc c1df b33b 50c8 adbd 6ab0 253d
00000200: ce46 bcbd cc57 2dbe b4c2 0bbd 73df babd
00000210: 0611 a6bd 2f07 953a 4cd3 84bd 90c4 3ebd
00000220: bc1f b7bd c5b1 abbd b38f f0bd ae19 fabd
00000230: 2522 04bd e90c 163c ec44 0abd cc13 87bd
00000240: c009 35bb 4a61 60bd 4a7d 59bd 7d45 193c
00000250: 8cdc 27bd 05d3 f33a e73b 6fbc 9cf1 abbd
00000260: c50c 2d3c 8ee7 bcbd 51f3 67bd 02ad 1b3d
00000270: 9e99 1b3d ef0f 74bd d88f a3bc 423e 5d3c
00000280: 181e 00bb 3295 50bc 41d4 28bd 1c06 35bd
00000290: 097a afbc f206 c0bc 339a 94bd d92f 85bd
000002a0: 5051 fa3c ad7d f3bc 25bf a6bd 75d9 883d
000002b0: 8f22 473d dcea 1fbd c43b 96bd 006b ec3a
000002c0: ce43 96bd adfc cb3c 70c9 d2bb b107 96bd
000002d0: 66a0 b5bd 4073 133d ccda 76bd 6cab 97bc
000002e0: 91ee 97bd 282e 54bd cd51 9c3c 1f79 26bd
000002f0: cb45 f13c ce19 75bd c034 1fbc 9109 633c
00000300: abd7 2cbd 3a84 adbc 1f1f 2eb9 7d7e 19bd
00000310: f4bc d1bd d0d8 8bbc e000 abbc 4194 313d
00000320: e928 4b3b f681 713d a5f7 d0bd ac1d d9bc
00000330: 17ee 823c 4418 7bbc 4f10 0dbd f031 a5bb
00000340: 259d 43bd a833 6f3d 4255 88bd 7859 5dbd
00000350: 5b9d 2f3b 548c a13c 74ce 3ebd 9d10 2b3c
00000360: 3a86 233d ada8 79bc d42f 213d f425 183c
00000370: cb59 69bd d9a5 73bd 585a c5bc 4a61 12bd
00000380: 9889 473c 7eff 88bc c652 f6bc 7f21 163d
00000390: 528e e4bd 3cf9 5cbd 75b8 4c3c 9c16 e5bc
000003a0: b0ef c9bc 576d 48bd d114 94bd c44a 36bd
000003b0: c102 eabc a54d 0ebd ea4e b9bc 0e41 7fbd
000003c0: 92aa e03b 2573 35bc 7c09 bdbd 21d1 32bd
000003d0: 425e 91bd eae1 2d3d a65b 603c 060e 42bd
000003e0: 6a01 ebbd 860c b93c 9b5d 5fbb 76f0 b8bc
000003f0: 6783 b5bd f8ad d1bc a628 0fbd ef94 1e3d
-0.056391377 -0.05537868 -0.020805556 -0.056071527 -0.028952353 0.03789433 -0.032556146 -0.03678856
0.044544056 0.051945567 -0.09704216 0.0038463918 -0.0668084 -0.10945674 -0.005543794 -0.035120115
-0.007271037 0.02384052 0.0017919827 -0.04084087 0.01758854 0.03640084 -0.03987872 -0.0064754006
0.006241138 0.027808815 -0.14573614 0.005800363 -0.083331816 -0.07363686 -0.027136358 0.021153994
-0.037405793 0.03994614 0.04299686 0.048366703 -0.057277173 -0.009383714 -0.018075716 -0.013296032
-0.058418285 0.038571678 0.031528536 -0.048256155 0.033355005 0.009807632 -0.04168125 -0.07943876
-0.061828066 -0.07255083 0.023363158 -0.1036602 0.017554846 -0.04293973 -0.060406446 0.0178217
-0.02135233 -0.012913363 -0.05767171 -0.04396867 -0.007021678 -0.058843967 -0.048076667 -0.0026523683
-0.019244567 -0.04604575 -0.0017592796 -0.016737279 -0.087743744 -0.011888252 -0.050312117 -0.10369888
-0.061549973 -0.0538401 -0.017803738 -0.042302333 -0.05466398 -0.0053465418 -0.030628847 -0.11198744
-0.015999598 -0.013010516 -0.06168197 -0.044072438 -0.014365322 0.0017655584 -0.087269194 0.062193364
-0.045080587 -0.010137189 -0.059492156 0.041346326 -0.023284005 -0.081680685 -0.007368257 -0.008619033
-0.0635167 -0.083449155 -0.062194657 -0.0676485 0.045896877 -0.040545322 -0.047452003 -0.023362827
-0.01595644 0.009526345 0.016092978 0.037960753 0.01647762 0.05927942 0.010537058 -0.0015091309
-0.072869055 0.028839447 -0.057444632 -0.06393684 -0.054027364 -0.044519454 0.0700373 0.019451829
-0.073878795 -0.0773569 0.07940491 -0.053541746 -0.02512803 0.00548932 -0.08485472 0.040451445
-0.091931924 -0.16928023 -0.03412123 -0.09124651 -0.08108716 0.0011369939 -0.06485614 -0.046574175
-0.089416 -0.08383516 -0.117461585 -0.12211929 -0.032259125 0.009158351 -0.033757135 -0.06595573
-0.002762422 -0.054780282 -0.053098 0.009354946 -0.040981814 0.0018602317 -0.014601684 -0.08395693
0.0105621265 -0.09223853 -0.05662853 0.03800679 0.037988298 -0.059585508 -0.019966051 0.013503613
-0.0019549187 -0.012730883 -0.041218046 -0.04419528 -0.021420496 -0.023440812 -0.07255974 -0.06503267
0.030556351 -0.029723013 -0.08141927 0.06682102 0.048616942 -0.03904234 -0.07335618 0.001803726
-0.073371515 0.024900759 -0.0064327046 -0.07325686 -0.08868484 0.035998583 -0.060267255 -0.018514358
-0.0741855 -0.05180183 0.019081974 -0.040642854 0.029452225 -0.059839062 -0.009717166 0.013857261
-0.042197865 -0.021181215 -0.00016605527 -0.037474144 -0.10241118 -0.017071158 -0.02087444 0.043354277
0.0030999726 0.05896183 -0.102034844 -0.026503406 0.01598267 -0.01532561 -0.03443938 -0.0050413534
-0.047757287 0.058398873 -0.06656887 -0.054040402 0.0026796672 0.019720234 -0.046583608 0.010440973
0.03992293 -0.015237969 0.039352253 0.0092863925 -0.0569704 -0.059484337 -0.02409093 -0.035737313
0.012178801 -0.01672339 -0.030068766 0.036653038 -0.11159958 -0.053948626 0.01249515 -0.027964883
-0.024650425 -0.0489324 -0.07230533 -0.044504896 -0.028565766 -0.034742016 -0.022620637 -0.0623179
0.006856271 -0.011074816 -0.092303246 -0.043656472 -0.070980564 0.042451777 0.013693726 -0.047376655
-0.11474879 0.02258898 -0.0034082893 -0.022575598 -0.08862954 -0.02559565 -0.034950875 0.038716253

fc.4.bias f4 [4]
00000000: 1d47 88bd c8c7 92ba 3569 2bbd 38e4 103c
-0.06654189 -0.0011198455 -0.04184838 0.008843474
