QNet_model.pth (torch, 278359 bytes, 6 tensors)

fc.0.weight f4 [256, 8]
000000 3b a0 a6 be 97 b0 d5 bd 04 b9 11 be 3c e5 be bd
       -0.3254412 -0.104340725 -0.14230734 -0.09321067
000010 7d e0 c5 bc f3 04 64 3e 51 0a 9d bd 4d 8e 83 bb
       -0.024154896 0.22267513 -0.07667983 -0.0040147663
000020 6d f8 2b be 1c cc 5f 3e 01 fa f9 bd d5 22 ba be
       -0.16793986 0.21855205 -0.122058876 -0.363547
000030 f6 b7 56 be 9e 7b 8a be 86 d9 8c be 31 a7 fe 3d
       -0.20968613 -0.27047437 -0.27509707 0.12434233
000040 dc 70 17 be 38 6d d0 be 01 dc 0d 3e c4 ff 09 be
       -0.14789146 -0.40708327 0.13853456 -0.13476473
000050 87 46 95 be e6 4c 68 3e 04 0b 46 3e 8b aa 32 be
       -0.2915537 0.22685584 0.1934014 -0.1744787
000060 2a 99 66 be ad 7f f4 3a c7 6b 03 be 78 20 1e 3e
       -0.22519365 0.0018653773 -0.12834083 0.15442073
000070 fc 57 c9 3b f0 c7 b4 be 64 b8 f2 bc c6 10 14 be
       0.0061445218 -0.3530879 -0.02962894 -0.14459524
000080 21 f3 81 3e 52 aa 08 be 70 be d3 3c 6c 8f e0 bb
       0.25380805 -0.13346222 0.025847644 -0.0068530347
000090 2b fa 53 be 37 c2 14 3e 9f e9 a1 be bc f6 92 be
       -0.207009 0.14527212 -0.3162355 -0.28703868
0000a0 ab bb 6b 3e b5 a1 e7 be de f7 fa 3d 8f d5 3e be
       0.23020808 -0.4524056 0.12254308 -0.18636154
0000b0 81 d4 f1 3e 7e c0 a4 3d ae a1 e9 be b4 d0 db be
       0.4723244 0.080445275 -0.45631164 -0.42932665
0000c0 d7 6e 25 3e a5 46 0a bf 5d 86 18 3c 87 1f 5f be
       0.16155563 -0.54014045 0.009309378 -0.2178937
0000d0 52 b2 0a bf 09 73 c2 3e 83 7b 9e be b5 42 57 3e
       -0.54178345 0.3797839 -0.30953607 0.2102154
0000e0 a8 04 ac 3d 53 5e 44 bd 9f 98 05 be 41 62 2d be
       0.083993256 -0.047941517 -0.13046502 -0.16932012
0000f0 13 36 a9 be f3 c1 82 3d da 91 3a 3e b6 03 65 3c
       -0.33049068 0.06384649 0.182197 0.013977936
000100 06 88 76 3e f3 ba f4 be 66 e8 7b be e2 6d b3 be
       0.24075326 -0.4779888 -0.24600372 -0.3504477
000110 ea 32 d4 3d 7f 64 fb be 73 30 1b 3d ca 07 46 3d
       0.103612736 -0.4910011 0.037888 0.048347272
000120 d8 22 dc be 35 95 23 3d 36 29 f2 3d 63 c5 ea 3d
       -0.42995334 0.039937217 0.118242666 0.1146343
000130 95 ed cf be 8e 7e d8 be ac de a2 3e 8f ac b2 3e
       -0.40610948 -0.42284054 0.3181051 0.34897277
000140 e2 52 0f 3e 12 af 13 be 0e aa cb 3d a7 15 7f be
       0.13996461 -0.14422253 0.09944545 -0.24910603
000150 40 67 a2 3e 51 53 ba 3d fd ac 04 3e 9f eb 19 3e
       0.31719398 0.090979226 0.12956615 0.15031289
000160 70 23 58 be da 32 25 be 76 59 52 be a5 bc 51 3e
       -0.21107268 -0.1613268 -0.20541939 0.20482118
000170 32 e5 b6 3d a6 f2 15 be 68 eb 99 3c 8c 8b 5e be
       0.08930434 -0.14643344 0.018789008 -0.2173292
000180 a0 55 7a 3e 2f 0b 55 3b bd 51 be bd c5 f4 9e bd
       0.24446726 0.0032507887 -0.09292934 -0.0776153
000190 5b 1c a9 be 4f 2d f5 bd 4d 02 95 bd 7c 95 58 be
       -0.33029446 -0.119715326 -0.072758295 -0.21150774
0001a0 1e 6d 7c 3e 2e 77 be be 91 3e 2b bd 59 aa 66 3b
       0.24651 -0.37200302 -0.041807715 0.003519675
0001b0 5d ed 06 be cf 44 26 bf 9d 50 38 3e 69 39 92 bd
       -0.13176484 -0.64948744 0.17999502 -0.07139856
0001c0 ec ad 92 be 5d 44 15 be 36 8f 9a 3e 28 98 ee be
       -0.28648317 -0.1457686 0.30187386 -0.4660046
0001d0 69 54 a8 3e 6d e7 a0 3e 1f c7 af be b2 e3 96 3e
       0.328769 0.31426564 -0.34331605 0.29470593
0001e0 dc 82 a9 bc 15 45 99 3d 80 7a eb 3d 3c b9 9e 3e
       -0.020692281 0.074838795 0.114979744 0.31000698
0001f0 4c be c9 be 8f a0 05 be 16 50 a2 be 45 9b 59 3e
       -0.39402997 -0.1304953 -0.31701726 0.21250637
000200 05 5b 15 3e 98 17 b6 be a6 df 84 3e 56 b4 f2 bd
       0.14585502 -0.35564876 0.2595188 -0.118508026
000210 1b bd 8c 3e a3 fa 6e be 15 4c 12 bf 6d 8f 71 be
       0.27488026 -0.23337798 -0.5714734 -0.23589869
000220 f3 e1 a5 be 6e 76 e1 bd 7b bf b5 be 34 dc 07 3e
       -0.32398948 -0.11008917 -0.3549765 0.13267595
000230 f5 c5 8c 3d 9c d8 47 bd 88 7c 38 be 98 1e 09 be
       0.06873695 -0.04879056 -0.18016255 -0.13390577
000240 ad ba 92 3c 5e 79 78 3d 94 59 a0 3e a7 99 9b be
       0.01791128 0.06066262 0.31318343 -0.30390665
000250 87 e4 d9 be d6 dc 06 3e eb 3f 9d 3c 01 19 8f be
       -0.42557165 0.1317018 0.019195518 -0.27948764
000260 7b 9d 3f be aa 88 55 3e d3 69 5a be 6d 71 de be
       -0.18712418 0.20852914 -0.21329431 -0.43445912
000270 15 0c a7 be 37 03 55 bd 1a d8 85 be 22 84 03 3d
       -0.32626405 -0.05200502 -0.26141435 0.032108434
000280 c1 19 80 be 5f bd 01 3f be a0 95 3c 4a b6 98 bd
       -0.2501965 0.5067958 0.018265124 -0.07456644
000290 7f e2 f4 3e 0c b6 c3 be da 4c cc bd dc d6 09 3e
       0.47829053 -0.38224828 -0.09975596 0.13460869
0002a0 74 cf 8a bc 72 bd 77 be d3 a1 1b 3e 74 41 a7 be
       -0.016944624 -0.24193361 0.1519845 -0.32667124
0002b0 f1 2a 96 3d 79 59 ad be 29 37 79 be 3f 58 cb bd
       0.07332409 -0.33857325 -0.24337448 -0.09928941
0002c0 f3 5e 20 be 35 b6 c7 bc bf 1b 18 be d4 b5 d0 bd
       -0.1566122 -0.024378875 -0.14854334 -0.10190931
0002d0 9d 54 36 be 75 5d b6 bc 49 41 11 be 1f dd 98 be
       -0.17805715 -0.02226136 -0.1418506 -0.29856202
0002e0 f8 0d fc 3d 39 00 87 3d 09 23 86 be d2 15 2d be
       0.12307352 0.06591839 -0.26198605 -0.16902855
0002f0 8b 40 d0 be 8b 67 fe bd e9 f9 93 3c 97 9d ac 3e
       -0.40674242 -0.12422093 0.018063502 0.33713982
000300 fb cc 24 3e 8f 95 5f be 7a 61 10 3e da fc b6 3d
       0.16093819 -0.21834396 0.14099684 0.08934946
000310 47 46 94 be 15 cf 49 be c5 5f 94 be 86 45 05 3e
       -0.28959867 -0.19707902 -0.28979316 0.13014802
000320 6a cb b4 be 45 93 ad be 49 db 45 be 95 11 dc bd
       -0.35311443 -0.3390142 -0.19321932 -0.10745541
000330 ab b8 89 be 4e bf 8d bc 31 ec ba bd cf a3 88 3e
       -0.26898703 -0.017303135 -0.09127081 0.26687476
000340 c5 9c 5b 3d 58 8e 25 3c f9 92 aa 3e 77 e8 81 be
       0.053616304 0.010104738 0.33315256 -0.2537267
000350 00 c8 9c be d0 e7 e1 bd 80 57 99 be ad 0b aa bc
       -0.30621338 -0.11030543 -0.2994957 -0.02075752
000360 b2 ad 3f be 44 82 c1 bb da 2a 52 3e f2 83 da be
       -0.18718603 -0.0059054215 0.20524159 -0.4267879
000370 b4 e4 1d 3e 71 d4 d6 3e f2 70 73 be 69 00 43 3e
       0.15419275 0.41958955 -0.23773554 0.19043125
000380 c8 b6 86 3e fc 5a b6 bd 22 1a 8e bb aa dc 7b 3e
       0.26311326 -0.08904073 -0.0043366114 0.24595895
000390 a7 15 1d bd 6c 79 b8 3e 1c 4e 38 3d a7 ae 93 3e
       -0.038350727 0.36030138 0.044996366 0.28844187
0003a0 6a b4 52 be be f5 b5 bd 5e 54 6e 3c 5f e6 81 bd
       -0.20576635 -0.08884762 0.014546482 -0.06342768
0003b0 b6 71 20 bb b1 d0 f1 bc dc 0c 72 be 67 41 31 3e
       -0.002448184 -0.029518457 -0.23637718 0.17310105
0003c0 47 a9 96 3e 87 9f da be 1d ea 9b be 6f 55 9a 3e
       0.29426023 -0.42699835 -0.30452052 0.30143306
0003d0 1d 24 a3 be 53 09 08 3f 71 45 23 3e 2c a4 24 be
       -0.3186349 0.5313923 0.15944459 -0.16078252
0003e0 db 86 22 be c0 32 f5 3e 4c e6 8f 3d 93 ef 4c 3c
       -0.15871756 0.47890282 0.070263475 0.012508291
0003f0 5c 00 d8 be 3c 9c ce 3e dd 78 16 be f2 03 42 bd
       -0.42187774 0.40353572 -0.14694543 -0.047367044

fc.0.bias f4 [256]
000000 29 8c 3c 3d 51 78 88 bd 7a 0c 24 3e bc 74 2b be
       0.046032105 -0.066635735 0.16020384 -0.1674375
000010 c0 b9 49 be cb 0f c1 3d 32 1b df 3d 88 c9 b1 be
       -0.19699764 0.094268404 0.10893859 -0.3472407
000020 d1 06 58 3e b1 47 86 bd ac 2f 0f be 52 53 a2 be
       0.2109635 -0.06556643 -0.13983029 -0.31704193
000030 bd 6b 47 be 4d 8d bd 3e 62 64 df bc 57 ac 35 3e
       -0.19474693 0.37021866 -0.027269546 0.17741524
000040 68 9b 8b 3d ed 57 ad bb 6f d1 84 3e 07 a7 3f 3e
       0.06816751 -0.0052900226 0.25941035 0.1871606
000050 63 e4 8c be 07 2a a7 be 7b 6a 01 bd 8c 63 de 3d
       -0.27517995 -0.32649252 -0.03159569 0.10858831
000060 b2 46 f4 bc fd 5c a1 be fb ac 06 be b3 fc c7 39
       -0.029818866 -0.31516257 -0.13151924 0.00038144513
000070 00 31 bd bd f8 27 5e be 29 29 e6 bd 27 d0 04 bd
       -0.09237862 -0.21694934 -0.112383194 -0.032425072
000080 6d 3f 7c 3d 5d 70 51 bd 81 43 6c be 2a 66 07 be
       0.061583925 -0.05113255 -0.23072626 -0.13222566
000090 cc 39 2e 3e 0d a2 cc 3d 54 96 b9 be 98 95 68 3b
       0.17014235 0.09991846 -0.36247504 0.0035489555
0000a0 b1 cb 80 3d b7 cf 48 3e 82 b2 89 3b 26 f6 b8 be
       0.06288851 0.19610487 0.004202188 -0.36125296
0000b0 d7 9e 6d 3c 6d 2e a0 be 5b 8f 60 be a1 3e 37 bd
       0.014503202 -0.3128542 -0.21929686 -0.044737462
0000c0 f5 d9 dc 3d 82 86 f0 bd 78 35 d0 be eb 3e 42 be
       0.107837595 -0.11744405 -0.40665793 -0.18969314
0000d0 0b d8 d2 bd 62 ee 0b be 81 82 ac be 4b 1b 11 3e
       -0.10295113 -0.13665155 -0.33693317 0.14170568
0000e0 f4 6b 27 bd 59 88 c2 3d d8 ca 9c be f6 7f fb bd
       -0.040874436 0.094986625 -0.30623507 -0.12280266
0000f0 c3 3c 23 bd 45 94 a0 3e 4f 6a e0 be 84 54 c4 be
       -0.03985287 0.3136312 -0.43831107 -0.3834573
000100 78 b6 92 be 38 cf b0 be 01 ed 5a 3e 71 d0 9d 3e
       -0.28654838 -0.34533095 0.21379472 0.3082309
000110 21 b6 28 3e 71 18 3b 3d cd 16 c4 3c 15 48 87 3d
       0.16475727 0.045677606 0.023936654 0.066055454
000120 bc d4 58 3e a0 90 6b 3e 76 0c 88 be 83 90 0f be
       0.21174902 0.23004389 -0.26572007 -0.1401997
000130 4e 2a 8e 3e 65 56 b4 bd b3 d3 af be e8 ba 5c be
       0.2776665 -0.08805541 -0.343412 -0.21555674
000140 18 0b 12 3d 9e fc f5 bd 23 b3 23 be 93 b4 1b 3e
       0.03565511 -0.120110735 -0.15986304 0.15205602
000150 40 b2 af 3e 4b de b8 bd b8 37 41 3e ed b1 41 bd
       0.3431568 -0.09026774 0.18868911 -0.047288824
000160 3e 63 e6 be 49 90 6a bb 19 bb a5 be a9 8f 27 bd
       -0.4499759 -0.0035791567 -0.32369307 -0.04090849
000170 cd da 66 3e bb c2 ba be 45 9b 73 3c 1e cb f4 3e
       0.22544403 -0.36476693 0.014868562 0.47811216
000180 a8 5a 4d be fe 8d e0 3e fe 93 17 3e fd f0 3f bc
       -0.20054114 0.4385833 0.14802548 -0.011715171
000190 89 9b bf bd f4 65 13 be 37 f1 36 be 1c d4 b3 be
       -0.09355838 -0.14394361 -0.17865454 -0.35122764
0001a0 d7 13 a6 be e4 60 f2 bd f6 39 a8 bd 86 75 9b 3e
       -0.32437012 -0.11834887 -0.0821418 0.303631
0001b0 21 70 0f 3e ff 2f 84 3e 2d 41 d5 3d 05 56 32 be
       0.14007618 0.25817868 0.10412822 -0.17415626
0001c0 b7 64 dd 3d 17 33 36 be 00 11 6e 3a 21 e1 f5 3d
       0.108102255 -0.17792927 0.00090815127 0.120058306
0001d0 bb 89 9e bd f2 1d eb 3d 20 d6 d4 bc 09 99 d5 3c
       -0.07741114 0.11480321 -0.025981009 0.02607395
0001e0 6e 40 76 be ad 38 ab bd 9c db a7 be 94 a6 fd bd
       -0.24048015 -0.083604194 -0.32784736 -0.12385288
0001f0 af 70 53 be 16 a0 65 be dc 52 11 3e 1f 04 7f bd
       -0.20648454 -0.22424349 0.14191765 -0.06225979
000200 27 a2 21 be b2 a1 6a 3d f7 fc dd bd 8d 71 08 be
       -0.15784512 0.05728311 -0.10839265 -0.13324566
000210 0d e5 c4 be 58 7c a8 3c 68 a5 28 bd 13 88 21 3e
       -0.38456002 0.020567104 -0.04117337 0.15774564
000220 17 36 29 be 6d 49 dd 3c ad 02 aa 3d ed b1 b4 be
       -0.1652454 0.027012551 0.083012916 -0.35291997
000230 82 7c 77 be 78 4a c5 be 5c 7b 12 be eb 4d 44 be
       -0.2416859 -0.38533378 -0.1430487 -0.19170348
000240 7a 48 a8 be 16 56 a3 3e c9 fb 44 be 88 c7 27 3e
       -0.32867795 0.31901616 -0.19236673 0.16384709
000250 65 d7 6f be 3b 68 40 3e 88 5e 9d 3b 34 1f 9f be
       -0.2342201 0.18789761 0.004802529 -0.31078494
000260 14 d8 04 be df e2 78 bd dc e6 bd bd d8 0d b9 3e
       -0.12973052 -0.060763236 -0.092725486 0.36143374
000270 56 56 44 be 8d 2d 54 be 68 d3 ad be 4c 2c ee be
       -0.1917356 -0.20720501 -0.33950353 -0.4651817
000280 ef 2b ad be 3a 18 ac 3e ff e3 cc be c9 3d b9 be
       -0.3382258 0.33612233 -0.40017697 -0.3617995
000290 67 9d 7a be 88 20 57 3e a3 a8 c8 be d6 d8 11 3d
       -0.24474107 0.21008503 -0.3919116 0.03560718
0002a0 84 a5 99 be 27 ae 55 bd e7 e6 14 be de 58 a3 3e
       -0.3000909 -0.052168038 -0.14541207 0.31903738
0002b0 21 5d 01 be 1b 40 cc 3e a3 54 e9 bc f9 bb 00 3e
       -0.12633182 0.3989266 -0.02848274 0.12571706
0002c0 f5 3f d7 be f3 08 23 3e 65 87 23 3e fa 02 69 3e
       -0.42040983 0.15921383 0.15969618 0.22755042
0002d0 5b f5 88 be bf 12 c3 3e 36 2d ad be 48 e1 9d 3d
       -0.2674969 0.3810024 -0.33823556 0.077089846
0002e0 7c d3 4a be 72 86 99 bd b7 64 41 bd ca 59 2b be
       -0.19807237 -0.074963465 -0.04721519 -0.1673347
0002f0 70 4b f8 3d c7 f5 98 be 96 72 36 be 49 0c 3a be
       0.121237636 -0.29875013 -0.17817149 -0.18168749
000300 37 37 24 be 8d ac d6 be ce 6e 2b 3e 15 4b 8f 3e
       -0.16036688 -0.4192852 0.16741487 0.2798697
000310 bb ec df 3d 53 fe 03 bd 9a 75 3a 3d 9d 4d da 3c
       0.10933825 -0.032224964 0.04552231 0.026648337
000320 bd 1d 34 3e 86 5e a8 3e c3 3e a1 bd 17 ca 0a 3e
       0.17589469 0.32884616 -0.07873299 0.13553654
000330 2a b3 33 be 71 aa ef 3d 0f cc bc bd 2d a2 c2 be
       -0.17548814 0.11702431 -0.092186086 -0.38014355
000340 bb 66 4c be d7 9f de 3d 26 12 55 be 19 77 12 3e
       -0.19961064 0.10870331 -0.20807704 0.14303245
000350 ba 74 8a be 97 cd 82 be 04 cf 52 be 08 c8 1b bd
       -0.2704218 -0.25547478 -0.20586783 -0.03803256
000360 4e d5 4e be 95 15 81 3e 9d f8 f5 3d d4 d0 8f be
       -0.20198557 0.25211778 0.1201031 -0.2808901
000370 dc 3f 56 be 4a ae 37 be 91 f9 75 bd 5a df b4 be
       -0.20922798 -0.1793758 -0.06005246 -0.35326654
000380 ba 3e 01 3e 25 35 4a bc c2 79 b3 3b 9a 24 1f be
       0.12621585 -0.012341772 0.005477161 -0.15541306
000390 bb 74 0b bd c6 49 04 3e f6 ee 0a 3e 15 96 d9 be
       -0.03404687 0.12918767 0.13567719 -0.42497316
0003a0 f3 50 1c 3e 00 04 3f bb 6e 6f 98 3d 01 3c 57 be
       0.15265255 -0.0029146671 0.074431285 -0.21018983
0003b0 a9 78 54 be 03 0b 30 be 4f 00 8f be 68 5a a1 be
       -0.20749153 -0.171917 -0.27929923 -0.31514287
0003c0 46 44 e8 3e d8 7d 0b 3f 0e fd 31 be 49 72 93 3e
       0.45364588 0.544889 -0.17381689 0.2879813
0003d0 86 c2 84 be f8 b8 84 3e 21 40 21 3d 72 7a 26 3e
       -0.2592966 0.2592237 0.0393678 0.16257647
0003e0 7b 17 c8 be 7e e8 98 be 55 4c cc bc 60 8b 30 3d
       -0.39080414 -0.29864877 -0.024938742 0.04310167
0003f0 0e 50 6c be df 0a c1 be f2 31 cb 3e b3 0e 63 be
       -0.23077413 -0.37703606 0.39686543 -0.22173576

fc.2.weight f4 [256, 256]
000000 89 38 17 3c 09 50 40 bd 53 34 63 bd d0 c3 d1 3b
       0.009229788 -0.046951327 -0.055469822 0.0064015165
000010 53 c4 6a bd 17 fc 57 bb a9 76 df 3c 74 1a 46 3d
       -0.057316136 -0.0032956654 0.027278261 0.04836507
000020 16 3b 11 bd b2 a4 e3 bc a2 f0 48 bd 0e 3c 40 3d
       -0.03545674 -0.027788494 -0.04905761 0.046932273
000030 40 19 e2 3a bf dd f9 bc c5 93 5b 3a a1 3d c2 bd
       0.0017249957 -0.030501245 0.00083762064 -0.09484411
000040 40 1d c4 3c b8 fd 2f 3d b3 2a c2 bd 48 8a a7 bb
       0.023939729 0.042966574 -0.094808005 -0.00511292
000050 86 ca 68 3d 34 ca f3 3c eb 67 79 bd 98 f7 62 3b
       0.056833766 0.029759504 -0.06089012 0.003463244
000060 80 ce 1b bc e6 21 49 3d 78 11 fd 3c ec b0 94 bc
       -0.009509683 0.049104594 0.030892119 -0.01815077
000070 53 5e 5e bd 70 0d c2 3c 04 48 5e bd 34 48 79 bd
       -0.054289173 0.023688048 -0.0542679 -0.060859874
000080 02 f9 0c 3b f7 1f 3f bd 18 d6 60 bd a4 93 14 bd
       0.0021510725 -0.046661343 -0.054891676 -0.036273614
000090 a7 89 84 3b 6e f4 39 3d a6 e3 45 3c 32 d0 c6 bc
       0.0040447298 0.045399122 0.012078201 -0.024269197
0000a0 1b 1a b9 bd 7e 63 03 bd 20 9e 9b bd 20 b7 45 bc
       -0.09038182 -0.032077305 -0.07598519 -0.012067586
0000b0 b2 32 f6 bc 3e 8c 40 3d b0 6e 9f bd 1b df 67 bd
       -0.03005347 0.047008745 -0.07784784 -0.056609254
0000c0 7f 77 5d 3d 71 70 5f bd 04 4f 8a 3c ac e4 1f bd
       0.05406904 -0.05455059 0.01688338 -0.039036438
0000d0 7e aa 3b 3d 48 f8 c6 bd fe 95 57 bd c3 6a e9 3c
       0.04581689 -0.09715325 -0.052633278 0.02849329
0000e0 eb 87 ca 3a a9 32 0b bd 50 e8 9f 3c fe a4 f7 3b
       0.0015451884 -0.03398386 0.019519955 0.0075575104
0000f0 f9 5d 05 bd 80 9d cc bc fa 6a 00 bd 28 fe 5d bc
       -0.032560322 -0.024977446 -0.03135202 -0.013549365
000100 62 38 3b 3d 80 55 fe bb 69 85 2c bd 44 ea ec bb
       0.045708068 -0.0077616572 -0.042119417 -0.007230075
000110 a8 80 98 bd a2 d7 30 bd 52 74 ae 3c b9 aa 01 3d
       -0.07446414 -0.043174393 0.0212957 0.031656954
000120 91 a0 dd bc b4 02 31 3d 0c 44 52 bd 3c 76 f6 bc
       -0.027054103 0.04321547 -0.051334426 -0.030085675
000130 fa a6 30 bb d3 ed f0 ba 00 8d 66 bc b2 8a a0 3a
       -0.0026954995 -0.0018381424 -0.014071703 0.0012248366
000140 2c 39 a6 bd a1 a4 b6 bd cd b6 56 bc ae 0b 7d bd
       -0.081163734 -0.08918119 -0.013105107 -0.061778717
000150 82 6e 70 bd c9 2e 3e bd e8 44 2d bd 4d e4 96 bc
       -0.05869914 -0.046431337 -0.042302042 -0.01841941
000160 90 6d 22 bb 41 17 1b bd b0 00 ac 3b c8 27 39 3c
       -0.0024784543 -0.037863974 0.0052491054 0.0113009885
000170 8a 26 85 bd 2c 97 3b 3d f9 20 ce bc 8d 4c 08 bd
       -0.06501491 0.045798466 -0.025162207 -0.03327613
000180 cc 05 94 bc 5a a4 55 bc 37 10 8e bd 2c 6c 39 bd
       -0.01806917 -0.013039673 -0.069366865 -0.045269176
000190 a0 d9 8c 3c 56 d6 9c bc 21 b5 58 bd e0 0a 85 3b
       0.017193615 -0.019145172 -0.052907113 0.0040601343
0001a0 6c f2 6d 3d 44 1b a7 bd da 89 ea bc a3 e2 1d bd
       0.05809252 -0.081594974 -0.028630186 -0.038546216
0001b0 7f db 3f bb 90 7f cb 3b fa ed 52 bc 26 58 08 bd
       -0.0029275117 0.006210275 -0.012874121 -0.03328719
0001c0 6f 9f c1 3c 42 21 9c 3c 7c 04 c4 3c 00 b4 e0 38
       0.023635594 0.019058827 0.02392792 0.0001071468
0001d0 24 47 95 bd 78 bf c7 bc 2c 4e 35 3d d0 27 f5 bb
       -0.072889596 -0.024383292 0.044264004 -0.0074815527
0001e0 f4 fe 16 bd a6 96 31 3d a0 9c 44 bb 4b 46 21 3d
       -0.036864236 0.04335656 -0.0030000582 0.039373677
0001f0 12 6c 3f bd 18 3b 94 3c af d9 b1 3c b0 82 23 3c
       -0.046733923 0.018094584 0.021710245 0.009979889
000200 6d 13 d5 bc f2 d9 7a bc f7 1a 72 bd 93 02 3e bc
       -0.02601024 -0.015310751 -0.059107747 -0.011597293
000210 04 b4 88 bc 73 8a 20 bd b9 6d 4b 3b 7c b9 19 3d
       -0.0166874 -0.039194535 0.0031040742 0.037530407
000220 76 bf 67 3d a1 8a 56 bd 0a 32 03 3d 1a b3 00 bd
       0.056579076 -0.0523783 0.032030143 -0.031420805
000230 25 19 43 3d 0c cf 8f bc 53 0a 1f bd d0 01 6c 3c
       0.0476314 -0.017554782 -0.038828205 0.014404729
000240 62 47 bb bc 30 3f 63 3c d2 fb 70 3c 64 09 40 bd
       -0.022861186 0.013870046 0.014708476 -0.046883956
000250 57 e7 b1 bd 6d 17 90 bc 63 88 56 bd c4 d2 6d 3d
       -0.08686703 -0.017589295 -0.052376162 0.05806233
000260 e0 16 34 bb b0 9f 85 bc c8 c1 62 bd a5 20 c1 bc
       -0.0027479455 -0.016311496 -0.055360585 -0.023575136
000270 b8 71 a2 bd e8 52 2b 3c 5a a1 7b bd 2e be b7 3a
       -0.079318464 0.010456778 -0.061433174 0.001401847
000280 e4 24 8e bc 7d 6a ca bc fe 0a 54 bd 98 bd 70 bc
       -0.017351575 -0.02470898 -0.051768295 -0.01469364
000290 52 96 c1 bc ad d5 b7 bb 88 8d 8c bc e3 32 8b bc
       -0.023631249 -0.005610189 -0.017157331 -0.016992038
0002a0 80 82 5b bb d9 0f 99 bd ca 78 1d 3c a9 92 e2 3c
       -0.0033494532 -0.07473726 0.009611318 0.027657824
0002b0 d2 5e 22 bd 86 48 be bd ae 8e 8d bc 2f b8 99 bd
       -0.03964121 -0.092911765 -0.017279949 -0.07505833
0002c0 c4 7d 00 3d bd b7 e5 bc 70 e8 6f bc 2f de ad 3c
       0.03136994 -0.028041715 -0.01464282 0.02122411
0002d0 6c ea e9 3c 70 47 5a bd 38 3f 2c bc 1c 01 57 bc
       0.028554164 -0.053290784 -0.010513119 -0.013122823
0002e0 52 66 ea 3c 79 ab 8c 3c a0 97 b7 3c 32 9b f0 bc
       0.028613243 0.017171608 0.022411168 -0.029370878
0002f0 fc 51 f9 bc 52 b6 04 bd c8 4c ae bd 7c e2 97 bd
       -0.030434601 -0.032400437 -0.085107386 -0.07416245
000300 d1 12 13 bd a8 29 d7 3c 72 a8 0b bc 11 a2 1a bd
       -0.035906617 0.02626498 -0.008524047 -0.037752215
000310 89 5d 57 bd 4c f4 af bd 07 0d 6b 3c c6 0f 42 bc
       -0.052579436 -0.08591518 0.014346368 -0.011844581
000320 44 c4 2c bd 4e d8 85 bb 39 98 6b 3b a8 fa 2f bd
       -0.04217936 -0.0040846234 0.0035948886 -0.042963654
000330 b3 ca 2a bd 2d d7 3f bd 00 66 21 ba c0 74 f8 ba
       -0.041697215 -0.046836067 -0.0006156862 -0.0018955693
000340 d0 d7 ba bc 37 2b 2f 3c e7 57 ce 3c 29 d3 09 3c
       -0.022807986 0.010691456 0.0251884 0.008412161
000350 a6 bb 91 bc 6a 3b 7e bd a4 3f 2d bd 24 f9 55 3d
       -0.017789673 -0.06206838 -0.04229702 0.052239552
000360 2d 83 b2 bd 6a 68 44 bd f7 0e a7 bd 3e aa 21 bd
       -0.08716426 -0.04795114 -0.08157151 -0.039468996
000370 60 c7 55 bd 16 f4 12 3d 26 d4 15 bd b0 b6 14 bd
       -0.052192092 0.03587731 -0.036579274 -0.036307037
000380 18 3f 33 bc 24 3c 2e bd eb ce a1 bd d4 f8 8c bc
       -0.010940336 -0.042537823 -0.079007946 -0.017208494
000390 04 64 8a bc 1b 2b 1a bd 18 fb c7 3c 40 ca f8 3c
       -0.016893394 -0.037638765 0.024411723 0.030369878
0003a0 9b 18 b4 3a be 34 1d 3c 4c a8 19 bd 40 c8 75 3c
       0.0013740243 0.009595094 -0.037514016 0.015001357
0003b0 f1 b1 5b bd 46 fe aa bd c0 92 51 3c e2 17 11 3d
       -0.053636495 -0.0834928 0.012791336 0.035423167
0003c0 60 03 e5 3c 77 c8 62 3b 0d cd ea bc 6b 99 c9 bb
       0.02795571 0.003460435 -0.028662229 -0.006152322
0003d0 c0 0f cf 3c e5 0e 00 bd ca cc 8f bd ae 66 34 bd
       0.025276065 -0.031264205 -0.07021482 -0.044043235
0003e0 30 f4 6c 3c 92 41 fe bc c0 3b 8f ba 4e 6a a3 3b
       0.014462516 -0.031037126 -0.0010927841 0.0049870377
0003f0 35 63 ea bc 60 70 06 bd f6 f6 bd 3c da c1 d1 bc
       -0.028611759 -0.032822013 0.02318905 -0.025605131

fc.2.bias f4 [256]
000000 f0 07 25 bd 03 c2 28 3d 30 25 bf 3c 89 f5 b6 bb
       -0.040290773 0.04120065 0.023333162 -0.0055834693
000010 cd 54 ac 3c da 4b 82 3d d7 9a b5 bb ac 20 36 3d
       0.02103653 0.06362124 -0.00554214 0.044464752
000020 52 0e 83 bd ce 09 91 bd 67 e8 8b bc 50 f4 6f bd
       -0.06399216 -0.07081948 -0.017078592 -0.058582604
000030 c8 5c f3 3c 19 8b 43 bc f9 ca 53 bd 47 35 3e bd
       0.029707327 -0.011935019 -0.05170724 -0.046437528
000040 77 c5 24 bd d3 80 67 bd 4b 21 b4 bd c4 a4 84 bd
       -0.04022738 -0.05651934 -0.08795413 -0.06476739
000050 9f 54 ab bc ce c4 ce 3b e1 03 fa 3d 27 11 33 3e
       -0.020914374 0.006310082 0.12207771 0.17487012
000060 b9 49 72 bd 5e 5b 69 bd 59 3a 5a bd 4f 1f ae bd
       -0.05915234 -0.0569719 -0.0532783 -0.085020654
000070 a0 28 0d be fa 6c a5 bd 88 df 08 bd d1 82 3a bc
       -0.13785028 -0.08077426 -0.0334163 -0.011383728
000080 c4 f3 1a bd fd 0e 6f bd f6 2e 98 3c 36 25 8d bb
       -0.03783013 -0.058363903 0.01857708 -0.0043074144
000090 f5 0f e1 bc c2 35 1e 3d 5d 29 c6 3c ab e2 82 bd
       -0.02747343 0.038625486 0.024189645 -0.0639089
0000a0 cc 74 13 3e dd 21 0a 3c d7 fb 8b bd cb 71 9c bd
       0.14400023 0.008430925 -0.06835144 -0.07638892
0000b0 f5 4e d7 bd 51 af d3 bb 6b 34 a1 3c 82 b7 17 3d
       -0.10513107 -0.0064601083 0.019678315 0.03704024
0000c0 60 a1 1a 3d 3b c0 24 bc c2 0f 81 3c a9 f5 80 bc
       0.037751555 -0.010055597 0.015754584 -0.01574214
0000d0 b0 f7 b3 bd 82 f4 27 3d 0a 09 15 bb cb d4 4c bd
       -0.08787477 0.041004665 -0.0022740983 -0.050007623
0000e0 a3 a1 21 3b b5 d2 4f bb d4 5e 93 bd b5 88 0e bd
       0.0024662993 -0.0031711285 -0.071958214 -0.034798343
0000f0 42 9e 9a bc cb e7 0d bc 22 aa 97 bd 2c 3f 83 bc
       -0.018874291 -0.008661221 -0.07405497 -0.016021334
000100 3e 71 43 bd f5 48 15 3b 33 3a 3d 3d 96 8f 4f 3c
       -0.047715418 0.0022779081 0.04619808 0.012668511
000110 bb 84 7f ba 91 71 01 3d 99 c6 a9 bd 09 0a 6e bd
       -0.00097472564 0.031602446 -0.082898326 -0.05811504
000120 cc 81 8f bb 3a 4b 94 bc 01 16 8a bd 90 61 d0 bc
       -0.0043794867 -0.018102277 -0.06742478 -0.025437146
000130 c0 db a3 bd ee 51 0c bd fc 6b 8c bd 2a 52 3a 3d
       -0.08000898 -0.03425782 -0.06856534 0.045488514
000140 ed e5 83 bd f8 d8 99 bd f9 3e dd bc 5f 89 e2 bd
       -0.06440339 -0.07512087 -0.027007567 -0.11061358
000150 e3 23 83 bd 24 ea 53 bc 8b b2 9b bd 42 85 54 3d
       -0.06403329 -0.012934241 -0.07602414 0.051884897
000160 60 03 14 3c 69 1e 94 bd 02 fa 01 3e df 41 33 bd
       0.009034008 -0.07232363 0.12693027 -0.04376399
000170 00 8e 15 bd cc ee 87 bd 84 15 e5 bd 4a 78 ea bc
       -0.036512375 -0.06637344 -0.111857444 -0.028621811
000180 82 b7 b3 3d 57 53 02 bd 36 cb de 3d 2a 4e d1 3a
       0.08775236 -0.03181776 0.10878603 0.0015968729
000190 7c 6d db bc bb 6e 8b bd 4b b4 ae 3c d1 12 eb 39
       -0.026785605 -0.068082295 0.021326205 0.00044836712
0001a0 85 d5 82 bd 61 0d 88 bd 68 08 82 bd 09 d1 77 bc
       -0.06388382 -0.06643177 -0.063492596 -0.015125521
0001b0 38 35 21 3d 9e e8 bd bc df c8 4e 3a 80 d3 26 bd
       0.039357394 -0.02318221 0.00078882085 -0.040729046
0001c0 7d 3a 27 bd 6a ee 9b bd cf 1e ba bd 5b 95 c7 bc
       -0.040827263 -0.07613833 -0.090879075 -0.02436321
0001d0 61 67 00 bd 03 b7 09 3e f4 1a 90 bc 9e 49 00 bd
       -0.03134859 0.1344872 -0.017590977 -0.031320207
0001e0 46 2e 79 3b 75 58 4c bd 69 f5 d2 bb 41 e2 19 3d
       0.0038021966 -0.049889047 -0.0064379466 0.03756929
0001f0 c2 e7 27 bc 10 1f 3b 3d be fd 95 bd 34 f6 f1 bc
       -0.010248126 0.04568392 -0.07323788 -0.029536344
000200 22 20 82 3c 62 e7 62 bd 83 b3 ed 3b 9c a0 72 bd
       0.015884463 -0.055396445 0.0072540655 -0.0592352
000210 86 97 98 bc 05 c5 3b bd 5e 89 8f 3c 49 1a 1f bd
       -0.01862694 -0.04584219 0.017521556 -0.038843427
000220 8f e4 84 bd 3e 36 66 3c 72 91 15 3d 64 12 39 3c
       -0.064889066 0.014051018 0.03651566 0.011295889
000230 60 e2 1b 3c 05 40 e9 3b 89 a9 4c 3d 5a 6e 80 bc
       0.009514421 0.0071182274 0.04996637 -0.01567762
000240 69 56 dd 3d 7f a2 92 bd 27 f4 4a bd fa fe 6c 3d
       0.10807497 -0.071599 -0.049549248 0.057860352
000250 84 66 80 bd 7a c8 8e bd 3b 68 7c bd 58 52 7b 3a
       -0.06269553 -0.069718316 -0.06162284 0.00095871603
000260 9c 52 16 3d 23 42 95 bd 53 1c 11 bd 35 3f 60 bd
       0.036699876 -0.07288005 -0.035427403 -0.05474778
000270 d4 3f 9e 3c 49 85 9d 3c 86 d1 cc bd 8e 1e 34 bd
       0.019317545 0.019228594 -0.10000901 -0.04397445
000280 5f af 7c bd c8 e5 ad bd e8 93 bc bd f7 b0 3d 3b
       -0.061690684 -0.08491093 -0.092078984 0.002894459
000290 a6 4d 9e 39 93 e5 4f 3d 15 3b d1 3c f3 f3 11 bd
       0.0003019396 0.05075605 0.025540868 -0.03563304
0002a0 02 80 0c bd ba 6a a5 bd 1c 38 ee bd 4f 8e b3 bd
       -0.034301765 -0.08076997 -0.11631796 -0.087673776
0002b0 b6 40 93 bc 58 7b 26 bd b5 b3 04 3d 00 ad 21 3d
       -0.017975193 -0.040644974 0.032397944 0.039471626
0002c0 48 62 29 bc 13 02 4a bc 82 6c 84 bd b7 c3 43 bd
       -0.0103383735 -0.012329596 -0.06466009 -0.04779407
0002d0 6c c9 7a bc f2 88 2d bd 0e fb 69 bc 23 77 8a bd
       -0.015306812 -0.04236693 -0.0142810475 -0.06761005
0002e0 eb e2 1b 3d eb 24 02 bd dc b7 04 bd 99 4f 8a 3d
       0.038058203 -0.03177349 -0.032401904 0.06753463
0002f0 10 dd b4 bd 32 1b 78 bc 7b 5c 2e bd 19 73 98 bc
       -0.08831227 -0.015143203 -0.042568665 -0.01860957
000300 01 c0 a6 bd d9 c1 8f 3b e8 2e 7e bd 81 87 17 3c
       -0.081420906 0.004387122 -0.062056452 0.009248615
000310 8f 6c 15 bb b4 a5 08 be ec db fd 3c 9e 6d 2c 3d
       -0.0022800302 -0.1334446 0.030988656 0.042096727
000320 00 6b 4a 3c bb 9c b6 bd 62 e1 01 3d 96 82 d8 bd
       0.012354612 -0.08916613 0.031709082 -0.10571782
000330 b2 0f c6 bc cd eb 94 3d 62 77 59 3c 12 53 27 bd
       -0.024177406 0.07271538 0.013273092 -0.040850706
000340 d3 3d d3 bc 0a f2 35 ba db af c5 bd 90 e5 a4 3c
       -0.025786316 -0.00069406687 -0.096526824 0.020128995
000350 e3 96 4d 3a 59 10 f6 3c 34 8c 48 bd 92 de a2 bd
       0.0007842613 0.030037092 -0.048961833 -0.07952608
000360 ae a0 d2 bc 30 6a af bd a4 d7 96 bc fa 2d b6 bb
       -0.025711384 -0.085651755 -0.018413372 -0.00555968
000370 44 6d 68 bd 2d 7b c1 bc 8b 88 42 bd 7a 3d 7e bc
       -0.05674483 -0.023618305 -0.0474935 -0.015517587
000380 ba 45 34 bd 3f bf 08 bd c1 4f 4a 3b c3 4c b8 bd
       -0.04401181 -0.03338551 0.003087029 -0.08999016
000390 f1 7e 21 3d 0c f4 3d 3d a7 9b 54 bd 76 71 8e bd
       0.0394277 0.04637532 -0.051906254 -0.06955235
0003a0 e0 5b 5a bb aa e8 0c 3b 67 42 96 bd 3a 85 b3 bc
       -0.0033318922 0.0021500983 -0.07336884 -0.021914113
0003b0 88 71 46 bd 3b 25 3a bd b2 2a 17 bd 00 00 1c bc
       -0.048448116 -0.045445662 -0.03690595 -0.009521484
0003c0 87 0f e7 bc 96 61 33 bc df 69 dc 3c 15 fe 1e bd
       -0.028205646 -0.010948559 0.026905952 -0.03881653
0003d0 91 27 e5 bc 93 e6 b1 bd fc 14 da bd 48 fc 7c bc
       -0.027972968 -0.08686557 -0.10648534 -0.015441008
0003e0 25 c1 a9 bc 3d e6 c9 3d 69 98 a8 bd 44 cf 66 bd
       -0.020721981 0.098583676 -0.08232195 -0.056350008
0003f0 6b 9d ec 3c 2e f0 89 3c 51 db 38 bc 04 09 c3 3b
       0.028883656 0.01683816 -0.011282758 0.0059520025

fc.4.weight f4 [4, 256]
000000 40 af f5 bc 8b 75 31 bd 1e 1b 5e bd 77 41 c5 bd
       -0.029990792 -0.04332499 -0.05422508 -0.09631627
000010 2c a8 a8 bc 7d 66 b3 be 21 f7 12 bd 58 18 62 bd
       -0.020588003 -0.3503913 -0.03588021 -0.055198997
000020 b1 bb 3c bd 5c e9 a0 bd f8 a6 63 3d 34 d1 88 3c
       -0.046077434 -0.0785701 0.055579156 0.016701318
000030 14 e5 5e bb ac f5 81 3d 30 61 fd 3c 31 a3 5b 3c
       -0.0034011053 0.06345686 0.030930132 0.013405607
000040 26 a5 58 bd 0d b9 87 bc d0 74 de bc 83 2a 32 3c
       -0.052891873 -0.016567731 -0.02715531 0.010874393
000050 cc 8b f8 bc 14 27 fa 3c ef 4b 7d bd 9b de 86 3c
       -0.030340098 0.030536212 -0.061839994 0.016463568
000060 f0 53 fe 3c 00 a6 50 bc d9 ab 00 bd 10 24 95 3c
       0.031045884 -0.01273489 -0.031413887 0.018205673
000070 4c 13 05 3d 89 de 62 bd 30 61 e3 bc 69 b0 b6 ba
       0.032489106 -0.055388007 -0.027756304 -0.0013938072
000080 60 81 c1 3c a6 ba 79 bc 12 60 92 3b 50 52 57 3d
       0.023621261 -0.015242254 0.004467019 0.052568734
000090 b1 ce 54 3c 60 32 d0 bc 78 57 59 3c a9 69 c7 bd
       0.012988732 -0.025414646 0.013265483 -0.0973695
0000a0 b6 b4 b9 3c c0 c3 c2 ba 44 b4 62 3c f0 11 30 3d
       0.022669178 -0.0014859363 0.013836924 0.042985857
0000b0 74 f7 5c 3d 3d de 60 3d 4c 32 57 3c 18 f5 c7 ba
       0.053946927 0.054899443 0.01313455 -0.0015255539
0000c0 a8 e5 06 3d 86 da 1e bd de 4b 21 bd 7c 12 74 3d
       0.03293386 -0.03878262 -0.039378993 0.05958794
0000d0 78 54 e3 bc 04 47 d2 3c 28 63 18 bd 25 af 27 3d
       -0.027750239 0.025668629 -0.037203938 0.040938515
0000e0 1b be 8c 3d fd 75 bd 3c 66 9c b2 bd 30 b1 ab bc
       0.06872197 0.02312755 -0.08721237 -0.020958513
0000f0 6e 80 ef bc a0 4e 32 bd d8 61 e0 bc 41 51 00 be
       -0.029236045 -0.043532014 -0.027390406 -0.12530996
000100 a7 7c 77 3d 10 93 06 3d 79 36 d2 3b b0 cb 48 3c
       0.060421612 0.032855093 0.006415185 0.012255594
000110 38 3f 0e 3b 95 72 e5 bc c8 5d 8e bd b8 34 85 bc
       0.0021705162 -0.028008739 -0.06951481 -0.01626049
000120 68 3a 93 3a e1 f9 63 3d bf 44 9b bc ab 6a 2d bc
       0.0011232616 0.055658225 -0.01895368 -0.010584514
000130 36 1e 55 bd 36 7b 6c bc ee 78 02 bd 81 d3 61 bd
       -0.052030765 -0.014433673 -0.03185361 -0.055133346
000140 e8 45 87 bc 78 6d cf bc 5f 14 b3 bc 3c b8 12 bb
       -0.016512826 -0.025320753 -0.0218603 -0.0022387644
000150 97 b5 a6 bc a7 37 2a be f0 60 72 bb 1f 4f 28 39
       -0.02035026 -0.16622792 -0.0036984049 0.00016051203
000160 61 7e 34 bd 80 5b 80 bc 01 a2 e5 3c 5b 0e 10 3c
       -0.044065837 -0.01566863 0.028031351 0.008792485
000170 90 96 11 3c 96 de 7e 3c 28 5a ff 37 2c 7c e4 3c
       0.008885995 0.015555998 3.0440351e-05 0.027891241
000180 2e c6 09 be e1 3c b3 bd 4c 93 0d be b6 ea 0f 3d
       -0.13454506 -0.08751846 -0.1382572 0.035135947
000190 ae 52 50 3d a6 c9 ec 3b a1 5d f5 3c cf 6e 23 3d
       0.0508601 0.007226187 0.029951872 0.039900597
0001a0 8c 92 4a 3d f3 6e b8 bc 46 46 e0 3b e5 ad ec 3c
       0.049456164 -0.022513842 0.0068443147 0.028891513
0001b0 6e 39 02 3c 5c f8 ee bc 8c 2f c1 bc 79 de 9a bd
       0.007948263 -0.029171161 -0.023582242 -0.075619645
0001c0 1c 28 f5 bc ca 00 11 3d 07 56 db 3c 74 4f bd 3c
       -0.029926352 0.035401143 0.02677442 0.023109175
0001d0 92 2c 0f be 35 9c 97 bd 89 9e f6 bc d3 96 d5 bc
       -0.13981846 -0.07402841 -0.030104892 -0.026072895
0001e0 81 3e d2 3c d9 4e 3a 3c 23 70 63 3d d1 6b 1a 3d
       0.02566457 0.011371338 0.055526864 0.037700478
0001f0 30 88 16 bc 43 8e 64 bc cc ba fb bc 44 50 9f 3c
       -0.009187743 -0.013949933 -0.03072872 0.019447453
000200 66 65 09 be 04 8c 78 bd b7 01 db 3c 68 0d 6f bd
       -0.13417587 -0.060680404 0.026734216 -0.058362395
000210 bb 7c b5 3c 50 9f b6 bc 54 19 5c bd c6 06 c4 3c
       0.022154203 -0.022292763 -0.053735092 0.023929011
000220 86 2b aa bc fa c9 15 3d 25 ca d8 3c b7 bd 1d 3d
       -0.020772707 0.036569573 0.026463578 0.038511004
000230 06 88 87 3c d9 95 03 3d 9b d9 29 3d b4 c3 33 3c
       0.016544353 0.032125328 0.04146729 0.010971952
000240 8d b1 7f be 17 28 d6 bb 3e 52 3c bc e7 d5 f5 3c
       -0.24970074 -0.006535541 -0.011494217 0.030009223
000250 90 e8 aa 3b 3e 00 5e bd de b8 14 bd 81 71 f5 3c
       0.005215712 -0.05419945 -0.036309116 0.02996135
000260 b6 32 5a 3d b5 e8 db bc ce 8d 5f 3d c7 c0 00 3d
       0.053271018 -0.026844362 0.054578595 0.031433847
000270 0a 18 8c bc 91 af 19 bc 04 83 d8 3c bc fc 3c 3d
       -0.017101306 -0.009380237 0.02642966 0.046139464
000280 56 2c 3e 3d 26 d7 45 bc c9 4b be bd 54 53 a0 bc
       0.046429 -0.012075221 -0.092917986 -0.019570984
000290 60 ba 34 3d ef c3 26 bd fd d1 ae bc a9 04 01 3b
       0.044123054 -0.0407142 -0.021340365 0.0019686616
0002a0 fd 82 46 3c 0c 09 7b bd c5 f4 29 bd 1f 50 2f 3b
       0.012116191 -0.061287925 -0.041493196 0.0026750637
0002b0 d7 eb 9e 3c 18 e9 4a 3d 5a be 91 be 6a dc f4 3c
       0.019399567 0.0495387 -0.2846554 0.029890258
0002c0 03 e3 9c bc d9 14 45 bc 83 1e b7 bc 8c 31 7e 3b
       -0.019151216 -0.012028896 -0.022353416 0.0038786856
0002d0 58 2b 01 be 8b 4e d0 bb 9e 32 64 3c 38 8a 6a bd
       -0.1261419 -0.0063570193 0.013928084 -0.057260722
0002e0 fc df 2c bd 9c ef 57 bd 78 8e 55 3d 08 89 d6 bd
       -0.042205796 -0.052718744 0.052137822 -0.104753554
0002f0 44 d6 18 3d be c3 64 bc d6 f3 a1 bb 80 0c f7 3c
       0.037313715 -0.013962684 -0.0049423976 0.030157328
000300 e2 6a 48 3d 8d 91 1c bd cc 99 7b bb 20 61 7d 3c
       0.048930056 -0.038224746 -0.003839123 0.015465051
000310 a4 f5 22 bd 1e 6e cc bc aa 02 26 3d 4c 56 f1 bd
       -0.039785042 -0.024954852 0.040529884 -0.11784038
000320 d0 82 dc 3c 34 38 51 3c a9 db 00 3d 68 7c d9 3c
       0.026917845 0.0127697475 0.031459484 0.02654858
000330 dd 0a 61 3b 2c 78 04 3d 2b b7 a4 3c 5f cc 10 bd
       0.003433875 0.032341167 0.020106873 -0.035351153
000340 bd 6a 1b 3d c7 a7 27 3e b8 45 18 bd 35 0e 0f 3d
       0.03794359 0.16372596 -0.037175864 0.03492566
000350 b0 c7 c2 3b c9 53 b5 3c f3 93 17 3d cc fc 5e 3d
       0.0059442148 0.022134678 0.03700633 0.054440305
000360 fd 07 e3 3c 7d 9c 2c 3d e0 2f 55 3b f1 51 3e bb
       0.02771377 0.042141426 0.0032529756 -0.002904054
000370 2c 82 1c bd f7 f3 cb 3b 70 6c f0 bc b6 f2 53 bc
       -0.03821008 0.0062241512 -0.029348582 -0.012936285
000380 03 db b6 ba 79 e5 47 bc 7d da 18 bd 87 63 a3 bb
       -0.0013950769 -0.012200707 -0.03731774 -0.00498623
000390 a0 cc e7 bc a8 20 4d bd 68 b1 a6 3c b9 8b ba 3c
       -0.028295815 -0.05007997 0.020348266 0.022771703
0003a0 18 85 1f bb 90 10 94 bc 78 dc 1d bd 72 c2 ba bc
       -0.0024340805 -0.018074304 -0.038540334 -0.022797797
0003b0 64 ca 9b bc 21 25 69 3c e8 d5 09 bb 62 9c 12 3d
       -0.019017406 0.014230044 -0.002103204 0.03579367
0003c0 9c fa df 3c 24 82 9d bc fa a6 80 bc ef c1 1b bd
       0.02734118 -0.019227095 -0.01570462 -0.038026746
0003d0 aa d5 40 3d 89 23 10 bb 9d d5 da 3d 9c 89 81 bd
       0.047078766 -0.0021993837 0.10685275 -0.06325075
0003e0 43 54 2c bd b7 33 9a bd 06 a3 48 bb 7f 17 24 3c
       -0.042072546 -0.07529395 -0.0030614748 0.0100153675
0003f0 90 b2 3a 3d 60 7b b3 3c 44 24 d9 3c 6b cc e0 bc
       0.045580447 0.021909416 0.02650655 -0.027441224

fc.4.bias f4 [4]
000000 43 bb 59 bd 09 bc 4c 3d bb bc fc 3b 0e 10 07 bd
       -0.053157102 0.04998401 0.007712928 -0.032974295
