QNet_model_best.pth (torch, 278359 bytes, 6 tensors)

fc.0.weight f4 [256, 8]
000000 fc 6f 84 bf ce b7 82 bf a5 0a 50 3f 47 86 c4 bf
       -1.0346675 -1.0212343 0.8126624 -1.5353478
000010 f8 ca 10 be 46 55 94 3e d1 5b 80 bf 93 ba a5 3e
       -0.14139926 0.28971308 -1.002802 0.32368907
000020 4b f3 49 bd 69 13 6b be 26 3a 19 bd dc 39 97 be
       -0.049304288 -0.22956623 -0.03740897 -0.2953633
000030 ef 15 ad be a4 88 6f be 03 b8 05 bd 6e 16 40 3e
       -0.33805797 -0.23391968 -0.03264619 0.18758556
000040 d2 ef 57 bf e6 ce 9d 3e bf 31 a4 3e 74 90 c0 bf
       -0.8435031 0.30821913 0.32069203 -1.5044084
000050 13 dd 28 be 7b 3d 58 3f 32 ce 8a bf 61 89 cb 3e
       -0.16490583 0.8446881 -1.0844176 0.3975325
000060 d0 78 5e bd 01 85 7a be 64 45 50 3e fc ab 12 3e
       -0.054314435 -0.244648 0.2033897 0.1432342
000070 63 c1 b3 3d 54 0b d4 bd 35 c5 4e bd 25 fa 67 be
       0.0877712 -0.10353723 -0.05048104 -0.22654016
000080 9f 67 27 be 5b a2 70 be 41 eb a4 3d b6 39 a4 be
       -0.16348122 -0.23499434 0.080526836 -0.3207528
000090 5a 1a bb bd f2 17 14 3e cc f3 a6 be 14 fe 66 be
       -0.091358855 0.1446226 -0.32607877 -0.2255786
0000a0 4e 11 ff be d5 c4 21 bf a1 bf 44 bf 84 14 ec be
       -0.4981789 -0.63190967 -0.768549 -0.46109402
0000b0 e0 26 c7 3e d4 58 8e be 29 84 82 3e be dc 3c bf
       0.38896847 -0.27802145 0.25491455 -0.73774326
0000c0 99 cc 63 3e b4 f3 2d bf 26 44 82 be 03 25 c4 3c
       0.22246017 -0.67949986 -0.25442618 0.02394343
0000d0 b2 7a c8 be 95 79 13 3d 28 98 ef bd 01 c5 5d be
       -0.3915611 0.03600462 -0.116989434 -0.21657182
0000e0 2d a0 c2 3c 94 10 17 3f 7c 42 0c bf 2c 53 27 3e
       0.023758018 0.5900967 -0.5478895 0.16340321
0000f0 bf 6d c3 3d 35 4d c4 be 68 ee 29 3f ee 3e db be
       0.09542417 -0.38340154 0.66379404 -0.4282145
000100 b1 f1 42 bf b0 c4 2a bf 9b 0c ff 3e c0 79 34 3f
       -0.7615004 -0.6670637 0.49814305 0.70498276
000110 f9 ea 4d bf ef 35 d9 be ad f0 cd be 2b f5 79 3e
       -0.80436665 -0.4242396 -0.40222684 0.2440993
000120 8d 0b c0 3d 78 c6 9a be 01 53 f5 bb cb 45 6e be
       0.09377203 -0.30229545 -0.0074867015 -0.23268811
000130 9d 3e a7 3d 1f d7 31 3e 06 b0 8d be e8 eb 1e bd
       0.081662394 0.17367218 -0.27673358 -0.038799196
000140 73 b6 14 bf ca 94 94 3e 4f c6 c7 3d 8a f5 22 bd
       -0.58090895 0.29019767 0.09754621 -0.039784946
000150 87 c0 5e be fb 27 e7 3e a6 d8 04 bf 7b 00 74 bf
       -0.21753131 0.4514769 -0.5189308 -0.95313233
000160 17 e3 26 be 51 44 5a 3e 56 44 02 3d dd 82 52 3e
       -0.16297565 0.21315123 0.03180345 0.20557733
000170 de 28 21 bd 7a d4 9c be 36 1d 6c 3d a3 cd cb 3c
       -0.039345615 -0.30630857 0.057645045 0.024878329
000180 03 28 16 3e e0 f0 fa 3d 39 85 39 be f1 62 36 be
       0.14663701 0.122529745 -0.18117227 -0.1781118
000190 4f f4 8a be c1 e5 a4 3d de 8b 5a be 24 35 d4 bc
       -0.27139518 0.080516346 -0.21342418 -0.025904246
0001a0 48 aa cf 3e 7e 49 1c bf 8b 04 75 bf 63 04 1b bf
       0.40559602 -0.6104964 -0.9571006 -0.6055357
0001b0 2d 0d a3 3e 73 ba 14 3e 87 b5 ba be 0f ea 6e bf
       0.3184599 0.1452425 -0.3646662 -0.93325895
0001c0 a4 77 38 be aa 6f 53 bd 50 b2 83 3e 37 02 64 be
       -0.1801439 -0.051620163 0.2572198 -0.2226647
0001d0 cd 16 49 3a a1 fe 99 be 12 2e 2c 3d b3 ef 6e 3c
       0.0007670939 -0.3007708 0.042036124 0.014583516
0001e0 dc 53 86 bf f8 29 ae be d8 7d 98 be ab ba 40 3f
       -1.0494342 -0.34016395 -0.2978351 0.7528483
0001f0 7e 2c c9 be 7a eb 9e 3d 58 f5 37 bf 78 fa 81 3e
       -0.39291757 0.07759757 -0.7185874 0.25386405
000200 c6 3f 99 3c c5 d8 d1 3d 22 63 8f be 33 32 17 3d
       0.018707167 0.10246424 -0.2800532 0.036913108
000210 a9 6a fd 3d c0 f4 a0 bd cc bc 89 bd a9 6b 75 be
       0.123738594 -0.07859182 -0.06725463 -0.2396685
000220 47 41 d2 3e 27 80 f0 be 0e 60 af be 4a 8c 1c bf
       0.41065428 -0.46972772 -0.3425297 -0.61151564
000230 19 87 98 3e 0c 30 19 3e 0e 7f 77 bf 10 18 4d bf
       0.2979057 0.14959735 -0.96678245 -0.8011484
000240 58 7d e8 3c e5 92 24 be 26 d4 f9 be 2d ef fd 3a
       0.028380081 -0.16071661 -0.4879467 0.0019373648
000250 f7 f0 48 3e 81 ed 45 bd c5 be b0 be 0a 0e 06 bf
       0.19623171 -0.048322205 -0.34520546 -0.5236517
000260 9e 3d e5 be c4 3d b1 3e 4d 58 f0 be 30 8f 21 be
       -0.44773573 0.34617436 -0.46942368 -0.15777278
000270 bd 1d 82 3d aa 30 e4 be ea 25 d9 be 8c e2 e8 be
       0.063533284 -0.44568378 -0.4241174 -0.45485342
000280 d9 2e 29 bf e9 41 21 bf cd 29 bb 3e 06 90 8f bf
       -0.6608711 -0.62991196 0.3655533 -1.1215827
000290 5e 00 fb be b9 ad 8f be 2e de e1 be c5 cb b3 3e
       -0.49023718 -0.28062227 -0.44114822 0.351164
0002a0 23 7f 1f 3f 41 f6 68 3f ae 37 55 bf 63 38 3f bf
       0.6230337 0.91000754 -0.83288085 -0.74695414
0002b0 75 c2 fe be e9 1c 7d 3e fa 1d 90 bf 87 a6 9b bf
       -0.49757734 0.2471806 -1.1259148 -1.2160195
0002c0 7d c7 70 bd 65 60 06 3e 4f 8d c8 bd 93 0a 06 3e
       -0.058783997 0.13122709 -0.097925775 0.13089971
0002d0 22 65 59 be 11 85 fd bd 52 0f f4 3d 09 8d de be
       -0.21229985 -0.12378896 0.119169846 -0.43466976
0002e0 62 29 e6 bd 48 1f f2 ba 8d 6a 0a be 41 94 03 3e
       -0.11238362 -0.0018472457 -0.13517208 0.12849523
0002f0 e5 93 3d be c3 d3 6b be 25 cf 33 3e 16 c9 95 3d
       -0.18513449 -0.2303 0.17559488 0.07313745
000300 31 cf 26 3d 97 92 fa bc 4b 1a 08 bd 4b 8d 0e be
       0.040724937 -0.030587478 -0.0332282 -0.13921086
000310 7c 50 2f 3e 69 d9 14 3e 84 4d 84 3e b4 38 78 3e
       0.17120546 0.1453606 0.2584039 0.2424038
000320 0d 29 92 be d6 60 f2 be fc 21 17 3e 67 46 1f be
       -0.28546944 -0.47339505 0.14759058 -0.155542
000330 1b 0b 64 3e 23 cc 3c 3e 6a 60 d4 bb 2e b2 87 be
       0.22269861 0.18437247 -0.00648122 -0.26503128
000340 8d b8 88 3e 75 45 1b bf ef c6 ba 3d ad a6 4c 3e
       0.267033 -0.6065286 0.09119975 0.19985457
000350 26 5c f0 3e 0d 58 05 bf c5 70 26 bf 96 0c f3 be
       0.46945304 -0.5208748 -0.6501582 -0.4747054
000360 15 da cb bd cc 7b 9f 3d 48 64 6a be ab ef 8b bd
       -0.09953705 0.07787284 -0.22889817 -0.068328224
000370 fe c8 79 be 95 d0 2a be 49 fb 8d be fd 7d 34 3e
       -0.24393079 -0.1668113 -0.27730778 0.17626186
000380 86 10 c3 3c 6e 4d e1 be 32 f0 c5 be 32 5a a6 3d
       0.02381159 -0.44004387 -0.38659817 0.08122672
000390 6c 95 f0 bd 46 a9 06 3e 72 42 89 3e ab 0b 42 3c
       -0.1174725 0.1315051 0.26808506 0.011843602
0003a0 d2 4f 46 bb b3 e9 f1 3e db b9 cc be ab fd 72 3d
       -0.003025998 0.4724861 -0.39985546 0.059323948
0003b0 22 00 43 bf 72 61 bd bd 98 4c 09 3f 77 4b 8c be
       -0.7617208 -0.09247102 0.536325 -0.27401325
0003c0 0a 1b 42 3e 80 3b bd 3e bd f2 dd be e7 7f 27 bf
       0.18955627 0.36959457 -0.43349257 -0.6542954
0003d0 0b 22 ca be da d3 a9 3d 1b c6 2f bf df 9a be be
       -0.39479098 0.082923606 -0.6866166 -0.37227532
0003e0 7d fc 19 be d5 6b 45 3f ba 7e bd be 4f 70 e0 be
       -0.15037723 0.77117664 -0.37010747 -0.43835685
0003f0 7c 5d cc 3e 73 08 0a bf cc 82 7b be 75 e0 b4 3e
       0.39915073 -0.5391914 -0.24561614 0.35327497

fc.0.bias f4 [256]
000000 82 f0 87 be c8 ef 67 be 11 62 dd 3d d9 e6 f6 be
       -0.2655068 -0.22650063 0.1080972 -0.48222998
000010 4f 58 86 be 53 f1 cc bd 03 c6 cc be 0c 89 34 be
       -0.2623925 -0.100069664 -0.3999482 -0.17630404
000020 a0 70 64 be 21 bb 99 be 53 00 26 3e 7a b5 22 bf
       -0.22308588 -0.3002558 0.16211061 -0.6355816
000030 68 d1 b6 be 32 ad cf 3e 3d e0 a0 be 68 09 0b be
       -0.3570664 0.40561825 -0.3142108 -0.13577807
000040 71 25 95 be b6 0d c3 3e a7 06 7e be 89 ff 37 be
       -0.29130128 0.38096398 -0.24807225 -0.17968573
000050 b5 46 0f bf f1 8a 8c be ed cc de be 48 ba a1 be
       -0.55967265 -0.27449754 -0.4351572 -0.31587434
000060 30 0e f7 be 6b f8 c1 be 8b 82 83 3c 4e a5 85 be
       -0.48253012 -0.3788484 0.016053459 -0.2610268
000070 8a 57 0b bf d9 3a db be 10 23 2e be 47 77 d7 be
       -0.5443045 -0.42818335 -0.17005563 -0.4208319
000080 b8 79 61 bc 2d fe b6 be d6 cd 36 be b3 a5 b0 bd
       -0.01376193 -0.35740796 -0.17851958 -0.086253546
000090 a6 99 07 3e 28 b6 6d 3d c7 78 cc bd 9a b0 11 bf
       0.13242206 0.058035046 -0.09983974 -0.569101
0000a0 4d a5 de be 55 c2 8a be 93 70 69 be 44 2b 20 bf
       -0.4348549 -0.2710139 -0.2279685 -0.6256602
0000b0 45 41 04 3f 20 ea ac be 6e 57 b2 be 8c 61 92 bd
       0.51662093 -0.33772373 -0.3483233 -0.07147512
0000c0 7f db ec be fb 66 e5 be 9f 63 a3 3e 36 78 a2 3e
       -0.46261212 -0.4480513 0.31911942 0.3173234
0000d0 85 22 cd be 45 77 04 be a9 ec 3e 3f 7a 24 15 be
       -0.400654 -0.12936123 0.74579865 -0.14564696
0000e0 81 72 f4 bd cd 4b d3 be 18 c2 d5 be 76 a7 c1 be
       -0.119359024 -0.4126877 -0.41749644 -0.37823075
0000f0 c1 8c 8a 3d b6 c9 b7 be 13 18 0a 3f 81 b1 a3 bd
       0.06765128 -0.3589608 0.53942984 -0.079928406
000100 ae 27 7e 3f 85 91 29 bf 4a e7 8b be 5a cf 8d be
       0.99279296 -0.6623767 -0.27324897 -0.2769726
000110 01 0f de be e3 88 de be a1 50 1b bf 26 2a 9e be
       -0.43370822 -0.4346381 -0.60669905 -0.30891532
000120 f0 82 21 bf 96 c0 46 be bb d6 3f be 2c 58 df 3d
       -0.6309042 -0.19409403 -0.18734257 0.10905489
000130 48 46 ce be b6 f5 d3 3e 3f 03 9a be 5e 19 8d 3d
       -0.40287995 0.413984 -0.30080602 0.06889604
000140 62 a0 95 be a0 5c 11 be ed 42 18 bf 9f 62 50 be
       -0.29223925 -0.1419549 -0.5947712 -0.20350121
000150 b0 46 17 3f 69 7e ad be d8 31 69 3e 72 31 a5 be
       0.59092236 -0.33885506 0.2277292 -0.32264286
000160 19 ea 12 bf 88 7a a6 3e 0b 70 06 bf 29 b8 be 3c
       -0.57388455 0.3251536 -0.52514714 0.023281174
000170 99 aa 4a bd df 04 ca be b5 85 26 be c5 de 30 be
       -0.0494791 -0.3945684 -0.16261943 -0.1727248
000180 9e 43 12 bf d8 ea 00 bf 4f 04 5a be f9 c1 4e 3e
       -0.57134426 -0.50358343 -0.21290706 0.20191182
000190 a7 9e 98 be 9c 6a 32 bd 69 5f b0 be a6 ae db be
       -0.29808542 -0.043558702 -0.34447792 -0.42906684
0001a0 e8 9a 11 bf 03 f1 25 be 91 1f b4 be 50 fa a7 be
       -0.56876993 -0.1620522 -0.35180333 -0.3280816
0001b0 9a 8f bd be 98 87 a2 be 81 7d 9b be 4f 21 dc 3d
       -0.37023622 -0.31744075 -0.3036919 0.107485406
0001c0 5a f0 a3 bd 1a 78 37 3f dd 4e b4 3d ef 28 5e bf
       -0.08004828 0.71667635 0.088041045 -0.8678121
0001d0 1a 4d 13 3e 8f 5c bd bd e3 98 77 be 86 94 43 be
       0.1438488 -0.0924617 -0.24179415 -0.19099626
0001e0 0f 91 71 be 3c f7 e1 3d 9b 6d e2 be d7 f8 07 bf
       -0.23590492 0.11033484 -0.44224247 -0.53114074
0001f0 9e 43 41 be 9f c7 fe 3d 88 37 8d 3d ea 95 15 bf
       -0.1887345 0.124404185 0.06895357 -0.58431876
000200 f0 72 91 be c1 c6 16 bf 1e ea 38 3d 8b 4b c8 bd
       -0.28408003 -0.58897024 0.045145147 -0.09780034
000210 91 54 ec be 2c f6 b4 be 42 13 c9 3e 96 9f 33 3e
       -0.4615827 -0.35344064 0.39272505 0.17541346
000220 db e7 2c bf e7 db 03 3e cc 7c c4 be 9c 25 43 3e
       -0.67541283 0.12876855 -0.38376462 0.19057316
000230 fd c5 58 be 98 e1 02 be 04 f0 39 bf 33 52 73 be
       -0.21169277 -0.1278137 -0.7263186 -0.23761825
000240 69 7d f1 3e 70 5b 67 be 0b a3 22 be bc 15 24 be
       0.47165993 -0.22593474 -0.15882508 -0.16023916
000250 ed 3f 4a bf 77 9d 20 be e9 93 05 bf b1 8d 41 bf
       -0.79003793 -0.15685068 -0.5217882 -0.7560683
000260 cb 75 87 3e e4 33 a5 3e d0 4c e7 be 51 34 5d be
       0.26457056 0.32266152 -0.4517579 -0.21601988
000270 f1 e6 de be dc 41 51 be e0 1f 32 bd 59 43 9e be
       -0.4353557 -0.2043528 -0.04348743 -0.30910757
000280 80 e9 06 3f d3 85 89 3e 5e c0 b7 be b7 c5 6e be
       0.5270004 0.26859912 -0.35888952 -0.2331761
000290 52 c6 c8 3e d0 17 28 be 06 e4 47 be 35 59 b3 be
       0.39213806 -0.16415334 -0.19520578 -0.35028997
0002a0 a2 45 7d be a8 27 84 3d 6c f1 bd be df 98 09 be
       -0.24733594 0.06452876 -0.37098253 -0.13437222
0002b0 3b ae 10 3f 9e cc be be 89 ae ad be 6d d6 4c be
       0.56515855 -0.37265486 -0.33922222 -0.20003672
0002c0 8f a9 90 3c fe 50 75 be c3 35 ce be 4c 91 9e be
       0.017658977 -0.23956677 -0.40275392 -0.30970228
0002d0 01 10 84 be 9e 34 31 3b 73 35 74 be 85 d8 35 3f
       -0.2579346 0.002703942 -0.23848514 0.7103351
0002e0 5f a0 04 bf 79 66 27 3f a6 90 fd be 4e f5 e2 be
       -0.51807207 0.65390736 -0.4952442 -0.44327778
0002f0 bd 3e 16 bf 8c 34 24 bf 31 7a 42 3e 61 31 a0 bd
       -0.5868948 -0.6414268 0.18991925 -0.07821918
000300 ac 2d 02 bf 35 da 01 bf b5 33 5f be 59 dd 93 be
       -0.5085094 -0.5072358 -0.21797068 -0.28879812
000310 32 a3 e8 be 60 2a e6 be b0 c7 87 3d 76 46 58 be
       -0.45437008 -0.44954205 0.06629884 -0.21120629
000320 13 95 18 bf 01 61 58 be 82 8b c2 be 05 7c c3 be
       -0.5960247 -0.21130754 -0.3799706 -0.38180557
000330 e2 06 33 bf 91 0f ea 3d 0c 30 1a be 53 4d 10 3d
       -0.6993238 0.1142875 -0.15057391 0.035229992
000340 9f 00 09 bf 17 6e 9c bd 12 a7 63 bc 67 9f 5e be
       -0.5351657 -0.076381855 -0.013894813 -0.21740495
000350 2f 0d 09 bd f1 2a d4 bd 89 d0 28 3d b5 91 06 bf
       -0.03345984 -0.10359753 0.0412145 -0.5256608
000360 46 1d b3 3e 09 21 03 bf d6 a1 9f 3e f7 b1 3d bf
       0.3498327 -0.5122228 0.3117816 -0.7409968
000370 6a 37 d0 be 85 b7 88 be 20 2e 0d 3f c6 29 c1 be
       -0.40667278 -0.26702514 0.55148506 -0.37727183
000380 a5 00 af bd ef 9e b6 be 99 ba 88 be ca 4b eb be
       -0.08545045 -0.35668132 -0.26704863 -0.4595626
000390 0d 74 dd be a6 21 de be 6c 13 34 be f3 b7 e4 be
       -0.43252602 -0.43385047 -0.17585534 -0.44671592
0003a0 55 54 2f bf f4 92 4b bf d1 b0 bb be ed 67 01 bf
       -0.68488055 -0.7952111 -0.36658338 -0.50549203
0003b0 78 ea a5 be 11 85 c5 be 75 5c 10 3f c2 51 e6 be
       -0.32405448 -0.38578084 0.5639108 -0.4498425
0003c0 db de 92 be 47 5b 2e 3f de fa 9b bd 6f 52 c7 be
       -0.2868565 0.6810803 -0.076162085 -0.3893008
0003d0 53 78 9c 3e 8c 4b f3 be 88 96 57 bd 76 8e bd 3e
       0.3056055 -0.47518575 -0.052633792 0.37022752
0003e0 0a 30 3f be f4 20 cb be 12 a2 88 be d6 b3 02 be
       -0.18670669 -0.3967358 -0.2668615 -0.12763914
0003f0 40 22 68 be ad 27 ec bd 46 6c a0 be 66 50 d7 be
       -0.22669315 -0.11531005 -0.31332606 -0.42053527

fc.2.weight f4 [256, 256]
000000 f4 d8 c7 3c 88 f2 85 bd 62 7a 8b bd b0 f3 e5 bb
       0.024395443 -0.065404 -0.06810452 -0.007017575
000010 80 af c7 bb 62 67 c1 bc d4 e1 31 bd 62 04 82 bb
       -0.0060939193 -0.023608867 -0.043428257 -0.0039678076
000020 e8 bf a7 bc b2 26 52 3d b5 21 ac 3b 5d e7 cf bc
       -0.02047725 0.051306434 0.0052530416 -0.025378877
000030 68 54 d4 bc 6e 0d b8 3c 10 92 9e bb 96 f5 7c 3d
       -0.025919154 0.022467341 -0.0048391894 0.061757647
000040 96 05 b4 bd 7b fd 01 3d 7c fc b2 bc 54 4c 0c 3d
       -0.08790128 0.03173588 -0.02184891 0.03425248
000050 00 e3 01 bb be 8f 46 bd 31 cb 11 bd 76 c4 0e 3c
       -0.001981914 -0.048476927 -0.03559417 0.008713832
000060 9e a8 bd bd 6b e2 c2 bd 64 a3 c0 bc 36 50 84 ba
       -0.09260677 -0.09515842 -0.02351541 -0.0010094706
000070 19 b7 cd bd ce f7 b2 bc 37 6d bf bd d4 8f fc 3c
       -0.10044689 -0.021846678 -0.09347003 0.030830301
000080 c0 0d 5a 3c 8e ae 70 3d 2b 69 df 3b 1e b6 3d 3d
       0.013308942 0.05876022 0.006817957 0.04631626
000090 87 4a 20 bd 38 aa 9a bd de b9 63 bd 4c b2 59 bd
       -0.039133575 -0.07551998 -0.05559718 -0.053148553
0000a0 2e 59 25 bd 41 07 04 bd 4a fa 33 3d cc d0 f7 bd
       -0.04036825 -0.03223348 0.043939866 -0.12100372
0000b0 e9 71 c1 3c 26 36 51 3d 0a a3 09 bd 72 60 18 3d
       0.023613887 0.05107703 -0.03360275 0.037201352
0000c0 2f 5e d2 bd 5c b7 47 bd 62 90 40 bd 83 3e 02 3c
       -0.1027187 -0.04875885 -0.047012694 0.007949474
0000d0 98 c9 35 bd 14 51 3a bc dc 19 20 3d 29 5d 88 3c
       -0.044381708 -0.01137187 0.03908716 0.016645985
0000e0 49 09 95 bb 13 46 80 bc 88 1a 71 bd 45 5a 70 bd
       -0.004548226 -0.015658414 -0.058863193 -0.058679838
0000f0 c0 5f e7 3c 48 5a 31 3d 58 75 01 be ed 13 c2 bb
       0.0282439 0.04329899 -0.1264242 -0.0059227855
000100 14 f8 32 bd ef 94 d0 bc e8 6c 41 bd b0 97 37 bd
       -0.043693617 -0.025461642 -0.047223 -0.044822395
000110 c0 d2 23 3c aa ef 00 bd 86 62 ae bb 52 2a 5d bd
       0.009998977 -0.03147856 -0.0053218035 -0.053995438
000120 c7 94 c8 bc a9 54 db 3c 46 28 b9 bd 7c f2 96 bc
       -0.024485005 0.026773768 -0.09040885 -0.018426172
000130 fa bd 77 3d 3e 9e 33 bd e0 d1 54 bb 6f 9c 8c bd
       0.06048391 -0.043852083 -0.0032473728 -0.06865775
000140 e0 6b de 3b a3 de 93 bd e8 9f a3 bc 32 f0 19 bd
       0.006787762 -0.07220199 -0.01997371 -0.037582584
000150 2f db 17 bd 37 24 0a bb 89 be 67 bc 25 61 14 bd
       -0.037074264 -0.0021078715 -0.014144548 -0.036225457
000160 22 f0 bf bd 94 f2 99 bd 38 f6 54 bc 8d a4 32 bd
       -0.093719736 -0.07516971 -0.012998156 -0.04361396
000170 7e 32 7b bd 14 09 93 bc 5e f2 19 bd 88 72 d1 3c
       -0.06132745 -0.017948665 -0.037584655 0.025567308
000180 de a6 24 bd 9c 1a c3 3c ee 0c 89 bd dd 9f 93 bd
       -0.0401982 0.0238164 -0.06691919 -0.07208226
000190 36 96 e6 3c 4d 10 2f bd af 7a 20 bd 22 a5 9d 3b
       0.028147798 -0.042740155 -0.0391795 0.004810945
0001a0 9a 23 4a 3d 3f b8 93 bd 81 dc e0 bc 4d 10 e0 bd
       0.04935036 -0.072128765 -0.027448894 -0.10940609
0001b0 6e 7c 0a bd d2 70 a0 bc 59 b0 0e 3d af 9d 31 3d
       -0.03381007 -0.019585047 0.034836147 0.04336327
0001c0 8b ed 08 bc d4 41 84 bc ff 2b 27 bd 0e a4 94 bb
       -0.008357416 -0.01614467 -0.040813442 -0.0045361584
0001d0 de 3c d1 3c 36 c1 31 bd bc 7e 8d bc 80 18 9d ba
       0.025541719 -0.04339715 -0.017272346 -0.0011985451
0001e0 75 bc a8 bd f1 d2 60 bd f4 3b 7b bd 5c 92 82 bd
       -0.0823907 -0.05488867 -0.061336473 -0.06375572
0001f0 ac 5b 61 bd f9 4d 78 bb b6 a6 3c bd ba 8c 88 3c
       -0.055019066 -0.0037888272 -0.046057425 0.016668666
000200 c4 42 a9 bc 0b a1 81 bd 96 e6 95 bd 55 94 af bd
       -0.02066172 -0.06329545 -0.073193714 -0.08573214
000210 42 33 34 b8 3c 33 8f 3c c1 7f 1f 3d d8 1f 07 bd
       -4.296308e-05 0.017480485 0.038940195 -0.032989353
000220 ff a2 69 bd 7e b6 0d 3d e0 d9 06 bc c9 d5 0c 3d
       -0.05704021 0.034597866 -0.008230656 0.03438357
000230 9a 66 03 bc 98 b4 56 3c 09 79 dd bd f8 3a e0 3c
       -0.008020068 0.01310458 -0.10814101 0.027371868
000240 56 d5 46 3d ad 41 93 bc 58 31 80 bd 00 07 3f 3d
       0.048543297 -0.017975653 -0.062594116 0.046637535
000250 7c d0 9f bd bc 34 65 bd 9d 43 89 bb cd 9e f7 ba
       -0.07803437 -0.055958495 -0.0041889683 -0.0018891931
000260 c7 d9 15 3d f5 7e 4c bd b6 b5 8a bd 73 c3 11 bd
       0.03658464 -0.049925763 -0.0677294 -0.035586786
000270 2e 31 42 b9 8f 6a 48 3d 83 2d c0 3c b7 7d 40 bb
       -0.00018519603 0.048929747 0.023459202 -0.0029371807
000280 dd dc 1c 3c 31 83 59 3d 3f 01 23 bd e1 f8 b6 bd
       0.009574142 0.05310363 -0.03979611 -0.08934189
000290 59 50 8b bc e6 af 03 bd 98 af a4 bc f6 b4 25 3d
       -0.017006086 -0.03215017 -0.02010326 0.04045578
0002a0 f2 30 79 3c 17 a0 15 bd c3 20 b4 bd 21 fd 1d bc
       0.015209423 -0.036529627 -0.08795311 -0.00964287
0002b0 b8 2d 17 bb 98 83 cc bc 8d 47 af bd 5d 6a 58 bd
       -0.0023068022 -0.024965093 -0.08558569 -0.05283581
0002c0 57 0e a6 3b 61 55 65 bd d8 2d 30 bc 1c 93 c9 bc
       0.0050676274 -0.055989627 -0.0107531175 -0.02460628
0002d0 38 98 49 bd be b1 ef 3b 64 81 c9 bd 9d 92 00 3b
       -0.049217433 0.0073148897 -0.098391324 0.0019618638
0002e0 0f 81 ad 3b fe 0a 85 3c 68 dd f3 3c b1 83 cf 3c
       0.005294926 0.016240593 0.02976866 0.02533135
0002f0 df 3b b1 bd 3c 6b 3f bd 93 3b f2 bc 8d 57 41 bd
       -0.08653998 -0.046733126 -0.029569423 -0.047202636
000300 5a 65 da 3c 09 81 dc bd 3e 30 3a bd ca e5 e3 3b
       0.026659656 -0.10766799 -0.045456164 0.006954883
000310 68 b3 6b bc ee 1e 6d bd 3c 6a 72 bc e6 ea 58 bd
       -0.0143860355 -0.057890825 -0.014795836 -0.05295839
000320 66 e6 d8 bb 41 df 75 bd 04 ba 33 bd 90 5c 14 3c
       -0.0066192625 -0.060027365 -0.04387857 0.009055272
000330 a2 8d 48 3d 0e a1 a9 bb 14 ed d4 3c 88 52 93 bc
       0.048963197 -0.00517667 0.025991954 -0.01798369
000340 01 be 16 bd 56 48 39 bd fc 92 01 bc a2 5b 01 bc
       -0.036802296 -0.045235 -0.007908579 -0.007895382
000350 1e 0e a8 bd 22 52 92 bd a4 e6 8f bd c7 84 95 bc
       -0.08205818 -0.07144572 -0.07026413 -0.01825179
000360 0e 76 05 3b 89 cd 34 bd 50 95 02 3d a9 de 4b 3b
       0.0020364556 -0.044141326 0.031880677 0.0031108058
000370 e6 a4 43 bd 5c 4c 7a bd 4b c1 7e 3c e5 9f 2b bd
       -0.04776468 -0.06110798 0.015549014 -0.041900534
000380 74 2b bf bc 53 97 a2 b9 d0 05 d1 3c d4 0c aa bc
       -0.02333615 -0.00031011793 0.025515467 -0.02075807
000390 9d a3 1f bd d8 0a 4a bd 70 35 1b bd b6 df b7 bd
       -0.038974393 -0.049326748 -0.03789276 -0.08978216
0003a0 26 f4 fc bb 3e f1 8a bd 3b 8d d7 bc 10 f6 f8 bc
       -0.0077195344 -0.067842945 -0.026312461 -0.03039077
0003b0 4f a6 55 bc 42 df 50 bd c0 96 64 bd 4e e0 9e bd
       -0.013040139 -0.050994165 -0.05580783 -0.077576265
0003c0 c4 bd 96 bc f8 fa 9d bd da 35 f8 3c 88 55 b6 3c
       -0.018401034 -0.07713884 0.030299116 0.022257581
0003d0 0c 21 8d bb 4c f9 a0 bd 72 59 24 3c f6 aa 76 bd
       -0.004306918 -0.078600496 0.010031091 -0.060221635
0003e0 d8 3e e4 bc 05 0f 1c 3d 5f b7 0d bd 74 a2 cb 3c
       -0.027861997 0.03810026 -0.034598704 0.024857737
0003f0 d1 05 51 39 70 42 72 bc 52 71 28 bd fd 7b 67 bd
       0.0001993396 -0.014786348 -0.041123696 -0.05651473

fc.2.bias f4 [256]
000000 27 e7 dc bb 1a 65 79 bd 67 cc ab be 38 14 37 bd
       -0.0067414227 -0.060887434 -0.33554384 -0.044697016
000010 2a 25 ba bd 4a 1f af bd d2 11 5b bc 5c 79 56 bd
       -0.0908912 -0.0855089 -0.013370948 -0.05236183
000020 e7 c9 b5 be 9c fb 27 bd 86 d4 72 bd d8 90 14 bc
       -0.35505602 -0.041011438 -0.05928471 -0.009067737
000030 50 62 09 bd 5e 99 6b bd 8b 8a c4 bd 4e 91 82 bd
       -0.033541024 -0.05751931 -0.095967375 -0.06375371
000040 43 dc a1 bd b3 6a 8d bc 64 4c d5 bd 60 97 df bc
       -0.0790334 -0.017262792 -0.10414961 -0.02729386
000050 d9 a0 1c be eb 45 1e be 47 7e 8d bd 86 96 34 be
       -0.15295734 -0.15456359 -0.06908851 -0.17635545
000060 f0 0a c7 bd 4e 08 f8 bc 76 ab 9c bd 4a 28 ae bd
       -0.09718883 -0.030277397 -0.07649891 -0.08503778
000070 b9 2d 2e be 12 69 d0 bd 05 81 90 bc e7 34 04 bd
       -0.1700963 -0.101762906 -0.017639646 -0.032277014
000080 e9 82 95 bd 9c a8 af bd 4c 41 64 be 0c 3d 78 bd
       -0.0730036 -0.085770816 -0.22290534 -0.060605094
000090 27 2a 9a bd 46 df 84 bd 01 6c b0 bd 35 01 96 bd
       -0.07527571 -0.064878985 -0.0861435 -0.07324449
0000a0 91 49 ef bc 42 dc 50 3c 3c 0d b8 bd e0 c0 99 be
       -0.029209884 0.012747826 -0.08986899 -0.30029964
0000b0 75 27 ca bd 6b dd 83 bd 91 9a 93 bd 3b 90 4b bd
       -0.09870807 -0.064387165 -0.072072156 -0.049698096
0000c0 3c 11 00 bd 64 45 2e bd 9b b8 b2 be 5f 04 06 bc
       -0.031266436 -0.042546645 -0.34906468 -0.008179753
0000d0 0f 31 4d bc cd 59 b4 bc ec ef ae bd 52 ae c8 be
       -0.0125239035 -0.022015477 -0.08541855 -0.39195496
0000e0 7b 68 87 be 7e 08 1f bd 59 1c ab bd 07 1f aa bd
       -0.264469 -0.03882646 -0.08355016 -0.08306699
0000f0 f4 0c 31 3c 46 be 96 3d c0 40 07 bd 11 c8 04 be
       0.010806311 0.073605105 -0.033020735 -0.12966944
000100 e1 8b c2 3c ca a0 49 bd 31 14 7e bd d2 81 3f be
       0.02374834 -0.049225606 -0.062030975 -0.18701866
000110 ca 37 d5 be e0 9e 5a bc 30 cb aa bd 39 1f 76 be
       -0.41644126 -0.013343543 -0.08339536 -0.24035348
000120 79 8f 08 be b7 6f 09 3f 9f 8c ce bd a4 04 96 bc
       -0.1333598 0.5368609 -0.10085415 -0.01831276
000130 33 9c 05 be e9 25 36 bd c5 dd 94 bd 71 0e 5f be
       -0.13047867 -0.044469748 -0.07268862 -0.21782853
000140 45 26 ce bd e9 da 54 be e3 2d 59 bc 39 23 92 bd
       -0.10065893 -0.20786633 -0.013255569 -0.071356244
000150 7b 70 80 bc 44 bb 51 bd dd c3 cf bd 1d a8 dd bc
       -0.015678635 -0.05120398 -0.1014478 -0.027057702
000160 ef e3 3c be 9d 6d c2 bd 5b 3d 51 be ce df 51 bc
       -0.18446325 -0.09493563 -0.20433562 -0.012809707
000170 07 f2 eb bc 2d 78 eb bc a9 9b 9a bd a0 aa d9 be
       -0.028801931 -0.028743828 -0.07549221 -0.4251299
000180 d3 5c e5 be a7 48 c4 be 36 e4 32 bd fa f1 70 bd
       -0.44797382 -0.3833668 -0.04367467 -0.058824517
000190 0e 7f cd bd 05 6c 95 3c 9d 00 7b be 20 8b b3 bd
       -0.100339994 0.018239984 -0.24511953 -0.0876677
0001a0 e0 da 4a bd 03 44 9a bd 05 e6 20 bd 21 5d ee bd
       -0.04952514 -0.075325035 -0.039281864 -0.11638857
0001b0 80 b0 b8 bd 0b 0a 89 bd b5 7f c8 bc bd 53 8e bd
       -0.0901804 -0.06691369 -0.024474958 -0.069495656
0001c0 e9 91 50 bd 86 e0 d5 bd b2 0c cc bc 45 86 48 bd
       -0.0509204 -0.10443215 -0.024908397 -0.048956174
0001d0 39 8a 10 3c 29 ed 60 bd c4 9c 8c 3d f6 49 ec bd
       0.008822017 -0.054913674 0.06865838 -0.115375444
0001e0 55 fa ff bd 5a 08 34 be b7 96 4e bd ac 6f 6b bc
       -0.12498919 -0.17581311 -0.0504367 -0.014369886
0001f0 97 d4 be be 37 73 a3 3c e9 a8 13 bd c4 ad 87 bc
       -0.37271568 0.0199524 -0.036049757 -0.01656235
000200 4f 28 61 bd 04 54 bc bd 76 9b 76 bc 15 f1 4a bd
       -0.054970082 -0.09195712 -0.015051713 -0.04954632
000210 b4 6a 31 bd 5b 94 7d bd 21 69 6c bd 75 59 be bd
       -0.04331465 -0.06190906 -0.057717446 -0.09294406
000220 fb 8b 9d bc 93 c9 be be 3d 8d b2 be 73 a8 b5 bd
       -0.019231787 -0.37263164 -0.3487338 -0.0887002
000230 2f ac 35 bd 33 d4 81 3d cf 51 b2 bd 3a 5a 0d be
       -0.04435366 0.06339302 -0.0870701 -0.1380395
000240 29 c8 34 bd 59 71 29 be 9e b8 df bc cc 0e ab bd
       -0.0441362 -0.16547145 -0.027309712 -0.08352432
000250 fc 38 fc bd 68 d8 0c 3f 47 68 89 bd c0 12 90 bd
       -0.123155564 0.5501771 -0.067093424 -0.07034826
000260 1b 8b e6 3d e7 b1 84 bd 96 cb 0f bd 67 c6 62 bd
       0.11257001 -0.06479245 -0.035106264 -0.055364992
000270 4c a5 32 3c 6d ec d8 bd 77 df 5c bc 36 ac eb bd
       0.010903668 -0.1059197 -0.013481013 -0.11507456
000280 13 58 6d bd 18 ae 01 bf 5d f3 6a bd 9e 66 95 be
       -0.057945322 -0.5065627 -0.057360996 -0.29179853
000290 62 41 78 3d 47 e4 9b bd f2 3f 1e bc d3 05 16 3e
       0.06060923 -0.076119 -0.0096588 0.1465066
0002a0 80 7e ff bd bb 66 2b bd 2e 3c ac 3b 4b e0 2c 3e
       -0.124753 -0.04184602 0.0052561974 0.16882436
0002b0 77 6f f0 bc e6 b5 87 bd ab ef a8 bd b3 21 bf bd
       -0.029350026 -0.06626491 -0.08248838 -0.093325995
0002c0 73 0d a0 bd 9d 9a 20 be 61 6c 5e bd 64 9a 0d bd
       -0.07815065 -0.1568398 -0.054302577 -0.034571066
0002d0 7f 2c d4 bd 9d de 10 3e 36 32 66 bd 99 48 35 bd
       -0.103600495 0.1414742 -0.05620023 -0.044258688
0002e0 22 3f 1e bd 3e 0a be bd 99 21 87 bd 19 98 be 3e
       -0.038634427 -0.09279297 -0.06598205 0.37225416
0002f0 a0 1b 8b bc 8a e6 82 bd 50 b2 d6 bb 8f 4a 0a be
       -0.016980946 -0.06391628 -0.006552018 -0.13505004
000300 5c 89 7a bc 97 22 d8 3c c8 9d 11 bd 57 9d 58 bd
       -0.015291538 0.026383681 -0.035550863 -0.052884426
000310 34 96 9a bd ef 4e bb bd 9a 50 b3 bd 0f 1f 7f bd
       -0.0754818 -0.09145915 -0.08755608 -0.06228548
000320 60 cb b2 bd e9 4c 69 bd d7 3d ef bc 03 60 a7 bc
       -0.08730197 -0.056958113 -0.029204292 -0.020431524
000330 85 9e ab bd 4a 2d bf be 8d a8 03 bd e1 49 49 bd
       -0.083798446 -0.3733924 -0.032143164 -0.049142722
000340 68 1d c3 bd f8 7e 6a be ca 81 14 bd e7 c2 ca bd
       -0.09527093 -0.22899997 -0.03625659 -0.09900456
000350 1c 37 7d be f3 5b c6 bd 40 1d 07 be cb af 4a be
       -0.24728054 -0.09685507 -0.13194752 -0.19793622
000360 38 28 95 3e 5c 8e de be 32 91 9b bc 75 c3 81 bd
       0.29132247 -0.43467987 -0.018990133 -0.063361086
000370 d2 ea 88 3e b5 88 1c bc a8 44 1f bf fd 34 32 bd
       0.26741654 -0.009554078 -0.62214136 -0.043507565
000380 34 9e c5 bc 2f 94 88 bc 41 ec f1 bd 44 bb ca bd
       -0.024123289 -0.016672222 -0.1181264 -0.09898999
000390 6f 09 b7 bd 3e ad 1e bd 92 44 aa bd 21 c3 0e 3e
       -0.08937346 -0.038739435 -0.0831386 0.13941623
0003a0 9e 5c bb be 49 cc 84 bd 56 21 50 bd ce fc b0 bc
       -0.365941 -0.06484277 -0.05081304 -0.021604922
0003b0 41 45 42 bd 17 cd 07 bc 1d d6 47 bd d3 77 f7 bd
       -0.047429327 -0.008288643 -0.04878818 -0.120834015
0003c0 f9 a2 73 bd 58 fa af bd 25 a0 c0 3d ee bb 7b bc
       -0.059481595 -0.08592671 0.09405545 -0.01536463
0003d0 b6 6e d0 bd 03 ee f6 bc e6 4c da bd 6c 63 91 bd
       -0.101773664 -0.03014279 -0.106591985 -0.07099041
0003e0 d6 b0 af bd e4 f8 6f 3e ea 09 68 be a3 41 c1 bd
       -0.08578651 0.23434788 -0.22660032 -0.09436347
0003f0 ca e0 8b bd eb 60 de bd 34 fe 9b bd c5 19 8f be
       -0.068299845 -0.108583294 -0.07616845 -0.27949348

fc.4.weight f4 [4, 256]
000000 72 87 07 3d 78 2a 9e 3c bc 96 c2 bd b8 11 47 bc
       0.033088155 0.01930736 -0.095014066 -0.012150221
000010 26 84 1c 3d 74 82 12 bd e9 3a 09 bd 8c d9 0b 3b
       0.038211964 -0.03576894 -0.033503447 0.0021339385
000020 0b c8 de 3c e6 ca 82 bc b6 eb 62 bd 3f 45 d8 3c
       0.027194997 -0.01596589 -0.055400573 0.026400207
000030 b4 21 e3 bc 20 e5 50 bb 8d 28 74 ba 62 6b 26 3d
       -0.027726032 -0.003187485 -0.0009313904 0.040629752
000040 8f 26 02 3e a2 55 73 bc ea 8e 8a 3c 0a 7e 99 3c
       0.12710021 -0.014851959 0.01691385 0.018736858
000050 39 e8 bf bc fe 36 0b bb 96 11 ce bc 2d 7e 52 3c
       -0.023426162 -0.0021242495 -0.02515487 0.012847465
000060 82 0b 5d 3d e0 d5 97 3b 1d 78 be ba 1d f3 3e 3c
       0.053966053 0.00463365 -0.0014531646 0.011654642
000070 20 68 00 be 30 a2 20 bd 5f 61 c9 bc d8 a0 c9 3c
       -0.1253972 -0.039217174 -0.024582563 0.02461283
000080 d6 a4 70 3d 36 8d 73 3a c8 c5 0d 3e b9 8f 7e bd
       0.05875095 0.00092907564 0.13844979 -0.062148783
000090 e6 90 4d 3d 6d af 1e bc 7a 98 05 bc 0e 71 b9 bb
       0.050187014 -0.009685379 -0.008154029 -0.005659229
0000a0 d5 44 1a bd 93 51 79 bc 88 a5 84 bc dc d2 f7 3d
       -0.0376633 -0.015217203 -0.016192213 0.12100765
0000b0 53 02 d8 3c f1 de 72 bc 83 8c 17 3b 14 f6 f3 bc
       0.026368296 -0.014823661 0.0023124523 -0.029780425
0000c0 ee dd 6a 3c 26 a5 b4 3c 49 ac dd 3d c6 d2 4a 3d
       0.014335139 0.022051405 0.108238764 0.049517415
0000d0 4f d4 94 bc 80 c8 6f bb 9e dd 4a 3c 91 cf cc 3b
       -0.018167643 -0.0036588013 0.012381939 0.00625033
0000e0 7f ed 84 3d 38 8b 51 bb 9f 76 dc 3c 19 9c cf bc
       0.06490611 -0.003197385 0.026912032 -0.025342988
0000f0 24 13 d5 3b ef cc be be 65 1e 06 3d 59 f8 8f be
       0.006502526 -0.37265727 0.03274383 -0.28119162
000100 3a 7f 9a 3e 6f 7a 94 3a d1 0e 91 3c bb c7 d6 bc
       0.3017519 0.0011327992 0.01770726 -0.026218286
000110 63 5c 99 bd 1a 19 2f be db e8 9c bb d7 56 2d bd
       -0.074883245 -0.17099419 -0.0047885007 -0.042319145
000120 12 13 a8 bc 91 96 c0 3c be 5e ce ba 0f 88 15 bb
       -0.020516906 0.023509296 -0.0015744788 -0.0022816693
000130 6e e6 5e bd 0a c8 a4 3c 2b 18 8c 3d a9 d4 88 bd
       -0.054418974 0.020114917 0.06840547 -0.06681187
000140 3d 5c 07 3d 3d fe 3b be 91 27 46 3d b9 20 b5 3c
       0.03304695 -0.18358703 0.048377577 0.02211033
000150 ad 4a c8 bb 78 56 36 3d fe 1c 85 3c 82 3a 21 bc
       -0.0061124177 0.044516057 0.016249176 -0.0098406095
000160 4a 9f 8b bd 7c 2e 18 bd 60 c9 c4 bc 68 9b 4d 3d
       -0.06817491 -0.037153706 -0.024021804 0.050197035
000170 94 42 89 bc 0e b4 3b bd b5 d7 77 bc ba 75 d1 bc
       -0.01675538 -0.04582601 -0.015127112 -0.025568832
000180 87 30 3f bc 45 3e cf bb 42 17 0a 3d 6b 74 8a bc
       -0.011669285 -0.006324562 0.033713587 -0.016901216
000190 8e 05 ac 3b 1e b7 b9 bc 07 57 4d 3e 96 19 84 3c
       0.0052496856 -0.022670325 0.2005273 0.016125482
0001a0 8e c2 18 3d e5 80 e5 bc 1a 27 40 3d 1e c9 24 3c
       0.037294917 -0.028015563 0.04691229 0.010057716
0001b0 96 13 c2 3b a8 6a d7 bb ee 96 92 bc 63 b1 29 bd
       0.005922745 -0.0065739937 -0.017894235 -0.041428935
0001c0 52 b0 82 bd d2 ee a6 bc 40 16 aa bb 9f 55 ca 3c
       -0.06381287 -0.02037755 -0.0051906407 0.02469903
0001d0 fe 33 56 bc 4b 19 fe 3c 6e 9c c6 bd d8 a8 14 bb
       -0.013073919 0.03101792 -0.09697805 -0.0022683647
0001e0 39 06 b6 bc f6 39 29 bb 0a 3b da 3a 01 a6 ce b9
       -0.022219764 -0.00258219 0.0016649675 -0.00039415064
0001f0 66 d2 43 3d 53 5e bf 3c 29 f8 41 bd 5b a8 c6 3c
       0.047808073 0.023360407 -0.047355805 0.0242502
000200 c3 9e 4b bd f9 21 d8 bc 64 c8 f2 bc 21 cb 1e bd
       -0.049711954 -0.026383387 -0.02963657 -0.038767938
000210 26 10 0a bd 5f ba 2e bc 4a 44 0f bd 9e 52 f4 bb
       -0.033706807 -0.0106645515 -0.034977235 -0.007456138
000220 c2 3c 05 3d 64 11 d0 bd 09 9a 08 3d 30 e4 cd 3c
       0.032528646 -0.10159567 0.033350024 0.025133222
000230 d8 db 83 bb f1 26 bf be 2d 5f 95 3b 7c 41 32 3d
       -0.00402401 -0.37334397 0.004558465 0.043519482
000240 e4 cd aa bc 46 8f ef 39 46 4e c6 bb ec fb 5f 3d
       -0.02085013 0.0004569238 -0.0060518114 0.05468361
000250 e3 e2 03 be 31 6d c2 3d 08 13 eb 3c e6 84 16 3d
       -0.12879519 0.09493483 0.028695598 0.036747836
000260 71 b0 57 3d be d4 8a 3c e4 67 47 3d e2 ac 38 bd
       0.052658502 0.016947147 0.048683062 -0.04508675
000270 80 59 74 bc 6e a1 60 3b 2b 4d 68 3b f8 05 55 bd
       -0.014913917 0.0034275907 0.0035446386 -0.052007645
000280 ef 48 bb 3b 81 8a b5 3c d0 04 4a bd 1d 47 45 be
       0.0057154815 0.02216077 -0.049320996 -0.19265409
000290 8d 22 d0 3d 3d 74 ef bc 3a f3 0b 3c e9 61 48 3e
       0.1016284 -0.029230231 0.008541876 0.195686
0002a0 43 44 c1 bc 8f a4 90 bc 08 41 5b bc 09 e7 ed bd
       -0.02359212 -0.017656593 -0.013382204 -0.11616332
0002b0 d8 30 7e 3c d5 71 e4 bb 88 20 68 3d ac ad 5e 3d
       0.015514575 -0.0069715776 0.05667165 0.054364845
0002c0 b8 66 3d bc 9c c3 ff 3b 54 18 e5 3c e4 8d 83 bc
       -0.011560135 0.007805301 0.027965702 -0.01605887
0002d0 ea 19 59 be 88 38 2d be 07 ea 8b 3b a0 fd 3e 3d
       -0.21201292 -0.16916096 0.0042698416 0.046628594
0002e0 46 48 42 bd b0 f4 69 bb 4c 1d b8 bc eb d3 c5 3e
       -0.047432207 -0.0035698824 -0.022474907 0.38638243
0002f0 01 69 94 3c 0a d4 f5 3c af 0d 42 bd ca 7e 17 bd
       0.018116476 0.030008335 -0.04737633 -0.03698615
000300 34 5f 86 bc 5f 0b 3e 3c 6a 94 26 bd c6 79 56 bc
       -0.016402818 0.011599391 -0.040668882 -0.0130905565
000310 5f df 06 3d cd 6d 86 bc 92 3d 19 bd 26 5f 90 3c
       0.032927867 -0.016409779 -0.037412234 0.017623495
000320 8b a9 ef 3c 50 e1 bd bc 9c 06 25 3c 5b 92 a1 bc
       0.02925565 -0.023178726 0.010072377 -0.019723108
000330 4e 07 93 bb f8 bb 8a bc 4f b6 8b bb 66 2f 0d 3d
       -0.004486955 -0.016935334 -0.0042636762 0.03446903
000340 90 71 1c 3d 5f d1 48 bd 3f d3 d6 3c 44 aa 3c bd
       0.03819424 -0.049027797 0.026223777 -0.046060815
000350 ee c2 9c bc 02 67 c4 bc 00 76 60 bc f8 50 00 bc
       -0.019135918 -0.0239749 -0.013700008 -0.007831804
000360 2d 15 bb 3d 43 9c 68 bd f5 3a b6 3c 8f 0a 61 3c
       0.09134898 -0.056789648 0.02224491 0.0137354275
000370 93 85 5b be 93 6a c5 be 77 6c 32 bc f7 03 e4 bb
       -0.21437673 -0.38557872 -0.010890118 -0.0069584805
000380 11 9e 65 bc 23 c3 a2 bc 95 79 a9 3b 4c ce a5 bc
       -0.014014737 -0.019868439 0.0051719644 -0.020239972
000390 6a de 00 bc f0 b3 4c bb 11 37 11 3d 40 b2 18 be
       -0.007865528 -0.003123518 0.035452906 -0.14911747
0003a0 0e 15 41 be da 37 38 bd be 3b 90 3c 54 55 99 3b
       -0.18855688 -0.04497514 0.017606612 0.0046793614
0003b0 3e 98 85 bc 97 59 e3 bc 8e b9 9e 3c 1a a6 5b 3a
       -0.016307946 -0.02775268 0.019375589 0.0008378938
0003c0 7d 6a cb 3c 6c 44 d2 bc 23 69 8f 3e 44 28 e5 3a
       0.024831051 -0.025667392 0.280099 0.0017483314
0003d0 3f 34 be bc 3c d6 3f 3d 53 ff 00 bd 01 0a b5 3c
       -0.023218272 0.04683517 -0.031493496 0.022099497
0003e0 44 3a ad bc ac 79 b3 3c 82 2f ca bd 0b 93 96 bb
       -0.021145947 0.021908604 -0.09872343 -0.0045951656
0003f0 c1 b5 96 bd d6 6d d4 bc f7 27 ee bb 05 82 01 bd
       -0.073588856 -0.02593128 -0.007267948 -0.031618137

fc.4.bias f4 [4]
000000 95 5a 01 3f 16 8a b3 3e 9a 39 5f be 57 1c f3 bd
       0.5052884 0.3506629 -0.21799317 -0.1187064
