QNet_model_best.pth (torch, 280407 bytes, 6 tensors)

fc.0.weight f4 [256, 10]
-0.08340213 0.06814633 -0.010494455 -0.011612203 -0.038157992 0.02608837 -0.10411074 0.050310288
-0.022010602 -0.004226751 -0.24494918 0.041276325 -0.114130184 -0.05412099 -0.21208198 0.07590926
-0.22082779 0.11875239 0.03824184 -0.09972852 -0.009442801 0.10174042 -0.0063561276 -0.008568655
-0.013154286 0.017145699 0.04829414 -0.004200069 0.009293137 0.0056835106 0.079299286 0.02537794
-0.05092201 0.24190465 -0.37040696 0.13082114 -0.1476113 0.14080018 -0.21856506 0.06444467
-0.040495846 -0.027193246 0.10410902 0.17445053 -0.49431983 0.118489474 -0.5461508 0.0052286554
-0.041762237 0.33798197 0.01896752 -0.023402072 -0.045237 0.03311906 0.023124153 0.00044648003
0.056365557 0.014551426 -0.06818314 0.028152047 0.3304007 -0.35279784 0.18096 0.33267817
-0.32839212 0.286747 -0.39858645 0.013600245 -0.17135547 -0.14290334 0.32361904 0.15291357
-0.13292727 0.08533129 -0.2668207 0.30723897 0.18088652 -0.31656292 -0.3929516 -0.20508166
0.27214393 -0.060089145 -0.02181278 0.025312774 0.19063175 0.063044265 0.22246216 -0.2323703
-0.22951679 0.06679347 0.017660461 0.073033094 -0.017601568 0.04030035 -0.08566355 -0.03942085
-0.056198332 -0.005514109 0.012967209 -0.034085613 -0.07770293 0.34517947 -0.22209673 0.051607203
-0.80133504 0.12987074 0.0033370005 0.23453286 0.11917225 0.1484805 -0.39138943 0.05150581
0.015317117 -0.32573247 0.32516012 -0.34573588 0.59008914 0.008995153 0.15753137 0.0005616903
0.12738995 0.14362368 -0.14080791 0.15986647 -0.15496524 -0.43097708 -0.32580355 -0.25053954
-0.62778616 -0.17404597 0.3241344 -0.23938634 0.46583837 0.048663415 -0.28978154 0.30053642
-0.32984328 -0.021923242 -0.17533451 -0.17625986 -0.09444578 0.43329316 0.05673017 0.35316917
-0.4255091 0.07857815 0.3390508 -0.15995932 -0.40584356 0.14320086 -0.03630503 -0.3202693
0.21185926 0.12377596 -0.43597448 -0.11626713 -0.5292603 -0.13922837 0.043389514 0.47311965
0.003961415 0.0060462113 0.016362082 -0.039882746 0.029891228 0.048947077 0.046023544 -0.07132129
0.0054533617 -0.0054385173 0.16651691 -0.2400063 -0.49573192 0.31736988 -0.15469682 -0.29529864
0.08776148 0.054253314 -0.21959935 -0.4654763 0.038593683 0.03270515 0.18937206 -0.37161252
0.3865233 0.084977634 -0.25941712 -0.17342962 0.22441673 -0.13173725 -0.37863392 -0.008782272
-0.14212121 0.032132957 -0.28912282 0.045473363 -0.25861606 0.29233617 -0.05594616 -0.0753908
-0.2325292 0.4118768 0.09913734 0.21922475 -0.14989235 -0.04038117 0.07898731 -0.23888563
-0.010874156 -0.0039361105 -0.036593877 -0.17216286 -0.28619212 0.17948559 -0.47745508 0.055197805
0.40020686 0.31169382 -0.060073614 0.33071062 -0.45540845 -0.08461812 0.25501767 0.18365335
-0.2624279 0.08472663 0.31169516 -0.04507929 -0.36070257 0.13689324 -0.16521771 0.115923226
-0.07422924 -0.08049127 -0.1577384 0.1345398 -0.19688076 -0.019292332 0.02452294 -0.1123574
-0.38876954 -0.12888476 0.39492258 -0.15490068 -0.09091302 -0.080271475 -0.2667737 0.24540962
0.75631416 -0.32908508 0.16435637 0.18400462 -0.14746282 0.002112169 -0.37760663 0.3553601
00000000: bcce aabd 4e90 8b3d eff0 2bbc 1c41 3ebc
00000010: 8e4b 1cbd 47b7 d53c 0338 d5bd 2912 4e3d
00000020: 944f b4bc 8f80 8abb f5d3 7abe 5d11 293d
00000030: 16bd e9bd f9ad 5dbd 052c 59be 5076 9b3d
00000040: ae20 62be 7434 f33d 7aa3 1c3d 773e ccbd
00000050: fab5 1abc 485d d03d 1047 d0bb 8b63 0cbc
00000060: 1385 57bc 2375 8c3c 13d0 453d bba0 89bb
00000070: 3e42 183c be3c ba3b aa67 a23d 66e5 cf3c
00000080: 9993 50bd dab5 773e fba5 bdbe faf5 053e
00000090: 6b27 17be ec2d 103e 85cf 5fbe 91fb 833d
000000a0: f9de 25bd 5fc4 debc 1c37 d53d 29a3 323e
000000b0: 7d17 fdbe 9caa f23d 8ad0 0bbf 2455 ab3b
000000c0: e10e 2bbd f90b ad3e c661 9b3c b4b5 bfbc
000000d0: 6f4a 39bd daa7 073d dd6e bd3c 8915 ea39
000000e0: 92df 663d 1b69 6e3c 9aa3 8bbd 1f9f e63c
000000f0: 482a a93e eba1 b4be 944d 393e cb54 aa3e
00000100: 0323 a8be 81d0 923e 8613 ccbe 90d3 5e3c
00000110: cf77 2fbe 4155 12be 65b1 a53e 6095 1c3e
00000120: 161e 08be 2cc2 ae3d b99c 88be 6d4e 9d3e
00000130: 513a 393e 8914 a2be f430 c9be ed00 52be
00000140: 7356 8b3e 0920 76bd b7b0 b2bc bc5c cf3c
00000150: f834 433e 5a1d 813d 1fcd 633e 7bf2 6dbe
00000160: 7306 6bbe 04cb 883d acac 903c 6092 953d
00000170: 2a31 90bc fb11 253d 5f70 afbd c277 21bd
00000180: 3930 66bd b3af b4bb 6b74 543c 5b9d 0bbd
00000190: b722 9fbd 5dbb b03e 536d 63be 1362 533d
000001a0: 4b24 4dbf d6fc 043e 94b1 5a3b 6229 703e
000001b0: 9510 f43d 460b 183e 3264 c8be c2f7 523d
000001c0: a5f4 7a3c 68c6 a6be 637b a63e 4b04 b1be
000001d0: 1510 173f 6860 133c e74f 213e 663e 133a
000001e0: 8372 023e 1612 133e f32f 10be 09b4 233e
000001f0: 35af 1ebe 07a9 dcbe b9cf a6be b846 80be
00000200: 98b6 20bf 1b39 32be f2f4 a53e b121 75be
00000210: 5e82 ee3e 4a53 473d 3f5e 94be e9df 993e
00000220: 38e1 a8be 5f98 b3bc e48a 33be 777d 34be
00000230: ca6c c1bd 9ad8 dd3e e55d 683d 97d2 b43e
00000240: 54dc d9be 95ed a03d 1198 ad3e 60cc 23be
00000250: baca cfbe 3fa3 123e 95b4 14bd 56fa a3be
00000260: a2f1 583e 407e fd3d 0c38 dfbe 761d eebd
00000270: 9a7d 07bf e291 0ebe 34b9 313d bd3c f23e
00000280: c2ce 813b 4c1f c63b c609 863c 175c 23bd
00000290: 73de f43c bb7c 483d 2f83 3c3d e610 92bd
000002a0: 1db2 b23b 9735 b2bb 6983 2a3e 36c4 75be
000002b0: 93d0 fdbe 4e7e a23e d868 1ebe 6231 97be
000002c0: 4abc b33d b938 5e3d a7de 60be e952 eebe
000002d0: 6914 1e3d d6f5 053d c0ea 413e ff43 bebe
000002e0: 62e6 c53e c108 ae3d 52d2 84be 8997 31be
000002f0: 80cd 653e 21e6 06be 4edc c1be 85e3 0fbc
00000300: 3988 11be d99d 033d e807 94be 4742 3a3d
00000310: 5369 84be 16ad 953e cd27 65bd 7e66 9abd
00000320: 221c 6ebe 84e1 d23e 8508 cb3d 747c 603e
00000330: 617d 19be ba66 25bd 19c4 a13d 6f9e 74be
00000340: 8429 32bc 7dfa 80bb 76e3 15bd 764b 30be
00000350: c687 92be 12cb 373e fe74 f4be 1817 623d
00000360: eae7 cc3e 5596 9f3e c00f 76bd e752 a93e
00000370: 4c2b e9be 444c adbd ad91 823e a00f 3c3e
00000380: f35c 86be 2885 ad3d 8296 9f3e 10a5 38bd
00000390: 02ae b8be be2d 0c3e d52e 29be 2869 ed3d
000003a0: 8005 98bd 9bd8 a4bd 2d86 21be cdc4 093e
000003b0: 1c9b 49be f40a 9ebc 55e4 c83c a31b e6bd
000003c0: cd0c c7be 5efa 03be 4b33 ca3e 499e 1ebe
000003d0: 9b30 babd 5f65 a4bd 9096 88be a94c 7b3e
000003e0: ce9d 413f d77d a8be 094d 283e b56b 3c3e
000003f0: 7e00 17be 516c 0a3b a855 c1be c2f1 b53e

fc.0.bias f4 [256]
0.022147844 0.14870347 -0.027016843 0.13432033 -0.0011027476 0.011986675 -0.3155792 -0.27936235
-0.19029647 0.03443977 -0.28338355 0.46067473 -0.070842 0.08765024 -0.2519868 0.1618842
0.01325966 -0.02796738 0.10675178 0.1570358 0.12179752 -0.6787491 -0.028877001 0.15245336
-0.52011037 0.038273595 0.033313107 -0.22250007 0.05436197 -0.024973007 0.0146032665 0.2474445
0.4045758 0.12338607 -0.38908738 -0.438799 0.053948525 0.036560465 0.1090063 0.0036155204
0.37828174 -0.26798677 5.5857992e-05 -0.42892483 0.06746546 -0.054665618 0.23637387 0.2316918
0.47502816 -0.038980626 0.022954773 -0.15544714 0.31980738 0.062484667 0.069264755 -0.0062197624
-0.27226803 -0.125828 -0.009361961 -0.311218 0.052738618 -0.21753567 -0.14572556 -0.047579937
-0.12521699 0.34404534 -0.5129947 -0.03830329 0.31148076 0.006689646 -0.13538307 -0.17035092
-0.18776795 -0.17250198 0.013859266 -0.051622763 -0.15386523 0.0905049 -0.1028213 -0.19666854
0.517029 0.17251852 0.013851241 -0.05878669 -0.01650946 -0.15335406 -0.047885716 0.35629332
0.21710089 0.044912256 -0.014284662 -0.20199865 -0.09969693 -0.42698523 0.3828301 -0.10575993
-0.51514834 -0.08392681 0.030672017 -0.053463742 -0.01250295 -0.02868003 0.033482023 -0.056118578
-0.23655939 0.031209031 -0.49398023 -0.073042266 -0.019016948 -0.5614755 0.16848494 -0.3289087
0.019725036 -0.033107366 0.25151303 0.06422972 -0.33353323 -0.07948148 -0.52657616 0.00057964877
-0.08626116 -0.08682619 0.12798375 0.24518289 -0.17640762 -0.019255117 -0.108549 -0.44260105
0.005639307 0.033737466 0.36230448 0.33428735 -0.11842834 0.026911184 0.10424963 0.26918307
-0.35254934 0.0020493637 -0.08780834 -0.22465208 0.07475617 -0.4358704 -0.091249906 0.036439184
-0.17861994 -0.030916672 0.100716434 0.05147945 0.03351624 0.036971338 0.26040718 -0.12515667
-0.19534142 0.14124642 -0.24931921 0.4582066 0.047697615 -0.17381151 -0.29265335 0.64059466
-0.07252864 0.47076616 0.06361286 -0.11975149 -0.042695783 0.13203137 0.16269642 -0.040780388
0.32489702 0.063675724 0.13928035 -0.051448442 0.20508538 0.026452608 -0.33150616 -0.06635685
-0.13261925 -0.38559383 -0.16687368 -0.01621454 0.4191545 0.26813158 -0.5728447 0.06612886
-0.012272423 -0.0363826 0.25610292 -0.6576442 0.0023186884 -0.10481958 -0.21576154 -0.1743374
0.001985435 0.08065293 -0.00867463 0.031589378 0.100706525 0.19193304 -0.020179637 0.27905133
-0.3910293 0.01479737 0.14705142 -0.0926643 0.31921715 -0.3991023 0.015339758 0.060271595
0.05683654 0.03529753 0.6416936 -0.31814736 -0.23541567 0.38597548 -0.04573361 -0.48607543
-0.03380103 -0.0061302236 0.013782654 0.1485423 -0.04251006 -0.6270496 -0.002605334 -0.025768094
-0.10425459 0.09959593 -0.21909963 0.48249784 0.23960166 0.010544443 -0.086180925 -0.25420183
0.079951294 0.21919501 0.055573072 -0.24139538 -0.25574294 -0.005400516 -0.011883795 0.058525752
-0.05197617 0.38951808 0.121406384 0.012084927 0.20108625 -0.050540123 0.0842892 -0.12978326
0.07215549 -0.08866237 0.53680205 -0.04568961 -0.024384761 0.09474844 -0.17548007 -0.20113154
00000000: 656f b53c b945 183e 6d52 ddbc 458b 093e
00000010: 128a 90ba c263 443c 9993 a1be 9508 8fbe
00000020: 14dd 42be b710 0d3d a617 91be 8fdd eb3e
00000030: 9c15 91bd f881 b33d 6a04 81be f9c4 253e
00000040: 0c3f 593c d91b e5bc ada0 da3d fecd 203e
00000050: fa70 f93d 80c2 2dbf 768f ecbc bc1c 1c3e
00000060: f425 05bf c6c4 1c3d 5373 083d 0fd7 63be
00000070: a8aa 5e3d 3194 ccbc 8a42 6f3c 1762 7d3e
00000080: 8f24 cf3e d6b1 fc3d 7636 c7be 43aa e0be
00000090: 21f9 5c3d 6dc0 153d b23e df3d 5ef2 6c3b
000000a0: 25ae c13e 9035 89be 1049 6a38 099c dbbe
000000b0: 552b 8a3d 0ee9 5fbd fe0b 723e 9d40 6d3e
000000c0: e436 f33e 26aa 1fbd a60b bc3c 892d 1fbe
000000d0: cbbd a33e ecef 7f3d aeda 8d3d 26cf cbbb
000000e0: b766 8bbe 0ed9 00be e962 19bc f757 9fbe
000000f0: 7304 583d acc1 5ebe 1539 15be 2ee3 42bd
00000100: e238 00be b626 b03e 9f53 03bf e9e3 1cbd
00000110: 687a 9f3e d134 db3b dca1 0abe 7970 2ebe
00000120: 3e46 40be 5ca4 30be fa11 633c 6472 53bd
00000130: d98e 1dbe a25a b93d f993 d2bd 7a63 49be
00000140: 035c 043f b2a8 303e 51f0 623c 50ca 70bd
00000150: d93e 87bc d908 1dbe d023 44bd 146c b63e
00000160: b24f 5e3e eaf5 373d 370a 6abc bcd8 4ebe
00000170: e72d ccbd cf9d dabe 4f02 c43e aa98 d8bd
00000180: c3e0 03bf d2e1 abbd e243 fb3c ccfc 5abd
00000190: 2cd9 4cbc 62f2 eabc 7224 093d 98dc 65bd
000001a0: a03c 72be 15aa ff3c faea fcbe 2f97 95bd
000001b0: 6ec9 9bbc dcbc 0fbf 5187 2c3e b966 a8be
000001c0: 6696 a13c 979b 07bd 51c6 803e df8a 833d
000001d0: dec4 aabe 30c7 a2bd b2cd 06bf 92f3 173a
000001e0: b1a9 b0bd eed1 b1bd 2c0e 033e 3911 7b3e
000001f0: 33a4 34be e8bc 9dbc f04e debd 9b9c e2be
00000200: f0c9 b83b 4c30 0a3d f97f b93e b627 ab3e
00000210: 8f8a f2bd d874 dc3c d480 d53d 5dd2 893e
00000220: 5981 b4be 9e4e 063b dcd4 b3bd 320b 66be
00000230: c319 993d 682a dfbe 3be1 babd 4141 153d
00000240: 25e8 36be f644 fdbc 6b44 ce3d 1edc 523d
00000250: 5348 093d 426f 173d 1754 853e 1229 00be
00000260: 9507 48be e7a2 103e 894d 7fbe 0e9a ea3e
00000270: 935e 433d a5fb 31be a9d6 95be 03fe 233f
00000280: e589 94bd 4308 f13e 7647 823d 4540 f5bd
00000290: c6e1 2ebd 3b33 073e e499 263e 5609 27bd
000002a0: e758 a63e 6b68 823d 829f 0e3e 9abb 52bd
000002b0: e701 523e 24b3 d83c 2dbb a9be 1ae6 87bd
000002c0: 57cd 07be 8e6c c5be efe0 2abe 5bd4 84bc
000002d0: 6b9b d63e 8b48 893e f3a5 12bf 916e 873d
000002e0: 4612 49bc ec05 15bd ec1f 833e 5f5b 28bf
000002f0: 23f5 173b a6ab d6bd 98f0 5cbe 8185 32be
00000300: 121e 023b 5d2d a53d 0920 0ebc dd63 013d
00000310: 393f ce3d 188a 443e c44f a5bc d1df 8e3e
00000320: fe34 c8be ab70 723c a694 163e c8c6 bdbd
00000330: 6e70 a33e 2357 ccbe 9c53 7b3c 59df 763d
00000340: 6fcd 683d 2594 103d 0846 243f 36e4 a2be
00000350: ce10 71be 949e c53e 2a53 3bbd e1de f8be
00000360: f372 0abd 0be0 c8bb a4d0 613c 791b 183e
00000370: 071f 2ebd 5386 20bf 40be 2abb 9c17 d3bc
00000380: 6e83 d5bd f3f8 cb3d a75b 60be f509 f73e
00000390: 235a 753e 99c2 2c3c a07f b0bd be26 82be
000003a0: 81bd a33d a874 603e 97a0 633d 5a30 77be
000003b0: bdf0 82be d0f6 b0bb 40b4 42bc b3b8 6f3d
000003c0: f7e4 54bd ea6e c73e e9a3 f83d dcff 453c
000003d0: 8ee9 4d3e 2903 4fbd d19f ac3d e7e5 04be
000003e0: 42c6 933d 9e94 b5bd dc6b 093f 0725 3bbd
000003f0: 8dc2 c7bc 780b c23d 0cb1 33be 6df5 4dbe

fc.2.weight f4 [256, 256]
0.10482452 -0.10576831 -0.03684739 -0.0020693971 0.14842297 0.15615003 0.25841436 -0.0004877347
9.01523e-05 -0.018079951 0.059138622 -0.11371339 0.09270842 -0.17635211 -0.048572328 0.20962854
0.081158765 -0.029571442 0.005012314 0.008777014 -0.19361761 0.12706 0.015177666 -0.13144636
0.111488335 0.03709757 -0.092672795 0.09214756 0.04391969 0.11202467 0.022023315 -0.13805687
-0.15269384 -0.07812804 0.1796662 0.2419925 -0.017958418 0.24908294 0.16957264 -0.0517168
-0.08842237 0.10829616 -0.07205594 -0.009050816 0.18915649 -0.06583705 -0.14627524 -0.11221867
-0.10126831 0.2323043 -0.069664456 0.03000631 -0.16379853 -0.15017319 -0.09883029 -0.09014656
0.14795366 0.10851795 0.11254976 -0.054114416 -0.18464418 0.022133984 0.05165049 -0.14500844
0.04007476 0.050879568 0.16747124 0.15324885 -0.016482677 -0.07490525 0.06364195 -0.028495284
0.007685554 -0.12784435 -0.1327329 0.12845728 0.20239952 -0.1290784 -0.011484668 0.072094016
0.0302849 0.015393427 -0.028157214 -0.055550918 0.021173444 -0.1695023 0.19827321 0.13118623
-0.15970872 -0.023783594 0.030329384 0.08285678 0.016779616 0.13806678 -0.09721254 -0.07291887
-0.031617645 -0.045897964 0.018868724 0.05995675 -0.041798577 0.076955065 -0.04431386 -0.14183259
-0.04101442 0.006527548 0.17461553 -0.07841386 0.07908217 -0.06685034 -0.054015707 -0.070682906
-0.16677795 -0.31651115 -0.15490097 0.19382223 0.22985935 0.08395157 0.093691185 -0.13452758
-0.06877844 0.089006566 0.12645629 -0.04749444 2.8965014e-05 -0.20944671 -0.05279822 0.24386123
0.06391849 -0.04833388 -0.14181675 -0.05485312 0.045912914 -0.10253809 -0.092880264 -0.14073853
-0.016464168 0.115139656 -0.18318279 0.060192198 -0.08598516 0.13964432 0.2681808 0.030919997
-0.022548474 0.0945633 0.046141762 -0.11500613 0.12349262 0.15716109 -0.08965651 0.13556264
0.18778208 0.00572966 0.20275085 -0.07245743 0.090682454 0.113075405 0.30230716 -0.2908466
-0.06140675 -0.11269364 -0.019024586 0.02952838 0.01498492 -0.0393061 -0.16837706 0.14558496
-0.024289379 -0.096707344 -0.1648684 -0.07477527 -0.081346534 -0.12805746 0.06450201 0.09255122
0.07524156 0.13547538 -0.18021868 0.061932564 -0.13290772 0.033036962 0.1376445 0.0017396258
0.07136366 -0.034884475 0.18403293 0.12081482 0.0361341 -0.04999893 0.111171804 0.13337967
-0.13755664 -0.12878887 0.04840299 -0.11062443 0.07467146 0.03251319 -0.08749965 -0.15339403
-0.010319591 -0.098025315 -0.088491075 0.037250724 0.0005349207 0.19871667 0.11193455 0.07228739
-0.040618278 0.025687344 -0.08475313 -0.021769721 0.135986 -0.05974662 -0.060240805 0.23234946
0.10893385 0.06622391 -0.13401483 -0.093489535 0.08691099 0.15233196 0.017353922 -0.014433447
0.090481825 -0.16864198 0.03844721 -0.0772447 0.0009682361 -0.016024545 0.08997906 0.016600933
-0.025023727 0.16489495 -0.05229267 0.061009172 -0.05053082 0.07001262 -0.02484129 -0.024733119
0.16539793 -0.13060208 -0.12777416 0.04785659 0.14463761 0.11516179 -0.013201629 -0.030735388
0.058442697 0.08489387 -0.18090999 -0.044872705 -0.049379997 -0.033833485 0.22104745 0.16043572
00000000: 3dae d63d 0e9d d8bd 4aed 16bd b99e 07bb
00000010: 31fc 173e cbe5 1f3e e34e 843e a5b6 ffb9
00000020: 2610 bd38 681c 94bc 573b 723d 91e2 e8bd
00000030: e9dd bd3d a695 34be c7f3 46bd dda8 563e
00000040: 9136 a63d cf3f f2bc 563e a43b 77cd 0f3c
00000050: b243 46be 041c 023e bfab 783c e099 06be
00000060: ff53 e43d 9ff3 173d 3ccb bdbd dcb7 bc3d
00000070: 22e5 333d 316d e53d 3d6a b43c c85e 0dbe
00000080: c65b 1cbe 9801 a0bd 6bfa 373e e2cc 773e
00000090: 881d 93bc 990f 7f3e 73a4 2d3e ffd4 53bd
000000a0: ca16 b5bd 61ca dd3d 1192 93bd e049 14bc
000000b0: 3db2 413e 93d5 86bd 2dc9 15be e7d2 e5bd
000000c0: c265 cfbd 2ee1 6d3e 3dac 8ebd cbcf f53c
000000d0: cdba 27be 00c7 19be 8967 cabd c29e b8bd
000000e0: 2a81 173e a93e de3d 7d80 e63d 14a7 5dbd
000000f0: 5d13 3dbe 5452 b53c 778f 533d 187d 14be
00000100: 6e25 243d 1867 503d 957d 2b3e 44ed 1c3e
00000110: ae06 87bc ec67 99bd b656 823d f16e e9bc
00000120: 1ad7 fb3b a1e9 02be 22eb 07be 4e8a 033e
00000130: d241 4f3e 212d 04be 302a 3cbc 07a6 933d
00000140: 0a18 f83c b634 7c3c f5a9 e6bc 5c89 63bd
00000150: ee73 ad3c 0392 2dbe 2208 4b3e af55 063e
00000160: af8a 23be d0d5 c2bc 5475 f83c d1b0 a93d
00000170: 6875 893c 6161 0d3e 5e17 c7bd 7d56 95bd
00000180: 8181 01bd 81ff 3bbd 9592 9a3c 3695 753d
00000190: fc34 2bbd 9e9a 9d3d 7382 35bd 903c 11be
000001a0: bdfe 27bd 0be5 d53b 6ace 323e 7297 a0bd
000001b0: d5f5 a13d d5e8 88bd 933f 5dbd 33c2 90bd
000001c0: d7c7 2abe c00d a2be 5c9e 1ebe 5679 463e
000001d0: 4060 6b3e cdee ab3d 2ae1 bf3d 99c1 09be
000001e0: b6db 8cbd 1349 b63d c27d 013e 8889 42bd
000001f0: e5f9 f237 3379 56be f242 58bd c2b6 793e
00000200: b3e7 823d bff9 45bd 6938 11be aaad 60bd
00000210: 2e0f 3c3d 7dff d1bd 0238 bebd c31d 10be
00000220: dddf 86bc 57ce eb3d 4594 3bbe 188c 763d
00000230: fd18 b0bd ecfe 0e3e fe4e 893e ef4b fd3c
00000240: 94b7 b8bc 67aa c13d 25ff 3c3d 5588 ebbd
00000250: b3e9 fc3d d6ee 203e d59d b7bd efd0 0a3e
00000260: f249 403e dfbf bb3b eb9d 4f3e 9064 94bd
00000270: b9b7 b93d 1494 e73d 01c8 9a3e d8e9 94be
00000280: a585 7bbd eccb e6bd 73d9 9bbc 80e5 f13c
00000290: 4f83 753c 6fff 20bd 096b 2cbe 3914 153e
000002a0: 85fa c6bc 800e c6bd 43d3 28be c723 99bd
000002b0: 0399 a6bd 7f21 03be a119 843d 7e8b bd3d
000002c0: 3f18 9a3d 0fba 0a3e 3f8b 38be 00ad 7d3d
000002d0: f618 08be c451 073d aef2 0c3e 2804 e43a
000002e0: 1c27 923d 06e3 0ebd 2173 3c3e c36d f73d
000002f0: 5a01 143d aecb 4cbd 0bae e33d ae94 083e
00000300: a6db 0cbe 3be1 03be 3742 463d 108f e2bd
00000310: 5aed 983d 8d2c 053d 0433 b3bd 5313 1dbe
00000320: 8013 29bc 7fc1 c8bd cf3a b5bd 3794 183d
00000330: ec39 0c3a 627c 4b3e f13d e53d 690b 943d
00000340: 5a5f 26bd 446e d23c 0d93 adbd 6a56 b2bc
00000350: ea3f 0b3e dfb8 74bd 10bf 76bd 04ed 6d3e
00000360: b618 df3d 67a0 873d 2f3b 09be 7177 bfbd
00000370: 64fe b13d e9fc 1b3e d029 8e3c 447a 6cbc
00000380: 894e b93d 7cb0 2cbe d27a 1d3d 7832 9ebd
00000390: 3ad1 7d3a e845 83bc f146 b83d aefe 873c
000003a0: 8ffe ccbc 39da 283e d730 56bd c1e4 793d
000003b0: 68f9 4ebd c762 8f3d f67f cbbc 1c9d cabc
000003c0: 135e 293e 8dbc 05be 3bd7 02be 4605 443d
000003d0: e21b 143e f2d9 eb3d a54b 58bc c8c8 fbbc
000003e0: 9c61 6f3d d6dc ad3d 7840 39be 71cc 37bd
000003f0: ae42 4abd fb94 0abd 435a 623e 4349 243e

fc.2.bias f4 [256]
-0.2122237 -0.31517652 -0.118854724 -0.18311933 -0.17633228 -0.16779813 -0.1560852 -0.39469323
-0.3360554 -0.23410203 -0.1946597 -0.20442359 -0.16873506 -0.54073954 -0.3400141 -0.3039875
-0.11459028 -0.11429306 -0.35195515 -0.13382342 -0.14928754 -0.16726774 -0.12171406 -0.27569994
-0.20834179 0.00231599 0.14009775 -0.1585815 -0.29091784 -0.21132757 -0.12580192 -0.17661719
-0.24514353 -0.22660369 -0.18011348 -0.16472523 -0.19670643 -0.4214304 -0.13349564 0.2585804
-0.18864278 -0.15203007 -0.17244826 -0.10494749 -0.15386793 -0.22783186 -0.21816371 -0.1895522
-0.1304866 -0.19538608 -0.117254056 -0.27213535 -0.19631079 0.02100635 -0.29032704 -0.21815184
-0.38891703 -0.26057187 -0.12766317 -0.1743669 -0.20619653 -0.29646337 -0.29668733 -0.22814131
-0.14714307 -0.22189401 -0.24415 -0.20252089 -0.28742778 -0.42488664 -0.090679005 -0.40153408
-0.34095055 -0.13676643 -0.16767581 -0.13957733 -0.15304756 -0.10671979 -0.122825004 -0.26708636
-0.27654803 -0.16540702 -0.21075556 -0.1222055 -0.13163409 -0.07471349 0.08390131 -0.17888059
-0.105703905 -0.06430994 -0.24331903 -0.1951849 -0.5649258 -0.28501973 -0.21422176 -0.20715988
-0.080327325 -0.23919179 -0.2162887 -0.17967363 -0.04310324 -0.14321901 -0.14502326 -0.23004669
-0.18856537 -0.16808847 -0.17120229 -0.20367241 -0.2558945 -0.17073746 -0.25789356 -0.31359997
-0.22769658 -0.20838344 -0.10463473 -0.17382438 -0.226245 -0.1186614 -0.13215356 -0.11114413
-0.20568708 -0.1809684 -0.26333836 -0.20805508 -0.21994394 -0.10039294 -0.06878413 -0.21904138
-0.27213883 -0.11739979 -0.2190828 -0.15902813 -0.40123603 -0.059302412 -0.12861885 -0.24555723
-0.022644004 -0.13698801 -0.059930846 -0.21612959 -0.15791862 -0.1378065 -0.11545326 -0.16874556
-0.1704076 -0.30030206 -0.111433655 -0.20383398 -0.0781382 -0.33243063 -0.34164295 -0.22434323
-0.47274023 -0.19513325 -0.32497543 -0.25225112 -0.18532404 -0.23325801 -0.16298278 -0.20383321
-0.32281953 -0.22273807 -0.15301207 -0.21915437 -0.120025046 -0.36320895 -0.20151746 -0.15404734
-0.20450534 -0.105138205 -0.14826375 -0.52476895 -0.27599144 -0.51283437 -0.17800611 0.031330552
-0.4544252 -0.11570118 0.042973474 -0.21242924 -0.13521078 -0.21270178 -0.22673899 -0.18238577
-0.35566375 -0.18963368 -0.20209414 -0.22910549 -0.46037966 -0.28222802 -0.13211112 -0.12846144
-0.08771803 -0.07170082 -0.2516121 -0.19543332 -0.25239953 -0.15703577 -0.13859847 -0.17408596
-0.33262515 -0.22022349 -0.30754486 -0.08819264 -0.20498659 -0.375116 -0.18698199 -0.21128243
-0.08568693 -0.22951597 -0.3030119 -0.31050628 -0.20796876 -0.11775671 -0.16980061 -0.46580055
-0.30343437 -0.16352542 -0.35137644 -0.10332961 -0.32944798 -0.129731 -0.3311615 -0.08491068
-0.42789444 -0.18254061 -0.19503759 -0.17285404 -0.17120816 -0.23031425 -0.17438549 -0.20929565
-0.25346217 -0.37070525 -0.15271513 -0.45959306 -0.35751927 -0.27039358 -0.18423004 -0.15499021
-0.14788619 -0.15444332 -0.3116458 -0.23476836 -0.17491959 -0.27804852 -0.082022965 -0.25315538
-0.011174925 -0.29754505 -0.33404535 -0.22664063 -0.26196718 -0.11252918 -0.48221937 -0.20756862
00000000: 2b51 59be d15e a1be 1b6a f3bd a283 3bbe
00000010: 7390 34be 46d3 2bbe ccd4 1fbe 3b15 cabe
00000020: 740f acbe 71b8 6fbe df54 47be 6b54 51be
00000030: e2c8 2cbe e86d 0abf 5416 aebe 40a4 9bbe
00000040: 4fae eabd 7b12 eabd 7733 b4be 0209 09be
00000050: d5de 18be 3c48 2bbe 3945 f9bd 8b28 8dbe
00000060: 8d57 55be ddc7 173b c975 0f3e 3063 22be
00000070: 2ff3 94be 4166 58be 38d2 00be 23db 34be
00000080: e806 7bbe cc0a 68be ab6f 38be bbad 28be
00000090: 696d 49be bac5 d7be 15b3 08be a664 843e
000000a0: 932b 41be c5ad 1bbe 4796 30be b6ee d6bd
000000b0: 8e8f 1dbe c14c 69be 4f66 5fbe f919 42be
000000c0: 479e 05be 4a13 48be e522 f0bd 5355 8bbe
000000d0: b205 49be 8215 ac3c bfa5 94be 3263 5fbe
000000e0: 2220 c7be ad69 85be 22ba 02be 3d8d 32be
000000f0: 2f25 53be 0cca 97be 67e7 97be e09d 69be
00000100: acac 16be 2f38 63be 7502 7abe a361 4fbe
00000110: bc29 93be be8a d9be eab5 b9bd e095 cdbe
00000120: 1291 aebe 800c 0cbe 35b3 2bbe 5ced 0ebe
00000130: 80b8 1cbe e88f dabd ad8b fbbd 8bbf 88be
00000140: b497 8dbe 7560 29be 4ed0 57be e146 fabd
00000150: 16cb 06be 6303 99bd 73d4 ab3d 792c 37be
00000160: 4a7b d8bd eeb4 83bd a028 79be 8dde 47be
00000170: fa9e 10bf 1bee 91be f35c 5bbe b821 54be
00000180: a782 a4bd b1ee 74be c97a 5dbe 5dfc 37be
00000190: 068d 30bd 01a8 12be fa80 14be 5c91 6bbe
000001a0: 4817 41be 621f 2cbe a74f 2fbe 808f 50be
000001b0: 9b04 83be cdd5 2ebe a00a 84be 2d90 a0be
000001c0: 4b29 69be 7862 55be bc4a d6bd 05ff 31be
000001d0: c5ac 67be c004 f3bd 4353 07be 899f e3bd
000001e0: a29f 52be c84f 39be 49d4 86be 640c 55be
000001f0: fc38 61be d09a cdbd b2de 8cbd 624c 60be
00000200: c855 8bbe 4d6f f0bd 3e57 60be 45d8 22be
00000210: cf6e cdbe 16e7 72bd a9b4 03be 5b73 7bbe
00000220: eb7f b9bc 9646 0cbe 0c7a 75bd 1351 5dbe
00000230: 6bb5 21be 261d 0dbe c272 ecbd a3cb 2cbe
00000240: 547f 2ebe 31c1 99be 5437 e4bd dbb9 50be
00000250: ec06 a0bd 5934 aabe d3eb aebe 3bba 65be
00000260: 020b f2be 03d1 47be 2e63 a6be 0f27 81be
00000270: 96c5 3dbe 30db 6ebe f5e4 26be a7b9 50be
00000280: 9a48 a5be 7315 64be 32af 1cbe 016a 60be
00000290: b1cf f5bd 86f6 b9be 985a 4ebe 96be 1dbe
000002a0: d969 51be b352 d7bd 74d2 17be 4257 06bf
000002b0: c04e 8dbe 1d49 03bf 3c47 36be 7754 003d
000002c0: 6baa e8be bef4 ecbd f404 303d 0d87 59be
000002d0: b274 0abe 7fce 59be 442e 68be 56c3 3abe
000002e0: 8f19 b6be 552f 42be c4f1 4ebe a19a 6abe
000002f0: e2b6 ebbe 3180 90be 2348 07be 658b 03be
00000300: 83a5 b3bd e1d7 92bd 4dd3 80be ac1f 48be
00000310: 833a 81be fccd 20be c2ec 0dbe 9743 32be
00000320: d84d aabe 4482 61be 8576 9dbe 589e b4bd
00000330: 01e8 51be 340f c0be 3578 3fbe 6c5a 58be
00000340: a17c afbd 3c06 6bbe 6024 9bbe aefa 9ebe
00000350: c3f5 54be 6e2a f1bd 36e0 2dbe 697d eebe
00000360: c05b 9bbe 3573 27be 9de7 b3be 799e d3bd
00000370: 68ad a8be 34d8 04be 008e a9be a7e5 adbd
00000380: fb14 dbbe edeb 3abe efb7 47be a600 31be
00000390: 3151 2fbe 80d7 6bbe 1c92 32be 9951 56be
000003a0: cbc5 81be 14cd bdbe 5b61 1cbe c84f ebbe
000003b0: c40c b7be 0771 8abe cda6 3cbe c1b5 1ebe
000003c0: 7a6f 17be 6426 1ebe 0a90 9fbe 1e67 70be
000003d0: 1f1e 33be 605c 8ebe a8fb a7bd 959d 81be
000003e0: 0817 37bc d357 98be fe07 abbe 7b14 68be
000003f0: 9020 86be b375 e6bd 75e5 f6be de8c 54be

fc.4.weight f4 [4, 256]
-0.030175932 0.04409488 -0.015429286 0.013073694 -0.019687172 -0.008431899 0.04195991 -0.035241723
-0.02573606 -0.019571021 -0.0119233765 0.0136488825 0.0028758673 -0.008676198 -0.008543105 0.007391636
-0.024201816 0.025170013 0.008006877 0.044285297 -0.009337365 0.0025917292 -0.0030157494 -0.04108412
-0.013247375 -0.16646075 0.07924158 -0.011709931 -0.00069825724 0.06921821 -0.024128504 0.042062744
-0.001157861 0.02795919 0.02983978 0.0067880587 -0.011580156 -0.05081265 -0.02793851 -0.08948917
0.0015591028 0.0063171335 -0.0073998994 -0.0046823765 -0.01462318 -0.0006858029 0.005220819 -0.029468652
-0.010558552 -0.11905072 -0.03088114 0.005450711 0.009956194 0.010239023 0.019362222 -0.13306056
0.2771551 -0.019105267 -0.017177928 0.054587215 0.057716522 -0.01183551 0.007322844 -0.03991774
0.005692832 -0.015767112 -0.028442541 0.026117275 -0.01269402 -0.007719005 0.03222181 -0.14473692
-0.043090347 0.02025923 -0.051117875 -0.030377788 -0.02068608 -0.021901658 0.005683747 0.09603753
-0.023352604 -0.014938779 0.029494246 -0.003079379 0.0031262836 -0.00028202217 -0.124516785 0.016235478
0.0068420703 -0.003602742 -0.007116359 0.022834886 -0.18948992 0.026839726 -0.3568734 0.013965369
0.014835349 0.11668858 0.057997618 0.010240277 -0.00465326 0.05077037 -0.019293824 -0.012664701
0.03753907 -0.0008975522 0.02017125 0.051490296 0.028002564 0.008776337 0.023476552 -0.0026105654
-0.0050478107 0.010895341 0.004957092 -0.01566659 0.027914561 0.014213571 0.0060074283 0.012247104
-0.0010915718 0.0045730704 0.0023728348 0.015462718 0.018035712 0.012439313 0.014927057 -0.040657364
0.09972387 -0.015552369 -0.027750317 -0.0055121593 -0.01790643 0.019016098 0.011533752 -0.21064119
-0.19553076 -0.017595429 0.012293289 0.027432144 -0.0057177907 -0.015825896 0.04294028 -0.009409043
0.034630932 0.012642049 -0.019553391 0.016461162 -0.022806814 0.011230836 0.072133705 -0.008043704
-0.27424434 0.011538853 -0.046803866 0.002216276 0.03384365 -0.0073291953 0.019707773 -0.008221397
0.00059480174 0.0029484406 -0.06076263 -0.012852311 -0.018203806 -0.057248592 -0.005347495 0.0006850797
0.031415313 -0.03453183 0.011831712 -0.02869012 0.0041300044 0.0150416875 -0.033004127 -0.12557425
-0.12739234 -0.035781354 -0.029455952 0.023364726 -0.06760124 -0.021789005 0.017719045 0.054696612
-0.02440058 -0.022899132 -0.01872877 0.05929542 -0.024843572 0.13410875 0.025747953 -0.006046141
-0.024690645 0.00019551229 -0.029199986 0.0077847573 -0.03492662 -0.03107874 0.0040097875 0.00080911367
-0.06221761 -0.01264719 0.00974777 -0.022696132 -0.018234953 -0.049768068 -0.09806419 0.00083337806
0.0058604362 -0.019460678 -0.13704337 -0.10352739 0.014788531 0.0019014027 -0.20891157 0.08148354
-0.06489905 -0.16564429 -0.3221812 0.013140546 -0.31897274 -0.03513572 -0.027461572 0.019476304
0.10046004 0.031940516 0.0040350948 -0.022191897 -0.039399233 0.015019043 -0.031007204 -0.05400601
-0.05771578 -0.042281806 0.0024660788 0.03559162 -0.005694957 0.0062383693 -0.012812875 0.008759158
-0.027740298 -0.0153581435 -0.02324839 -0.030014055 0.0055329786 -0.0055301245 -0.053825382 -0.013592873
0.0095719565 -0.009499563 -0.010178011 0.031133419 0.023972448 0.008947539 -0.030607298 0.056953207
00000000: 8433 f7bc d59c 343d 1ecb 7cbc 0c33 563c
00000010: fe46 a1bc f325 0abc 28de 2b3d a059 10bd
00000020: 6ed4 d2bc 6853 a0bc 445a 43bc 909f 5f3c
00000030: 0c79 3c3b 9d26 0ebc 61f8 0bbc 8935 f23b
00000040: e342 c6bc 5831 ce3c 472f 033c 8064 353d
00000050: bffb 18bc 00da 293b e1a3 45bb d247 28bd
00000060: 850b 59bc b074 2abe 6949 a23d 03db 3fbc
00000070: 400b 37ba 47c2 8d3d 24a9 c5bc fc49 2c3d
00000080: 5ec3 97ba ac0a e53c 8e72 f43c 5d6e de3b
00000090: b2ba 3dbc ed20 50bd 4ddf e4bc 1946 b7bd
000000a0: cf5a cc3a f5ff ce3b db7a f2bb 9f6e 99bb
000000b0: 1096 6fbc 74c7 33ba 6713 ab3b 3e68 f1bc
000000c0: c7fd 2cbc ddd0 f3bd 72fa fcbc e19b b23b
000000d0: 4e1f 233c 93c1 273c 869d 9e3c 0741 08be
000000e0: 46e7 8d3e a682 9cbc bab8 8cbc d896 5f3d
000000f0: 2968 6c3d bae9 41bc 78f4 ef3b c980 23bd
00000100: f08a ba3b 082a 81bc 5500 e9bc e5f3 d53c
00000110: 94fa 4fbc b5ef fcbb 04fb 033d ea35 14be
00000120: 817f 30bd aff6 a53c fa60 51bd d7da f8bc
00000130: db75 a9bc 1b6b b3bc ba3e ba3b 53af c43d
00000140: f64d bfbc c8c1 74bc eb9d f13c 68cf 49bb
00000150: 56e2 4c3b 60dc 93b9 a802 ffbd 4400 853c
00000160: 7233 e03b fb1b 6cbb 5930 e9bb 3a10 bb3c
00000170: a509 42be fcde db3c 1cb8 b6be 01cf 643c
00000180: f70f 733c 6cfa ee3d e98e 6d3d d6c6 273c
00000190: 607a 98bb 97f4 4f3d 150e 9ebc 9b7f 4fbc
000001a0: 91c2 193d b549 6bba 2d3e a53c 7de7 523d
000001b0: a265 e53c a0ca 0f3c e651 c03c 0516 2bbb
000001c0: 1b68 a5bb 5f82 323c 1a6f a23b 3857 80bc
000001d0: 14ad e43c 0ae0 683c f6d9 c43b 14a8 483c
000001e0: 1213 8fba b2d9 953b 9081 1b3b 5757 7d3c
000001f0: a1bf 933c 43ce 4b3c 9d90 743c 5688 26bd
00000200: 073c cc3d 5dcf 7ebc a254 e3bc 589f b4bb
00000210: 81b0 92bc a6c7 9b3c 10f8 3c3c 53b2 57be
00000220: 3739 48be 4a24 90bc cb69 493c 60b9 e03c
00000230: 4e5c bbbb 4fa5 81bc 26e2 2f3d 6328 1abc
00000240: 2ad9 0d3d 9920 4f3c 6f2e a0bc 8fd9 863c
00000250: 5bd5 babc 8a01 383c d6ba 933d bdc9 03bc
00000260: c169 8cbe 750d 3d3c 69b5 3fbd f13e 113b
00000270: a49f 0a3d bf29 f0bb 3272 a13c 0ab3 06bc
00000280: 78ec 1b3a a03a 413b 3ce2 78bd 8092 52bc
00000290: 2620 95bc 807d 6abd 0a3a afbb ec96 333a
000002a0: 58ad 003d 4071 0dbd ccd9 413c 8b07 ebbc
000002b0: fd54 873b 6971 763c 562f 07bd 8996 00be
000002c0: 2373 02be 788f 12bd 9c4d f1bc 6267 bf3c
000002d0: 8572 8abd db7e b2bc 8827 913c 8e09 603d
000002e0: bae3 c7bc f696 bbbc 146d 99bc c1df 723d
000002f0: bf84 cbbc ce53 093e 5fed d23c b51e c6bb
00000300: 0944 cabc 6e02 4d39 cf34 efbc 4717 ff3b
00000310: 370f 0fbd d798 febc 8964 833b b31a 543a
00000320: e5d7 7ebd 2936 4fbc 1cb5 1f3c 3ded b9bc
00000330: 7861 95bc 9ad9 4bbd e1d5 c8bd 0e77 5a3a
00000340: e708 c03b 006c 9fbc 1955 0cbe 2b06 d4bd
00000350: 984b 723c 7d38 f93a eaec 55be d8e0 a63d
00000360: cbe9 84bd a89e 29be eff4 a4be 724b 573c
00000370: 6550 a3be 79ea 0fbd 17f7 e0bc c58c 9f3c
00000380: febd cd3d 0fd4 023d d438 843b c8cb b5bc
00000390: 1761 21bd 6f12 763c d202 febc 6835 5dbd
000003a0: 6267 6cbd b02f 2dbd f09d 213b 85c8 113d
000003b0: c39c babb 3c6b cc3b 18ed 51bc 9282 0f3c
000003c0: 9f3f e3bc b9a0 7bbc 6873 bebc 09e0 f5bc
000003d0: fd4d b53b 0c36 b5bb 0178 5cbd a4b4 5ebc
000003e0: b2d3 1c3c 0ea4 1bbc acc1 26bc 830b ff3c
000003f0: de61 c43c b398 123c 28bc fabc c447 693d

fc.4.bias f4 [4]
-0.21889669 -0.35260668 0.47733098 0.4889528
00000000: 7426 60be dd88 b4be ba64 f43e 0558 fa3e
