QNet_model.pth (torch, 276311 bytes, 6 tensors)

fc.0.weight f4 [256, 6]
000000 ed a8 b1 3d cc 96 a1 be b0 9d ce bc aa 6c 2c be
       0.08674798 -0.3156036 -0.025221676 -0.16838327
000010 ea 0e 0f be 2b d6 02 3f cb 42 04 3e a0 50 03 be
       -0.13970533 0.51108044 0.12916104 -0.12823725
000020 48 41 49 3e d8 28 5f 3e 6e 2d 08 bd 2f f3 47 3d
       0.19653809 0.21792924 -0.03324645 0.048815902
000030 d3 80 5a 3d b7 0e 5a bd c2 3b 99 be f6 08 50 bc
       0.053345513 -0.05323669 -0.29928404 -0.012697449
000040 70 46 1f bf 53 a6 93 3c 83 64 1a 3e 9c e3 c7 bc
       -0.62216854 0.018023646 0.15077405 -0.024400525
000050 0a 21 26 3e 0b a9 cc 3d db 00 5b be 9a 2d bc be
       0.16223541 0.0999318 -0.21387045 -0.3675354
000060 ef c9 a7 3d ca 67 db bd bd 31 5e 3e 47 4e 9d bd
       0.08192813 -0.107131556 0.21698661 -0.07680946
000070 c5 dc e2 3c 98 8b 0a 3f f0 44 49 be 21 11 7f 3d
       0.027693162 0.54119253 -0.19655204 0.062272195
000080 22 e2 7f be e2 20 6b 3e 1d 48 cb be 1a 76 d5 3d
       -0.24988607 0.22961763 -0.39703456 0.10422917
000090 b4 2e 11 3e 9c 6c 8a be 11 f6 ce be 75 ba 9f be
       0.14177972 -0.27035987 -0.4042211 -0.31196943
0000a0 6f 39 e0 3e 2c 74 08 bf 16 d4 ad be 30 63 47 bc
       0.43793818 -0.53302264 -0.3395087 -0.012169644
0000b0 0e c9 7c bd 77 47 83 bd 3c fb d2 bc 82 50 b7 be
       -0.06171518 -0.06410115 -0.025754564 -0.3580361
0000c0 46 8b 44 be 5f e5 4b be 8b 5f 80 be 3f b6 d0 3d
       -0.19193754 -0.19911717 -0.25072894 0.10191011
0000d0 18 c9 c1 3e dc a7 89 3e bc 9e 80 be ae b1 61 3e
       0.37848735 0.2688588 -0.25121105 0.22040436
0000e0 6f 5f 78 3d 3a 88 a4 3e 82 f8 04 be e6 11 c7 be
       0.060637888 0.32135183 -0.12985423 -0.38880843
0000f0 3c 25 cb 3e 79 2a 9f 3c 49 7d 99 bd 3a f3 50 3e
       0.39676845 0.019429432 -0.07494599 0.20405284
000100 81 b3 6d be e2 c7 b4 be 4c e4 2c be 7b 58 5a be
       -0.23213007 -0.35308748 -0.16883963 -0.21322815
000110 74 0a f1 3d a6 97 d7 bd 84 b8 04 bf c9 22 9a 3e
       0.11769572 -0.105269715 -0.5184405 0.30104664
000120 d7 dd 00 3e a9 4e 9e be 37 03 28 be 1b a2 7f bd
       0.12584625 -0.30919388 -0.16407476 -0.062410455
000130 19 d2 09 3e c7 21 e2 be de f4 51 3d 19 b9 da be
       0.13459052 -0.44166395 0.051258914 -0.42719343
000140 4c 53 3f 3c 07 dd 21 bd c2 05 0a be 5a ae a7 3e
       0.011677574 -0.03951743 -0.13478759 0.32750207
000150 ff 58 0a 3e c9 c5 5a bd bf 15 34 be bc ba f9 3d
       0.13510512 -0.05341128 -0.1758642 0.1219382
000160 cf e6 e0 3e 33 14 91 be 41 01 70 3e f4 12 e3 3d
       0.43926093 -0.28335723 0.23437978 0.110875994
000170 15 ae 33 be 6e 90 5c 3b bc 2c 51 3e 2a 0a f7 be
       -0.17546876 0.0033655423 0.20427221 -0.48249942
000180 88 49 43 3e 25 28 97 3e c0 32 14 bf f4 fc 1f bf
       0.19071019 0.29522815 -0.5788994 -0.6249535
000190 b5 ba 6f 3d f7 c3 ef 3d 59 88 07 3c 13 88 86 be
       0.058527667 0.11707299 0.008272254 -0.2627569
0001a0 0f 38 2b 3e e2 56 d8 3d ea 7b 0e be a3 c2 26 bf
       0.16720603 0.105634466 -0.13914457 -0.6514074
0001b0 66 a9 17 3e ab b4 49 3c 23 c2 34 bd 0e 19 2d 3e
       0.14810714 0.012311141 -0.044130456 0.16904089
0001c0 f0 85 af be 4c e3 d0 be 0b dd 8a 3d b8 0b 59 bd
       -0.34281874 -0.40798414 0.06780442 -0.05298969
0001d0 c4 07 84 be 9d 01 04 3e 4e 98 d1 3e 4f 68 9b be
       -0.25787175 0.1289124 0.40936512 -0.3035302
0001e0 0d c5 28 3e 79 ea 69 be 1c 50 8c 3e 15 d3 17 be
       0.16481419 -0.2284335 0.2740487 -0.14826615
0001f0 ae b6 0b 3f 43 1a 19 bf 6a 76 ce 3e 68 f3 46 bd
       0.5457562 -0.598057 0.40324718 -0.048571974
000200 a5 d0 8f 3e 78 2a 06 3e c8 02 80 3e f3 27 53 3e
       0.2808887 0.13102138 0.25002122 0.20620708
000210 6e 80 9d 3e b6 e5 a8 3d 71 1b 2a be 1f fd aa bc
       0.30762047 0.08246939 -0.1661203 -0.02087265
000220 94 c4 f7 bd 0e f8 cc bd fb 34 ac be 1c 98 90 3e
       -0.12098041 -0.1000825 -0.3363417 0.2824105
000230 0f 0b b3 3e a3 8f ae 3d c0 d4 68 3d 8b e5 53 3e
       0.34969375 0.0852349 0.05684352 0.20693032
000240 6a 2d c4 3c 7a 68 6d be 1e d6 d8 bd ff 78 61 be
       0.023947436 -0.23184386 -0.105877146 -0.22018813
000250 11 8f 94 be b7 34 b7 3d a6 c4 1d 3e 2b 60 93 be
       -0.290154 0.089456014 0.15407047 -0.28784308
000260 43 0c 8f 3e 23 5d 2a be f2 fd a5 3e 09 67 cb 3b
       0.27939042 -0.16637091 0.32420307 0.006207351
000270 b3 c2 58 be 3e 1b 41 3e 49 30 7a 3d 8b 31 66 3e
       -0.21168022 0.18858048 0.061081205 0.22479837
000280 40 09 16 bf 5c ea ca be 65 21 14 3e 54 9e dd 3e
       -0.58607864 -0.39631927 0.14465864 0.43284857
000290 ff f3 2b be d4 cb 5c 3e d9 42 d7 be 7a 32 9f 3e
       -0.16792296 0.2156213 -0.42043188 0.31093198
0002a0 af 15 09 3e 13 31 2d be 19 83 57 3e 35 bd cf 3d
       0.13387178 -0.16913252 0.21046104 0.1014351
0002b0 5a 4e a2 3c 38 fc cd 3e 39 87 5a be b7 7c c6 be
       0.019812752 0.4023149 -0.21340646 -0.38767025
0002c0 9c 0e 09 be e4 c3 89 bd 40 40 d6 be 31 80 e5 3d
       -0.1338448 -0.06726816 -0.41845894 0.11206091
0002d0 28 fd 43 bd 01 6a bf be dd 4b 9a 3c 46 2d 8a bd
       -0.04784885 -0.37385562 0.018835003 -0.067469165
0002e0 97 40 a4 be 8b ce b1 be 8e 69 16 bb 37 94 44 3d
       -0.32080528 -0.34727892 -0.00229511 0.04799291
0002f0 e4 7b 80 bd 13 b3 53 3e b0 e5 af 3d 58 e7 e4 3e
       -0.0627363 0.2067378 0.08588731 0.4470775
000300 e9 92 9f be 14 4b 02 3e ac 88 3a be 0c f1 a4 be
       -0.3116677 0.12723953 -0.18216199 -0.32215154
000310 e3 ba b7 be ea b2 cb 3e db aa 84 3e 21 d5 a0 3d
       -0.3588477 0.39784938 0.25911602 0.07853151
000320 25 45 39 bd 9c b2 7a be 7d a6 ae bd d3 37 3c be
       -0.045231957 -0.24482197 -0.08527849 -0.1838067
000330 61 31 02 be 62 2b 0e 3e 80 45 47 be 29 a9 ed bd
       -0.12714149 0.13883737 -0.19460106 -0.1160453
000340 b8 ce 05 bf b7 1a 17 3e 45 bc 1e be 57 74 cb be
       -0.5226855 0.14756285 -0.15501507 -0.39737198
000350 f9 e2 78 be 88 0b df bd e0 ab ed 3d dc 23 cc 3e
       -0.24305333 -0.10890871 0.11605048 0.3987111
000360 a4 3b b9 3e 59 e0 ba bd c5 ce 6d 3e cb fe 91 be
       0.36178315 -0.09124822 0.23223408 -0.28514704
000370 9e 52 6f bc de 9e f8 be 61 66 1e be 2f 5c 8c bd
       -0.0146071 -0.48558706 -0.15468742 -0.0685352
000380 2c f2 ac be d9 3c 26 be 75 f9 1d bf c4 7c 53 be
       -0.33778512 -0.16234149 -0.61708766 -0.20653063
000390 e0 99 8b 3d 9b 56 70 3e d5 f1 d3 3e 81 eb 80 bd
       0.06816459 0.23470537 0.4139544 -0.06294919
0003a0 f7 3f fb bd d5 89 ac bd f4 4f 09 bd 79 a7 a3 be
       -0.1226806 -0.08424727 -0.033523515 -0.3196371
0003b0 bf ac 0e 3e 44 c0 41 3e 01 16 36 bd 97 ed 55 be
       0.13933085 0.18921 -0.04445458 -0.20891415
0003c0 43 23 a9 be 8f 6c 9a 3d 8a d6 04 3e 81 61 ba 3e
       -0.33034715 0.07540237 0.12972465 0.36402515
0003d0 5b 7d 91 3e 1d 32 b5 bd b1 11 ba 3e 32 b8 c1 3e
       0.2841595 -0.08847449 0.36341622 0.37835842
0003e0 a8 ca 1c 3e 6e 37 6f 3e 8e 6e 88 bd 93 95 f2 be
       0.15311682 0.23360988 -0.06661712 -0.4737974
0003f0 4c 65 3a 3d 39 38 c2 bd ba a0 c5 bd 95 39 94 3e
       0.04550676 -0.0948338 -0.09649797 0.28950182

fc.0.bias f4 [256]
000000 22 4d 63 3e 78 7d 94 be 93 c1 af 3e 8a 06 84 be
       0.22197393 -0.29001975 0.34327373 -0.2578624
000010 f6 c1 28 be 41 96 8d 3e 66 f0 bc 3e 9c 4d 9c be
       -0.1648024 0.27653697 0.3690216 -0.3052796
000020 92 ab b2 3e ad 66 4a be e0 09 96 3d 52 94 ca 3d
       0.34896523 -0.1976573 0.07326102 0.09891571
000030 52 2d c5 3e 9e c4 9a bd 0f 06 97 be e1 46 17 3e
       0.3851114 -0.07557033 -0.2949681 0.14773132
000040 07 95 1c bf 8b 59 a1 be 78 0c a2 3d 27 3e 52 3e
       -0.611649 -0.31513628 0.079125345 0.20531522
000050 cb ad 87 3e 9b fc 32 3e 12 7f 90 be a4 7e 02 be
       0.2649978 0.17479174 -0.28221947 -0.12743622
000060 df cf b2 3d fc dc cc 3e 8f 6c 90 ba 63 bf 95 bd
       0.087310545 0.40012348 -0.0011018681 -0.07311895
000070 fa 3b b4 3e 95 53 87 be 6b 97 d5 bd 67 d4 f7 bc
       0.35202008 -0.26430956 -0.10429271 -0.030252649
000080 59 de 00 3e e0 4b a4 be 0d 38 f7 3c 04 51 21 3e
       0.12584819 -0.32089138 0.030178094 0.15753561
000090 b2 a1 ba bd 20 ee 89 3e 0f 44 86 be f0 dd b8 3e
       -0.09112872 0.26939487 -0.262238 0.36106825
0000a0 fe 8a ad 3e 42 a3 8a bd c0 ea 9f bd 33 c3 28 bd
       0.33895105 -0.0676942 -0.07808447 -0.04120178
0000b0 68 1b b0 be 60 f2 bc 3d 94 c0 86 3e dd 77 a6 3d
       -0.3439591 0.09225917 0.263188 0.08128331
0000c0 cf 28 56 be fe 10 20 3e 1f 1c 24 3d 71 d8 66 3e
       -0.20914005 0.15631482 0.04006588 0.22543503
0000d0 00 15 ac 3e 19 1b 14 3d 12 fc 65 be c7 68 6c 3e
       0.33609772 0.036158655 -0.22459438 0.23086844
0000e0 0e 87 97 3e ab 73 bd 3e ed 0a 04 bd e2 d8 b2 be
       0.29595226 0.3700231 -0.032236982 -0.34931093
0000f0 69 6c 63 3e ef 4f 14 3e 99 04 07 be 6e 25 24 3d
       0.22209324 0.14483617 -0.13185348 0.04007476
000100 b6 fc 2e 3e eb 73 12 3e db b1 5b 3e 43 a3 d3 3e
       0.17088589 0.14302032 0.21454565 0.41335496
000110 86 35 30 3e 83 c4 11 bd 0f c1 b4 bd 2f b6 69 be
       0.17207918 -0.0355878 -0.088258855 -0.22823404
000120 90 6b 72 bd ba 8e 87 be 86 47 ec 3a 2b 33 c2 3e
       -0.05918461 -0.2647608 0.0018026687 0.37929663
000130 79 83 bc 3e 33 46 96 3e db 7c 72 3e 51 f5 b1 3e
       0.36819056 0.29350433 0.23680441 0.34757474
000140 0f 4b b4 3d 31 20 ca 3d ae c6 b0 3e a1 90 b8 3c
       0.08803379 0.09869421 0.3452658 0.022529902
000150 e9 4b 2c 3e 21 dd 65 be 0c 1f 92 3e cb 79 9b bd
       0.16825832 -0.22447635 0.28539312 -0.075915895
000160 81 e9 93 bd 8f 75 09 be 1e 40 19 3e c9 b0 c1 3e
       -0.07222272 -0.13423751 0.14965865 0.3783019
000170 10 8d 8b be de 18 83 3e 16 4c 93 3e 6d 5b 8c 3e
       -0.2725606 0.2560491 0.28768986 0.27413502
000180 c5 4a fd 3d 99 0d 9e be 1e 80 9c 3e 86 95 68 bd
       0.12367777 -0.3086975 0.30566496 -0.05678322
000190 03 6a bf 3d 95 9d fe bd ab 86 7e bd 7e e1 a1 3d
       0.09346392 -0.124324 -0.062140148 0.07904337
0001a0 3d ff 62 3d 50 a6 8b be 5a a6 b6 3e df 16 49 3c
       0.055419195 -0.27275324 0.3567379 0.012273519
0001b0 17 d0 43 be e4 27 50 3e 4b 1e 13 3e 85 d0 a5 3d
       -0.19122349 0.20327717 0.14367025 0.080964126
0001c0 c5 e0 7c 3d c7 63 88 be ba 88 b4 3e fc 8a 2c be
       0.061737794 -0.26638624 0.35260564 -0.16849893
0001d0 41 27 af 3e 1e 79 04 3e 8b a5 ee bd a6 ee 35 3d
       0.34209636 0.12936828 -0.116526686 0.044417046
0001e0 e0 f6 ab 3e 3e 63 a8 be 3c e8 31 be 7e 1f 92 3e
       0.33586788 -0.32888216 -0.17373747 0.28539652
0001f0 2a 81 87 3c c8 55 50 3e 5f c8 f5 be 66 c8 4e be
       0.016541082 0.20345223 -0.48004434 -0.20193633
000200 a3 55 8a 3e f8 2e 13 3d b6 5c db bd 4f cc b3 3e
       0.2701846 0.035933465 -0.107110426 0.35116813
000210 97 8b 9b be 9b 47 cb 3e 4d a0 7c 3e 5b 3f ee 3e
       -0.30379936 0.39703068 0.24670525 0.4653271
000220 e8 fd f2 3e 0e 80 40 3e 01 45 c5 be ca e5 84 3d
       0.4745934 0.18798849 -0.38529208 0.06489141
000230 e6 c3 6e 3d 34 dc 14 3e d7 dd 9d be ec 27 46 3e
       0.058292292 0.14537126 -0.30833313 0.19351166
000240 c8 f8 d1 be f7 bd 08 3f fb 26 2a 3e ac d6 8c be
       -0.41010118 0.53414863 0.16616432 -0.27507532
000250 42 ab 8d 3e 89 a8 ae be 9a 01 69 bd f0 1e fe bc
       0.27669722 -0.34112957 -0.056886293 -0.031020612
000260 d7 c9 41 be b4 a3 c3 bc 9c c8 94 3d 2c 5b 09 bf
       -0.18924652 -0.02388177 0.07264826 -0.5365474
000270 7e 95 f7 bd 08 66 b5 3e cb 74 58 be 4b 87 97 be
       -0.1208906 0.35429406 -0.21138303 -0.29595408
000280 8c db 9d be be ee 7f bd 7d 61 60 be e5 95 9d be
       -0.30831563 -0.06248354 -0.21912189 -0.30778423
000290 da fc 9d be 40 4d e8 bc 7f 65 b5 3d 0b 4f 30 3e
       -0.30856973 -0.028357148 0.088572495 0.17217652
0002a0 60 15 81 be 4c d0 80 3e 0c bb 10 be 12 fe 9d 3e
       -0.2521162 0.25158918 -0.14133853 0.30857903
0002b0 ff 85 62 be fd 1e 86 bd 81 90 57 bd 0f a4 3e 3e
       -0.22121428 -0.06548879 -0.052628044 0.18617271
0002c0 5f be 8d 3e 5c 65 91 bd bd e7 0a bd 1c fc 78 be
       0.27684304 -0.07099411 -0.03391241 -0.24314922
0002d0 a0 10 4d 3e 12 40 3b 3e 4a 86 83 be d3 80 7c be
       0.20025873 0.1828616 -0.25688392 -0.24658518
0002e0 df cd 10 3e 89 69 96 3e 9e d1 cb 3e 74 6e f6 bd
       0.14141034 0.29377392 0.39808363 -0.12032786
0002f0 6c 9f 65 3d e2 7f d6 3c 96 96 c0 3e f6 23 ba be
       0.05606024 0.026184026 0.37614888 -0.3635556
000300 4c f5 92 be 2c a4 a7 be e9 4f 2a 3e db ab e4 be
       -0.28702772 -0.3274244 0.16632046 -0.44662365
000310 2d fe 61 3c 3d c9 f3 3d 2b e3 3d 3e 19 f3 bf 3e
       0.01379351 0.119036175 0.18543689 0.37490156
000320 07 0f c3 3e 84 88 73 bd 53 af 6b be 65 c3 16 be
       0.38097402 -0.059456363 -0.230161 -0.14722975
000330 9f 27 48 3d bc 83 43 be 27 d8 0a 3e 12 ea c3 3e
       0.04886591 -0.19093221 0.13559018 0.3826452
000340 f7 05 78 be c6 f9 98 be ef 4e aa be 36 a6 9e 3e
       -0.24221025 -0.29878062 -0.33263347 0.30986184
000350 c1 49 8a be 54 d7 83 be 0d cf 9a be bb 4e e5 3d
       -0.27009395 -0.2575022 -0.30236092 0.11196657
000360 b8 06 ff be c8 dd 8f be 7b a6 a2 3d da 3a 37 bd
       -0.49809813 -0.28098893 0.0794191 -0.04473386
000370 50 83 51 bd 8a f1 4a 3e 2a f9 75 be a2 70 df bc
       -0.05115062 0.19818702 -0.2402083 -0.027275387
000380 78 65 1b be 9b a7 aa 3e 97 37 97 3e 17 19 cc bd
       -0.15175426 0.33330998 0.295346 -0.09965723
000390 1a 51 bb be d1 c1 ef 3d 75 00 2e 3d c8 7a eb 3e
       -0.36585313 0.117068894 0.042480905 0.45992112
0003a0 b8 7a d8 3b c2 48 b5 3e 6b f1 c2 3e 70 95 33 3e
       0.006606426 0.35407072 0.38074812 0.17537475
0003b0 24 e2 51 3e 32 a3 68 be 2c c1 1a be 27 a3 62 bd
       0.20496422 -0.22718504 -0.15112752 -0.055331375
0003c0 fe 4c ff 3c 39 41 08 be d4 38 ac 3e a0 45 36 be
       0.031164642 -0.1330613 0.33637106 -0.17799997
0003d0 b2 63 11 bd 48 bc 17 be aa de 78 3d d1 f4 93 be
       -0.035495467 -0.14817917 0.060759224 -0.28897718
0003e0 5a 20 39 3e 00 a8 8b 3e cf 22 e3 bd 15 42 2c 3e
       0.18078747 0.2727661 -0.110906236 0.16822083
0003f0 b8 f5 63 be 2b a7 e1 be a9 29 83 3e 0d 62 98 3e
       -0.22261703 -0.44072852 0.25617722 0.29762307

fc.2.weight f4 [256, 256]
000000 b1 29 0c bd 20 05 7d 3a 32 50 ce bd f5 f1 d4 bc
       -0.034219448 0.0009651948 -0.1007389 -0.02599428
000010 d9 41 47 3c ae ad 8e bd 40 af 22 3e a2 91 d6 3c
       0.012161695 -0.069667205 0.15887165 0.02619249
000020 dc ae 21 3b ec 14 90 bd 85 3a 31 3d 52 fc 49 be
       0.0024670875 -0.070352405 0.0432687 -0.19725159
000030 fb 9a 05 3e 55 37 0e be b2 5e f1 3d 86 a6 52 3d
       0.13047402 -0.13888295 0.1178564 0.05142834
000040 82 e6 ed bc 49 68 69 bc 61 b3 0a 3c 32 29 a0 3d
       -0.029040579 -0.014246055 0.008465619 0.078203574
000050 5f 06 7d 3d 11 3c 9a 3c 93 94 6f 3d a1 48 af bd
       0.061773654 0.01882747 0.0584913 -0.08558775
000060 6a 85 8e 3a b8 4d 51 3c b0 e3 be bd 90 ce 8d bd
       0.0010873501 0.012774877 -0.09320772 -0.06924164
000070 94 2d f0 bc 94 1e d6 bd 22 07 f1 3c 13 8d 3f bd
       -0.029318608 -0.10455051 0.029422347 -0.0467654
000080 6b fc 8d 3d 21 98 31 3d f8 ae 0b bd 90 8d 15 bd
       0.069329105 0.043357972 -0.03410241 -0.036511958
000090 70 85 9f 3d 96 74 f1 bb 03 7c cb bc 81 97 96 bc
       0.07789123 -0.0073686345 -0.024839407 -0.01838279
0000a0 5a 09 85 bd 2c a1 a0 3d bf 5f 94 bd 65 6a 7f bd
       -0.06495924 0.07843241 -0.072448246 -0.062357325
0000b0 3b 89 e6 bd 83 e8 a8 3c b8 0b 07 3e b0 b9 8d 3c
       -0.112566434 0.020618683 0.13188064 0.017300457
0000c0 5e 81 1e be ea 19 f3 bd bb 33 8e bd 73 3c 7a bd
       -0.15479037 -0.11870177 -0.069434606 -0.061092805
0000d0 81 70 49 bc 57 c8 f2 bb cf 28 33 3d 57 1f 78 3c
       -0.012294889 -0.0074091363 0.04374009 0.015144191
0000e0 99 0e b2 bc 0c 31 90 bc b1 bb 28 3e 50 c9 49 bd
       -0.021735476 -0.017601512 0.16477849 -0.049264252
0000f0 f3 dc c5 bd 34 1a c4 bd 4d 69 95 bc af 26 82 bd
       -0.09661283 -0.0957531 -0.018238688 -0.063550346
000100 01 a5 71 bd 60 d2 f4 3d 00 2e 37 bd 8e a6 54 bc
       -0.05899525 0.11954188 -0.044721603 -0.012979163
000110 f9 8f d1 3d f7 27 a7 3b b7 89 15 3d b9 83 a9 bd
       0.10232539 0.0051011997 0.03650829 -0.08277077
000120 4d a2 0d 3e 7d a1 17 3d 40 95 d2 ba 54 cf f7 3d
       0.13831444 0.03701924 -0.0016066208 0.121000916
000130 27 05 3b b9 e7 42 8a 3c ac 3a 94 bc 36 c1 10 3d
       -0.00017835629 0.016877605 -0.018094383 0.03534051
000140 ab 5d 0c bd 33 01 73 bd c1 c3 82 bc f7 45 b7 3c
       -0.034269016 -0.059327316 -0.015962483 0.022372229
000150 c7 6e be 3d c4 41 06 3e af e5 8d 3d ec 69 76 3d
       0.09298473 0.13111025 0.06928574 0.06015961
000160 7f f2 04 be a6 40 8c bc a1 28 f0 bb f4 e3 ec bb
       -0.1298313 -0.01712067 -0.007329062 -0.0072293226
000170 f2 29 02 3d 38 d6 c8 bd d6 63 dd bd 59 a3 b9 3c
       0.031778283 -0.09806484 -0.10810058 0.022660898
000180 a6 1c 10 3e 0d 05 a2 bb cc be 2b 3e 9b 1b 47 bd
       0.14073429 -0.0049444498 0.16772002 -0.04861031
000190 ed 93 87 bd 50 df f8 3c f0 6d cb 3c 06 40 f5 bc
       -0.066200115 0.030379921 0.024832696 -0.029937755
0001a0 18 74 f4 bc 62 fc 33 bd 9c 35 e4 bd 84 b3 8a 3c
       -0.029840514 -0.043941863 -0.11143038 0.016931303
0001b0 f8 ee 06 3e d2 49 7d bd e6 11 cd 3c 13 fa a9 bd
       0.13177097 -0.06183798 0.025032949 -0.08299651
0001c0 2e f6 8f 3c 16 21 d5 ba b3 f6 82 3b 8e 38 98 bb
       0.017573442 -0.0016260471 0.003996694 -0.0046454137
0001d0 31 57 e9 bc 10 b5 77 bd da af d6 3c cc 6d 16 3e
       -0.028483959 -0.06047541 0.0262069 0.14690322
0001e0 ac ac 80 bd da 62 93 3d 29 63 85 3d 8a 40 5b bc
       -0.062829345 0.07196589 0.06513054 -0.0133820865
0001f0 d7 28 83 3d c9 a4 da bb 08 e6 61 3c d0 48 d5 3d
       0.06404274 -0.006672476 0.013787754 0.104142785
000200 ca 8f 36 bd 54 7f a3 bd 05 2a 32 3e ad 9a d2 3d
       -0.04457072 -0.0798327 0.17398842 0.10283408
000210 61 e9 9f bd 2d 51 80 bd fe 6f 1b bd be 20 f6 3c
       -0.07808185 -0.06265483 -0.0379486 0.03004491
000220 07 96 67 3d 6c 18 38 bd 41 79 29 3c f2 94 63 bc
       0.05653956 -0.044945166 0.010343851 -0.013890492
000230 43 43 b2 3d 51 25 c8 bc ee 7c 1a be e7 d0 bc bd
       0.087042354 -0.024431856 -0.1508672 -0.092195325
000240 e8 55 0f 3d 1a f6 be b9 be 85 25 3c 32 c2 05 3d
       0.034994036 -0.00036422984 0.010102687 0.032655902
000250 25 ad a1 bd a2 2a b0 bc a7 fa 55 bd 81 11 26 bd
       -0.07894353 -0.021504704 -0.052240994 -0.040544037
000260 11 08 77 bd db 49 f8 ba 8d 17 0c 3e 27 36 2d bd
       -0.060310427 -0.0018942909 0.13680859 -0.04228797
000270 ef 03 43 bd 75 e9 86 3d 78 2c a7 38 8c d7 f1 3c
       -0.047611173 0.06587497 7.9714635e-05 0.029521726
000280 68 4f 5d 3d fe 61 c5 bd c6 51 d3 3d 8b d3 e7 ba
       0.054030806 -0.09637831 0.103183314 -0.0017686946
000290 9f 47 63 3e e9 d9 ae bd 4b d4 9d 3d ee 43 a5 3d
       0.2219529 -0.08537657 0.07706507 0.08069597
0002a0 ef c1 79 bd 07 be db bc ab 40 81 3d 95 02 9e 3d
       -0.060975965 -0.02682401 0.063111626 0.07715336
0002b0 58 04 4c 3e 51 54 b7 3c 2c 46 49 3d 35 1d 1c 3d
       0.19923532 0.022379072 0.049139187 0.03811379
0002c0 42 6c a0 3d 73 d2 c6 3d b9 39 4f bd 5c e7 a3 bd
       0.078331485 0.09708109 -0.050592158 -0.08003113
0002d0 be 45 54 3b 92 c9 a0 bd 95 23 5f 3c 3b d1 9c bc
       0.0032390202 -0.078509465 0.013619323 -0.019142738
0002e0 f8 fd b4 3d 8f 57 92 bd 19 f2 0b 3e 52 7c 5a 3d
       0.08837503 -0.07145607 0.13666572 0.053341217
0002f0 e4 c7 8b 3d 79 f8 d2 bd 7e a0 80 bd fe e4 87 3d
       0.068252355 -0.10301299 -0.062806115 0.06635474
000300 ea bd 9c bd dc c8 44 3d aa c1 46 bb 80 f5 19 3b
       -0.07653411 0.048043117 -0.0030327835 0.0023492277
000310 51 be 25 bd 1d 80 8a bd 3d c7 40 3d 30 03 b4 bb
       -0.040464703 -0.06762717 0.04706501 -0.005493544
000320 93 fb 15 3d 9c b4 0b be 52 61 38 3d c8 d5 f1 bb
       0.036616873 -0.13643116 0.045014687 -0.007380221
000330 72 8a 99 bb fc 5e 7f bd 7a c4 d4 3d b3 4b cd 3d
       -0.0046856934 -0.062346444 0.103890374 0.10024204
000340 61 35 55 3d b0 93 c6 bd f9 e0 c6 bc 3f b6 fc 3b
       0.05205286 -0.09696138 -0.024277197 0.007712155
000350 71 b4 a0 3d fa ee f2 bb 2d b9 97 3c 93 ca 7f 3d
       0.078469165 -0.007413742 0.018520916 0.06244905
000360 2e 08 6f 3d 5b 19 6f 3d 8a d6 17 bd 58 07 24 3c
       0.05835741 0.05837379 -0.037069835 0.0100115165
000370 4a e4 92 bd 0f ea b3 3d 2a 6b aa 3d bf 77 87 bd
       -0.07172449 0.087848775 0.08321221 -0.06614637
000380 bc 67 6c bc 52 85 0b be f9 e3 73 bd 68 08 01 3e
       -0.014429029 -0.13625076 -0.059543584 0.12600863
000390 10 7c 03 bd f5 16 dc 3c 06 50 60 bd e8 06 56 3c
       -0.032100737 0.026866416 -0.054763816 0.01306317
0003a0 6e 97 69 bd f1 97 67 bc 52 dd f1 3d 38 a3 a0 bd
       -0.05702918 -0.014135347 0.118097916 -0.078436315
0003b0 ee 59 a0 3d a9 20 09 bd 31 7b 18 3d d5 55 31 3e
       0.07829653 -0.033478413 0.03722686 0.17317899
0003c0 d5 1d b0 bd 20 3d 3b bd 3c f6 88 bd 9f 1f da bd
       -0.0859944 -0.04571259 -0.066875905 -0.106505625
0003d0 a3 b7 20 3e f8 09 89 bc ba 39 13 bd fa 32 16 3d
       0.15695052 -0.016728386 -0.035943724 0.03666971
0003e0 25 b5 c6 bc 1f 99 0c 3d 2d 31 33 bd a6 6a 8e bd
       -0.024256298 0.034325715 -0.04374807 -0.06953935
0003f0 6c 6d a0 3d 2f 5a ac bd 2f 17 c6 3c 5b 96 74 bd
       0.078333706 -0.08415639 0.024180977 -0.059713703

fc.2.bias f4 [256]
000000 30 8e 02 3d c2 f3 c2 bc c9 eb 96 bd 17 93 92 3d
       0.03187388 -0.023797873 -0.07369191 0.071569614
000010 05 ba 84 bd 20 47 e4 3c e7 95 62 3d 44 3b a8 bb
       -0.06480793 0.027865946 0.05531874 -0.005134018
000020 d4 18 aa bd 3b d9 21 bd ca 2e 56 bd 0c 81 54 bd
       -0.08305517 -0.039513808 -0.052290715 -0.05188088
000030 aa 64 ba 3b 7f 39 80 bb 10 fb f3 bc d4 66 16 bd
       0.0056882696 -0.003913104 -0.029782802 -0.03671916
000040 60 d5 c9 3c 5b f4 ec 3b e4 41 6e 3b 6b 5a 1e bc
       0.024637878 0.007231278 0.0036355192 -0.009665112
000050 6a 82 99 bd 65 bc 31 3d a2 d1 36 bc 5d 5c 5f bd
       -0.07495578 0.043392558 -0.011158379 -0.054531444
000060 c7 81 58 3d 2a c0 bb 3c e4 93 67 bd b0 00 af bc
       0.05285814 0.02291878 -0.056537524 -0.021362633
000070 10 f5 99 bc 67 a5 15 3d d7 01 dc bd 81 47 7f bd
       -0.018793613 0.036534693 -0.107425384 -0.06232405
000080 d2 d2 70 bd fc b9 82 3c 3c a4 80 3c d6 42 8d bd
       -0.058794804 0.015957825 0.015703313 -0.068975136
000090 5f aa 01 3c cd 3a bf bd b0 0a 36 3d 26 6b b6 bd
       0.007914155 -0.09337387 0.044443786 -0.08907156
0000a0 07 b7 bc 3c 2b 84 95 bd 22 36 8e bd 6d 41 f1 3b
       0.023036493 -0.073006 -0.06943919 0.0073625357
0000b0 b4 c4 90 bd b3 81 68 3d 5f 5e 3a 3d 54 34 34 bc
       -0.07068768 0.056764316 0.045500156 -0.010998804
0000c0 90 23 db 36 2a ca 99 3d 5f c2 51 3c 49 80 03 3d
       6.5308486e-06 0.07509263 0.012802689 0.032104764
0000d0 c9 b1 3c 3d 6c da 02 3d dc 66 a4 3d 28 57 41 bc
       0.046067987 0.031946585 0.08027431 -0.011800565
0000e0 e9 c1 59 3c bc 6f 1c bc 58 d9 0a 3d eb e3 b1 bd
       0.013290861 -0.009548124 0.03389868 -0.0868605
0000f0 92 6e 63 bc 08 86 83 3b 40 c4 fa bc 44 94 70 bd
       -0.0138813425 0.0040137805 -0.030611157 -0.058735147
000100 28 6f 53 bc ae 57 24 bd 89 47 de 3c de ff 2f bb
       -0.01290492 -0.04012268 0.02713372 -0.002685539
000110 e8 99 b1 bd ed d6 cc bc 98 ba 85 bd a4 ac dd bd
       -0.086719334 -0.025004828 -0.065297306 -0.10823944
000120 16 c3 8f 3c 90 71 7a 3d 48 2d b6 bc e1 86 4c bc
       0.017549079 0.061143458 -0.022238389 -0.0124833295
000130 bc e8 1e bd a4 7e 7c bb c3 e3 37 bc ac 88 be bd
       -0.03879617 -0.0038527632 -0.011223736 -0.09303412
000140 a5 28 cc 3a 58 5a 01 3d 00 be bf bc 4b 3d 7f 3d
       0.0015576078 0.0315803 -0.023406029 0.062314313
000150 14 17 0b 3d 36 19 44 bd b1 07 40 3d bd fb 95 bd
       0.033957556 -0.047875606 0.046882335 -0.07323406
000160 56 5b 14 bd 7b c6 78 bd 90 56 20 bd 86 cc b7 3c
       -0.036219917 -0.06073616 -0.039145052 0.022436392
000170 5e 1a c4 3b b3 ee 4a 3d 93 0d ca bd 8f 2c 96 bc
       0.0059845885 0.049544048 -0.0986587 -0.018331794
000180 f2 f1 ed 3c 39 34 85 3d 1b 99 d7 bc c6 79 59 bd
       0.029046033 0.06504101 -0.026318124 -0.053094648
000190 72 8d b3 3c 5e ad 8d bd 55 cf 1c 3d 16 c7 56 3c
       0.021918032 -0.06917833 0.038283665 0.013108989
0001a0 f2 09 d8 bd f6 5a 81 bd b4 3c 3b bd ec 10 75 3d
       -0.10548772 -0.063161775 -0.045712188 0.05983059
0001b0 73 18 94 bc f0 31 a7 3c 81 0c 80 ba 18 88 9f ba
       -0.018078065 0.020409554 -0.0009769351 -0.0012171296
0001c0 06 cf ec bc a0 b6 83 3d ff fe 16 3c 6d f0 1b bd
       -0.02890731 0.06431317 0.009216069 -0.038071085
0001d0 60 e5 e5 3c 3b b7 61 3d 15 03 f0 3d 88 b8 b7 bc
       0.028063476 0.055106383 0.11719338 -0.022426859
0001e0 5c 18 3c bd 86 12 e3 bd 5a 24 24 bd 01 bc 37 bd
       -0.04592167 -0.110875174 -0.04007373 -0.04485703
0001f0 8d 8c 2a 3d 4f 58 e7 3b 9d 5c bc 3d a1 e9 a3 bc
       0.041637946 0.0070600878 0.09197352 -0.020008864
000200 f9 f0 3e bc 4d 56 00 bd 0e c8 3f 3d 5c a6 68 3d
       -0.011654132 -0.031332303 0.046821646 0.056799278
000210 a8 b8 65 bb 05 8a 17 bd 56 35 ac 3b 30 79 fc 3c
       -0.003505269 -0.03699686 0.0052553816 0.030819505
000220 1f 06 18 3d a7 1b 3b 3d 1a 80 2c 3c 24 a0 b9 bc
       0.037115213 0.04568067 0.010528589 -0.022659369
000230 a1 ee b2 bc 91 0f e4 bd 87 1c 8c 3d 3e 76 ff 3c
       -0.021842303 -0.111357816 0.06841379 0.031184312
000240 c5 19 5d bd 12 ea 14 3c 7d 90 07 bb 95 45 1f bb
       -0.053979654 0.00908901 -0.0020685487 -0.0024302949
000250 68 4f d8 3c 9f fa 74 bd 90 62 8b bd 66 01 58 3d
       0.026405051 -0.059809323 -0.06805909 0.05273571
000260 b3 48 37 3b 7f 4b 47 3d d1 f0 03 bd ea e0 c8 bc
       0.0027966916 0.048655983 -0.032212082 -0.02452131
000270 fd 1f b0 bd ab 20 17 bd 8d f2 48 bc 0a dd c4 3c
       -0.08599851 -0.03689639 -0.01226486 0.02403118
000280 bb 8e 08 be be 49 7e bc dd ac 7d bc 54 0b 00 bd
       -0.13335697 -0.015520511 -0.015483108 -0.031260803
000290 60 fe 51 3d c9 75 6f bd e8 24 04 bd 71 a6 87 bc
       0.05126798 -0.058461938 -0.03226176 -0.016558858
0002a0 3e d9 24 bd 19 e2 80 bd 63 f8 4a 3d 69 44 21 3e
       -0.04024624 -0.06293125 0.049553286 0.15748753
0002b0 a0 bf 41 39 5b 58 55 3d 9b 04 87 bb 3a 92 24 bd
       0.000184773 0.052086215 -0.004120422 -0.040178515
0002c0 5e 20 a1 bd fd 66 c9 bd 92 9c 5b bd bd 5c 70 3d
       -0.07867502 -0.098340966 -0.053616114 0.058682192
0002d0 1b 71 40 3c 49 40 c1 bc ff 4c b6 3c 71 63 c1 bc
       0.011745716 -0.023590224 0.022253511 -0.023606988
0002e0 45 10 b3 3c 43 10 02 bc 70 b7 9e bd 21 ce 8a 3d
       0.021858344 -0.007938447 -0.07749832 0.06777597
0002f0 95 d0 8a bd 90 2c 80 bd f9 54 ec 3b 61 09 93 bd
       -0.06778065 -0.062584996 0.007212278 -0.07179523
000300 80 e9 a5 bc fa 5e aa 3d 54 eb bd bd c1 42 8f bd
       -0.020252943 0.083188966 -0.09273401 -0.06995154
000310 a0 ee 59 bb c8 95 95 3d f5 1a 16 3d 6e 43 8f bd
       -0.0033253804 0.07303959 0.036646802 -0.06995283
000320 a1 5d b1 bd 42 91 e9 bc a5 4c e2 3c 5c 3c 93 bd
       -0.086604364 -0.028511647 0.027624438 -0.07189247
000330 bf cf 96 bc 59 fa 67 3d 41 81 7e bc 61 17 58 bd
       -0.018409608 0.056635235 -0.015533746 -0.05275667
000340 73 e4 14 bd e3 ca c9 3d 4c 2a 0d bc f0 f6 99 bd
       -0.03635068 0.09853151 -0.008616041 -0.07517803
000350 62 f3 4d 3d 32 ae d7 bd 44 4e c8 3c 90 0f 81 ba
       0.050280936 -0.10531272 0.024451382 -0.0009846557
000360 4c 94 25 3d 28 57 65 bd e1 5b a9 bd 70 54 5d 3d
       0.04042463 -0.05599132 -0.08269478 0.054035604
000370 58 e2 96 bb 11 ae 95 bd 2c 5e fb b9 ab b4 3b bd
       -0.004604619 -0.07308591 -0.00047944614 -0.045826595
000380 30 d9 44 bb a9 8a 99 bd ea 07 56 3d 32 d3 c4 bc
       -0.003003668 -0.074971505 0.05225364 -0.024026487
000390 6a 3f 7f bd 16 74 e0 bc 49 51 a8 bd bd cc 49 bd
       -0.062316336 -0.027399104 -0.08218629 -0.04926752
0003a0 66 08 23 bd 35 56 20 3d 05 ab 97 bc 76 96 6d bd
       -0.03980293 0.039144713 -0.018514166 -0.05800482
0003b0 96 5d b4 bd f5 66 9c bd 06 db bc 3c 0a d0 f7 3b
       -0.088069126 -0.07636825 0.023053657 0.007562642
0003c0 68 bb ca 3c be 75 a6 3d 56 c3 29 bc ea ee 99 3d
       0.024747565 0.08127926 -0.010361513 0.07516272
0003d0 77 ba 3b 3d 54 4c d3 bd e0 1b 8b 3c 28 4d d6 bc
       0.045832124 -0.10317293 0.016981065 -0.026159838
0003e0 bc a1 01 bd 39 f4 cf bd d4 98 d5 bd 07 10 c4 3b
       -0.031648383 -0.10154004 -0.1042954 0.005983356
0003f0 e1 9d 00 3d 05 d5 ce bd b8 83 62 bd b4 d6 67 bd
       0.031400565 -0.10099224 -0.055301398 -0.05660124

fc.4.weight f4 [4, 256]
000000 4a 6c b3 bc 47 96 57 bd 0f dd 07 bc 60 60 a3 bd
       -0.021902222 -0.05263355 -0.008292451 -0.079773664
000010 7c 2d ed bc 16 37 1b 3d 3e 62 06 bd 2d ff b1 bc
       -0.028952353 0.03789433 -0.032808535 -0.021728123
000020 d4 73 36 3d da 5b 62 3d 18 f4 ca bd ab 6b 9c bc
       0.044544056 0.055263378 -0.099098384 -0.019094309
000030 86 b6 9e bd cf 06 b9 bd b7 a8 b5 bb 1c da 0f bd
       -0.07749657 -0.09034502 -0.005543794 -0.035120115
000040 e1 41 ee bb 32 4d c3 3c f6 e0 ea 3a c2 48 27 bd
       -0.007271037 0.02384052 0.0017919827 -0.04084087
000050 a7 22 f5 bc 0c 19 15 3d de 57 23 bd 99 2f d4 bb
       -0.02992375 0.03640084 -0.03987872 -0.0064754006
000060 c7 05 df 3c 50 cf e3 3c 23 41 17 be f9 10 be 3b
       0.027224435 0.027808815 -0.14770941 0.005800363
000070 0b 1f 95 bd 4e ef c4 bd b5 07 88 bd 6d a2 3c 3b
       -0.072813116 -0.09615956 -0.06642095 0.0028783337
000080 52 98 b3 bc 90 9e 23 3d 7a 1d 30 3d 2a 1c 46 3d
       -0.021923218 0.03994614 0.04299686 0.048366703
000090 23 b1 51 bd 26 be 19 bc 86 13 94 bc 9a d7 59 bc
       -0.05119432 -0.009383714 -0.018075716 -0.013296032
0000a0 97 3e 48 bd 56 fd 1d 3d ad d5 16 bc a0 04 19 bd
       -0.048887815 0.038571678 -0.009206218 -0.037357926
0000b0 42 9f 08 3d bd 1d 6b 3b b2 3e f9 bc 6c d9 c6 bd
       0.033355005 0.003587588 -0.030425403 -0.09709439
0000c0 97 f5 83 bd c8 f6 ea bd 18 64 bf 3c 2b ea 1a be
       -0.06443327 -0.11472851 0.023363158 -0.1512839
0000d0 2e cf 8f 3c 92 e1 2f bd b5 aa 37 bd d0 fe 91 3c
       0.017554846 -0.04293973 -0.044840533 0.0178217
0000e0 d5 37 cd bc 92 92 53 bc 24 a4 89 bd dc dd 05 bd
       -0.025051037 -0.012913363 -0.067207605 -0.032682285
0000f0 1b 16 e6 bb 39 6c 8f bd 3b ec 86 bd 5b d3 2d bb
       -0.007021678 -0.07003064 -0.06588026 -0.0026523683
000100 c8 a6 9d bc bd 21 70 bd a1 97 e6 ba a7 cc 81 bd
       -0.019244567 -0.058625925 -0.0017592796 -0.063378625
000110 27 b1 96 bd be 1d b2 ba 23 4c aa bd 8a dd b6 bd
       -0.07358008 -0.0013589186 -0.08315303 -0.08928974
000120 e8 75 e2 bd e9 a6 81 bd 25 d9 91 bc 36 45 2d bd
       -0.11057645 -0.06330664 -0.017803738 -0.042302333
000130 cc b9 64 bd 0b 32 af bb 59 e9 fa bc 86 46 a5 bd
       -0.055841252 -0.0053465418 -0.030628847 -0.08070092
000140 97 11 83 bc 0f 2a 55 bc 3c a6 7c bd 21 50 7c bd
       -0.015999598 -0.013010516 -0.06168197 -0.061599854
000150 cb 3f a0 3c 4f 6a e7 3a d6 7c a7 bd 78 be 7e 3d
       0.019561669 0.0017655584 -0.081781074 0.062193364
000160 6c a6 38 bd 74 16 26 bc 0c ae 73 bd c4 5a 29 3d
       -0.045080587 -0.010137189 -0.059492156 0.041346326
000170 a6 a7 f5 bc bd 0a 57 bd 6b 71 f1 bb f1 66 21 bb
       -0.029987168 -0.052500475 -0.007368257 -0.0024628008
000180 0a c5 a7 bd db 28 a4 bd 18 23 39 bd 27 17 eb bd
       -0.08191879 -0.08015605 -0.045199484 -0.11479025
000190 5d fe 3b 3d da 12 26 bd 7e f4 85 bd 66 63 bf bc
       0.045896877 -0.040545322 -0.06540774 -0.023362827
0001a0 bb 04 8b bc 63 14 1c 3c 6c d5 83 3c b5 87 9e 3d
       -0.01697003 0.009526345 0.016092978 0.07740728
0001b0 13 fc 86 3c fa ce 72 3d a0 a3 2c 3c 57 54 da bc
       0.01647762 0.05927942 0.010537058 -0.026651544
0001c0 c8 2a 85 bd e1 f5 2e 3d 10 4b 6b bd 0a 50 69 bd
       -0.065023005 0.042714957 -0.057444632 -0.056961097
0001d0 cc 4b 5d bd 95 05 88 bd 6e 45 d8 3d c2 a4 65 3d
       -0.054027364 -0.0664169 0.10560118 0.05606533
0001e0 c4 4d 97 bd fa 8a dc bd 0b 9f a2 3d 97 4e 5b bd
       -0.073878795 -0.10768695 0.07940491 -0.053541746
0001f0 4c d9 cd bc b9 bd 50 3d 7d 3e f5 bd 6a b0 25 3d
       -0.02512803 0.050962184 -0.11974809 0.040451445
000200 d1 58 8f bd 61 eb 3a be 7b aa f2 bc fb 4d b7 bd
       -0.06999362 -0.18253852 -0.029622307 -0.089504205
000210 48 63 1d bd df 85 9c bc c4 32 74 bd f4 f0 63 bd
       -0.03842476 -0.019106803 -0.059618726 -0.055649713
000220 a3 f8 1a be 17 39 a9 bd 20 3c 09 be a3 41 11 be
       -0.1513391 -0.08262842 -0.13401842 -0.14185195
000230 74 9c 00 bd da f8 24 3d b5 7d 63 bd 9c 88 4a bd
       -0.031399205 0.040276386 -0.055539805 -0.049446687
000240 f8 ca 15 bb 4a 61 60 bd 26 7b 96 bd 7d 45 19 3c
       -0.0022856575 -0.054780282 -0.073477075 0.009354946
000250 f1 19 47 bd 05 d3 f3 3a 8c fe 4b 3b e8 7e a5 bd
       -0.048608724 0.0018602317 0.0031127064 -0.08080846
000260 c5 0c 2d 3c 6b 39 bf bd c6 a7 1f bd 02 ad 1b 3d
       0.0105621265 -0.093371235 -0.03897836 0.03800679
000270 9e 99 1b 3d ef 0f 74 bd d8 8f a3 bc 42 3e 5d 3c
       0.037988298 -0.059585508 -0.019966051 0.013503613
000280 18 1e 00 bb 7d 7b c4 bc 41 d4 28 bd 1e 0d 4d bd
       -0.0019549187 -0.023984665 -0.041218046 -0.050061338
000290 7e a1 16 bd f2 06 c0 bc 54 08 51 bd 5d 01 ac bd
       -0.036775105 -0.023440812 -0.051033333 -0.083986975
0002a0 50 51 fa 3c 8d 8c fc bc e7 03 c9 bd e5 da bf 3d
       0.030556351 -0.030828739 -0.098151974 0.09367923
0002b0 34 e8 6d 3d dc ea 1f bd 8a 94 ac bd 00 6b ec 3a
       0.058082774 -0.03904234 -0.08426769 0.001803726
0002c0 44 e4 9a bc ad fc cb 3c 70 c9 d2 bb 6f de 76 bd
       -0.018907674 0.024900759 -0.0064327046 -0.060270723
0002d0 4f fb b5 bd 40 73 13 3d 5b aa bc bd 6c ab 97 bc
       -0.08885824 0.035998583 -0.0921218 -0.018514358
0002e0 f6 58 08 be ac 83 56 bd cd 51 9c 3c 46 6d 36 bd
       -0.13315186 -0.052371666 0.019081974 -0.044537805
0002f0 cb 45 f1 3c ae 0e 65 bd c0 34 1f bc 8b 79 f5 bb
       0.029452225 -0.055922203 -0.009717166 -0.0074912957
000300 ab d7 2c bd 12 b9 54 bd c6 94 03 bb 7d 7e 19 bd
       -0.042197865 -0.05193431 -0.002007769 -0.037474144
000310 90 19 f0 bd 37 32 f8 bb 67 83 2c bb 41 94 31 3d
       -0.11723626 -0.0075743455 -0.002632344 0.043354277
000320 e9 28 4b 3b f6 81 71 3d d6 3b bf bd ac 1d d9 bc
       0.0030999726 0.05896183 -0.09337585 -0.026503406
000330 17 ee 82 3c 4e 33 c8 bb 8b a9 8f bd 9e bd 33 bc
       0.01598267 -0.0061096316 -0.0701476 -0.010970501
000340 b4 55 06 bd f2 00 a3 3d 72 3e 53 bd 78 59 5d bd
       -0.032796577 0.07959165 -0.051573224 -0.054040402
000350 3c f1 30 ba 54 8c a1 3c 28 79 c3 bc 9d 10 2b 3c
       -0.0006749814 0.019720234 -0.023861483 0.010440973
000360 3a 86 23 3d ad a8 79 bc d4 2f 21 3d 8f 97 57 3c
       0.03992293 -0.015237969 0.039352253 0.013158693
000370 9a 77 9f bd d9 a5 73 bd 33 59 74 3b 56 ca 4a bd
       -0.07786484 -0.059484337 0.0037284612 -0.04950937
000380 e7 0e c8 bc 7e ff 88 bc f5 e6 2c bd 4a 08 18 3d
       -0.024421168 -0.01672339 -0.042212445 0.03711728
000390 a4 73 c4 bd 3f 3b 99 bd 75 b8 4c 3c 9c 16 e5 bc
       -0.09592369 -0.074820034 0.01249515 -0.027964883
0003a0 b0 ef c9 bc eb db 72 bd 1f 3f b3 bd c4 4a 36 bd
       -0.024650425 -0.05929176 -0.08752274 -0.044504896
0003b0 a2 91 d8 bc a5 4d 0e bd ea 4e b9 bc 91 63 72 bd
       -0.02643663 -0.034742016 -0.022620637 -0.059176985
0003c0 92 aa e0 3b b3 de 77 bc 50 00 d3 bd 3a a0 43 bd
       0.006856271 -0.015128779 -0.10302794 -0.047760226
0003d0 75 d3 56 bd ea e1 2d 3d c2 a6 97 bc 06 0e 42 bd
       -0.052447755 0.042451777 -0.018512134 -0.047376655
0003e0 e1 c8 fa bd 31 b1 2e 3c 9b 5d 5f bb 76 f0 b8 bc
       -0.12245346 0.010662363 -0.0034082893 -0.022575598
0003f0 9c 00 fd bd 2b 3f a6 bb 8d 88 58 bd ef 94 1e 3d
       -0.12353632 -0.005073448 -0.0528646 0.038716253

fc.4.bias f4 [4]
000000 1f 5d 13 bd a0 d8 f5 3c 4d 0e c4 bc a2 78 cd 3c
       -0.03597748 0.030010521 -0.0239326 0.025081936
