QNet_model.pth (torch, 276311 bytes, 6 tensors)

fc.0.weight f4 [256, 6]
0	0x3e321724	0.1739164
1	0x3e97aed0	0.2962556
2	0xbecf7850	-0.4052148
3	0xbe90177e	-0.28142923
4	0x3e9d2c34	0.30697787
5	0xbd01f720	-0.031729817
6	0x3e79c278	0.2439059
7	0x3e7aedb2	0.24504736
8	0x3e460e3a	0.19341365
9	0xbe9a6011	-0.30151418
10	0x3e78eb0c	0.24308413
11	0x3e474b7b	0.19462387
12	0x3e6c7ec4	0.23095232
13	0x3d16555c	0.0367025
14	0xbe814b87	-0.25252935
15	0xbc3b7cf6	-0.011443367
16	0x3c06d86a	0.008230308
17	0x3dfb22ce	0.12262498
18	0x3dd0c9a0	0.10194707
19	0xbc749896	-0.014928957
20	0xbda7751b	-0.08176633
21	0x3e005701	0.1253319
22	0x3e3da7c5	0.1852103
23	0xbe1d58e2	-0.15365937
24	0x3dbf1cb7	0.09331649
25	0xbe340b4e	-0.17582437
26	0x3eadda87	0.33955786
27	0x3e97aa4f	0.29622123
28	0x3e659c07	0.22422801
29	0xbc9e750a	-0.019342918
30	0xbde6f2d0	-0.112767816
31	0x3edbea10	0.42952013
32	0x3e8d9a8b	0.2765697
33	0xbe8a8045	-0.27050987
34	0x3e9c5d48	0.30539918
35	0x3ec4b0cb	0.38416132
36	0xbebf7299	-0.3739212
37	0x3e7bafca	0.24578777
38	0xbedfc18d	-0.43702355
39	0x3dde9e4a	0.10870035
40	0xbed1cd27	-0.4097683
41	0x3df79dc8	0.12090641
42	0x3eb33be1	0.3500662
43	0xbdbfb289	-0.09360225
44	0xbea6c885	-0.3257486
45	0x3dccc00e	0.09997569
46	0x3e19de83	0.15026288
47	0xbd79764c	-0.060903832
48	0x3c0f2600	0.008737087
49	0x3e028675	0.12746604
50	0x3e86fc24	0.26364243
51	0xbe1cb8a9	-0.15304817
52	0xbe2e1a9b	-0.17002337
53	0xbe8abbbe	-0.2709636
54	0xbe7be66a	-0.24599615
55	0x3e2bb44d	0.16767998
56	0xbe567b7b	-0.20945542
57	0x3e70c833	0.2351387
58	0xbeadb4d0	-0.3392701
59	0xbdbf0905	-0.09327892
60	0xbebccd1b	-0.36875233
61	0x3e08de47	0.13366042
62	0xbe2a3149	-0.16620363
63	0xbd832674	-0.06403819
64	0xbeb3ecfa	-0.35141736
65	0x3e8eaa1b	0.27864155
66	0x3d59bfcc	0.053161427
67	0x3e0cd57b	0.13753311
68	0xba09cb72	-0.0005256451
69	0x3d76ef77	0.060286965
70	0xbd93de68	-0.07220155
71	0x3e5338c8	0.20627129
72	0xbe98614b	-0.2976173
73	0xbe7d636e	-0.2474496
74	0xbe9d3141	-0.3070164
75	0xbdf11291	-0.117711194
76	0xbe9c13f8	-0.30483985
77	0xbe61e5de	-0.22060344
78	0x3dee049c	0.11621973
79	0xbc218822	-0.009859117
80	0x3ea8a503	0.32938394
81	0xbcf79d8a	-0.030226488
82	0xbea18626	-0.3154766
83	0xbebf428b	-0.37355456
84	0xbe35fbd7	-0.1777185
85	0xbdaf484c	-0.085587114
86	0xbe77aa31	-0.24186017
87	0x3d924358	0.07141751
88	0xbe87ae59	-0.26500204
89	0xbebc84b3	-0.3681999
90	0xbea79bb2	-0.32735974
91	0xbe1669d8	-0.14688814
92	0x3e5f102c	0.21783513
93	0xbe084e96	-0.13311228
94	0xbeb58125	-0.35450092
95	0xbe3ca387	-0.18421756
96	0x3d874733	0.06605377
97	0xbd631d59	-0.05544791
98	0x3dcfff06	0.10156064
99	0x3e90e65d	0.28300753
100	0x3df3d7a9	0.11906368
101	0xbebc8f9b	-0.36828312
102	0xb980ff7a	-0.00024604407
103	0xbe5f6c2a	-0.21818605
104	0xbe333926	-0.17502269
105	0xbe644152	-0.22290543
106	0x3e7e4287	0.24830066
107	0x3deb9807	0.11503606
108	0x3ca28e14	0.019843139
109	0xbea13040	-0.31482124
110	0x3e60f353	0.21967821
111	0x3d10aef9	0.035323117
112	0xbe209466	-0.1568161
113	0x3ec71103	0.38880166
114	0x3d885cff	0.066583626
115	0x3e05c226	0.13062343
116	0xbdcbcf7c	-0.09951684
117	0x3ceed575	0.029154519
118	0xbe416973	-0.18887882
119	0x3de3abe1	0.11116768
120	0x3ab4139b	0.0013738753
121	0xbdeddfe1	-0.11614967
122	0xbce4bea8	-0.027922943
123	0x3e9e8b15	0.30965486
124	0xbe4113e9	-0.18855251
125	0x3cc93c38	0.024564847
126	0xbd97cd02	-0.07412149
127	0x3e80db35	0.25167242
128	0xbdad4852	-0.0846106
129	0xbdafddde	-0.0858724
130	0xbe0d70a5	-0.13812502
131	0xbe825284	-0.2545358
132	0xbe9bcdbd	-0.30430403
133	0xbe97cb88	-0.2964747
134	0x3e888f68	0.2667191
135	0x3d7d1ead	0.061796833
136	0xbe9a2295	-0.3010451
137	0x3d27768e	0.040884547
138	0xbed15a49	-0.40889195
139	0x3da812ae	0.08206688
140	0x3d8a3a59	0.0674941
141	0xbe813445	-0.2523519
142	0x3db9692a	0.090532616
143	0x3b0c9a1e	0.0021454166
144	0x3dddd177	0.10830968
145	0x3e7b29cd	0.24527664
146	0x3eae0f0c	0.33995855
147	0xbdba4352	-0.090948716
148	0x3d75cbb4	0.06000872
149	0x3e664ab1	0.2248943
150	0xbe162792	-0.14663532
151	0xbe83161b	-0.25602803
152	0xbea55832	-0.3229385
153	0x3e8918d0	0.26776743
154	0x3e9ed551	0.31022123
155	0xbbc6eaa7	-0.006070453
156	0xbe01f712	-0.12691906
157	0x3edd6c0e	0.43246502
158	0x3d7662ec	0.060152933
159	0x3d8d70bf	0.0690627
160	0xbd8c0742	-0.06837322
161	0x3c3a9127	0.011387146
162	0xbed12d9c	-0.4085511
163	0xbeaa7170	-0.3328967
164	0xbe6a9ce3	-0.2291141
165	0xbe60932f	-0.21931146
166	0xbc7b8cc8	-0.015353389
167	0x3ebb11b3	0.3653694
168	0xbe993236	-0.2992112
169	0xbe0ca95a	-0.13736477
170	0xbd727d4f	-0.059201535
171	0x3dde8b14	0.10866371
172	0xbe6dbd6f	-0.23216794
173	0x3d381454	0.04494126
174	0xbdff6352	-0.12470116
175	0x3e3ddf5c	0.18542236
176	0x3e930a53	0.28718814
177	0x3d61885c	0.055061683
178	0x3e87087a	0.26373655
179	0xbe048c0c	-0.12944049
180	0x3c2841c9	0.010269591
181	0x3ad1f79b	0.0016019227
182	0xbe7dab83	-0.24772458
183	0x3e6165f7	0.22011553
184	0xbdf209f0	-0.11818302
185	0xbdb492ba	-0.08817048
186	0x3ea5df21	0.32396796
187	0xbeb01376	-0.34389848
188	0x3e577daa	0.21044031
189	0x3ed5aad8	0.41731906
190	0xbd0f6f92	-0.03501851
191	0x3e666e8a	0.22503105
192	0xbe801bce	-0.25021213
193	0xbe896ea9	-0.2684224
194	0x3eb971fc	0.36219776
195	0x3c8419e6	0.01612563
196	0xbe7df815	-0.24801667
197	0xbdf61daf	-0.120173804
198	0xbe8e1c89	-0.27756146
199	0x3eba4068	0.36377263
200	0x3ea9df66	0.33178252
201	0x3e87de89	0.26536968
202	0xbd67329a	-0.05644474
203	0x3e41bcfe	0.18919751
204	0xbe929553	-0.2862955
205	0x3eac5f3f	0.33666417
206	0x3e9a230e	0.3010487
207	0xbe9dd344	-0.30825245
208	0xbe5bd7f0	-0.21469092
209	0x3e0f742a	0.14009157
210	0xbd838367	-0.064215474
211	0xbcb71715	-0.022349874
212	0x3c3c3660	0.011487573
213	0xbed7baea	-0.42134792
214	0x3e97d400	0.2965393
215	0xbedb7df9	-0.42869547
216	0x3e5bb87a	0.21457091
217	0xbedabc2f	-0.42721698
218	0x3da06521	0.07831789
219	0xbea2602a	-0.31713992
220	0xbddcad68	-0.10775262
221	0x3ea8d5b3	0.3297554
222	0x3d5d9324	0.054095402
223	0x3eac9329	0.33706024
224	0x3e9d7d3d	0.30759612
225	0x3dafffa2	0.0859368
226	0xbea4046b	-0.3203462
227	0xbe0ec192	-0.13941029
228	0x3e32ffc5	0.17480381
229	0xbd5f056c	-0.05444853
230	0x3ea9497e	0.33063883
231	0x3e9aee81	0.3026009
232	0xbea11c7d	-0.31467047
233	0xbdea49e7	-0.11439877
234	0x3ea43080	0.32068253
235	0xbe91aed0	-0.28453684
236	0x3c629279	0.013828867
237	0xbeb457d4	-0.35223258
238	0xbd3ce3d0	-0.046115696
239	0xbe98ec4f	-0.2986779
240	0x3e7c6ba7	0.24650441
241	0xbdca050f	-0.09864246
242	0xbe87ead6	-0.26546353
243	0x3e9257fe	0.28582758
244	0x3e20a935	0.15689547
245	0x3db47a6e	0.08812414
246	0xbe002f73	-0.125181
247	0xbea9458a	-0.33060867
248	0x3e01e780	0.12685966
249	0xbe6660e4	-0.22497898
250	0xbe8faed2	-0.28063065
251	0x3e6109cb	0.21976392
252	0xbe096cf0	-0.13420463
253	0x3ea48116	0.32129735
254	0xbe77123e	-0.24128053
255	0xbe053f18	-0.1301235

fc.0.bias f4 [256]
0	0xbe2fc631	-0.17165448
1	0xbdf1a8fe	-0.11799811
2	0xbd9500b9	-0.072755285
3	0xbe17f600	-0.14839935
4	0xbe03e958	-0.12881982
5	0xbeb1bcc9	-0.34714344
6	0x3ecca40d	0.3996891
7	0x3e9a512c	0.30140054
8	0xbeb53d48	-0.35398316
9	0x3e0026de	0.12514827
10	0x3d2d82c3	0.042361032
11	0xbefa3f6d	-0.48876515
12	0x3e530d4b	0.2061054
13	0x3e459662	0.19295648
14	0x3e1dc6da	0.15407887
15	0x3bfc5834	0.0077009443
16	0xbea5d560	-0.32389355
17	0x3e85fb5d	0.26168337
18	0x3ea6eb8c	0.32601583
19	0x3ea88a37	0.3291795
20	0x3e824925	0.2544643
21	0x3ce7d22c	0.02829846
22	0xbe44f346	-0.19233426
23	0x3e4aa13a	0.19788066
24	0xbd92f08a	-0.071747854
25	0xbda0be54	-0.07848802
26	0x3d1b0415	0.03784569
27	0xbd80f569	-0.06296808
28	0xbe1f5565	-0.15559919
29	0xbe277ab6	-0.16355404
30	0xbe354270	-0.17701125
31	0xbe40fc62	-0.18846276
32	0xbe0f029a	-0.13965836
33	0xbe7bfca0	-0.24608088
34	0xbe99096e	-0.29890007
35	0x3dd459ca	0.103686884
36	0xbe84b2ee	-0.25917763
37	0x3dd77139	0.105196424
38	0xbede93e6	-0.43472213
39	0x3e5e5faa	0.2171618
40	0x3deef45c	0.116677016
41	0xbea7699f	-0.3269777
42	0x3e99a3ee	0.3000788
43	0xbd3fb22d	-0.04680078
44	0xbe495430	-0.19661021
45	0xbec5e97e	-0.38654703
46	0xbeece805	-0.46270767
47	0xbec9cfb3	-0.39416274
48	0x3ea2520a	0.31703216
49	0xbe9b3b27	-0.30318567
50	0xbe4b687b	-0.19864075
51	0xbd802ec6	-0.06258921
52	0xbd87dc24	-0.06633785
53	0x3e2fed03	0.17180257
54	0x3eb7fbbc	0.35934246
55	0xbeae4f62	-0.3404494
56	0x3ec808b3	0.39069137
57	0xbe051b19	-0.12998618
58	0x3d844b9a	0.06459732
59	0xbeb22a57	-0.34797928
60	0x3e10697a	0.14102736
61	0xbe257d5c	-0.16161102
62	0x3da3ac81	0.07991887
63	0xbe156374	-0.1458872
64	0x3e70f17b	0.23529617
65	0xbe5f7043	-0.21820168
66	0xbed19299	-0.40932158
67	0xbe3c46b9	-0.18386354
68	0xbd3f11ef	-0.046647962
69	0xbe03c8d9	-0.12869586
70	0xbe824d22	-0.25449473
71	0x3e513487	0.20430194
72	0xbe85ddc7	-0.26145765
73	0xbe8ec11c	-0.27881706
74	0xbeabd585	-0.3356134
75	0x3ddcb08e	0.10775863
76	0x3eb1526f	0.34633204
77	0xbcc2423d	-0.023713225
78	0xbe4fb2b8	-0.2028302
79	0xbe9518bf	-0.29120442
80	0xbe94834d	-0.29006425
81	0xbc1977b0	-0.009366915
82	0xbeba0ee4	-0.36339486
83	0xbe91e6da	-0.28496438
84	0xbe279528	-0.16365492
85	0x3e40e986	0.18839082
86	0x3e18b15d	0.14911409
87	0xbe19d779	-0.15023603
88	0xbeb3685c	-0.35040557
89	0xbebcfc39	-0.3691118
90	0x3eca97a5	0.3956882
91	0x3e47597a	0.19467726
92	0x3eb165eb	0.3464807
93	0xbe1c2912	-0.15250042
94	0x3d1265b5	0.035741527
95	0xbd8a696e	-0.0675839
96	0x3ea6e5b9	0.3259714
97	0x3cd1c8ee	0.025608506
98	0x3cb949ca	0.022618193
99	0xbecf6278	-0.40504813
100	0xbed6b955	-0.41938272
101	0x3e9d2cf7	0.30698368
102	0xbe67b022	-0.22625783
103	0xbe12d664	-0.14339596
104	0x3d2b111d	0.041764367
105	0x3de04bc6	0.10951953
106	0xbebe23ed	-0.37136784
107	0xbe26b131	-0.1627853
108	0x3e97e3aa	0.2966588
109	0x3e0bbbc4	0.13645846
110	0x3eb7c512	0.3589254
111	0xbec3b5b2	-0.3822456
112	0x3e88da10	0.26728868
113	0xbd4681a2	-0.04846347
114	0x3e925d4c	0.28586805
115	0x3d877649	0.06614358
116	0xbefccb0e	-0.49373668
117	0x3d0d429c	0.03448735
118	0x3dc04aeb	0.093892895
119	0xbd839046	-0.06424002
120	0xbea05e9b	-0.31322178
121	0xbea2e90c	-0.31818426
122	0xbe7aa922	-0.24478582
123	0xbec25dee	-0.37962288
124	0x3be69ba7	0.007037598
125	0x3e31bbb6	0.17356762
126	0x3e18daae	0.1492717
127	0xbe863ca8	-0.26218152
128	0xbd3458eb	-0.04403011
129	0xba9dea6c	-0.0012048013
130	0x3e566244	0.20935923
131	0xbee7acd7	-0.45249054
132	0x3cfcdd82	0.030867342
133	0xbe8a36df	-0.26994988
134	0x3e20052f	0.15626977
135	0xbe494f1b	-0.19659083
136	0xbd038554	-0.032109573
137	0xbdda3dbe	-0.10656308
138	0x3e98f64c	0.2987541
139	0x3e850779	0.25982264
140	0xbe0aeba0	-0.13566446
141	0xbeae6caf	-0.34067294
142	0x3d045d92	0.032315798
143	0xbe14834b	-0.1450321
144	0xbe5d3893	-0.21603613
145	0x3da322d2	0.07965626
146	0x3d4e6c19	0.05039606
147	0xbe0a50a6	-0.13507327
148	0xbdf1d17e	-0.118075356
149	0xbe4938dd	-0.19650598
150	0x3eb35b8f	0.3503079
151	0xbe3921e2	-0.18079332
152	0xbe16dede	-0.14733455
153	0xbe04d8cb	-0.12973325
154	0x3eb8f30c	0.3612293
155	0xbed6fe75	-0.4199101
156	0x3e56eeae	0.20989487
157	0xbed14a5b	-0.4087704
158	0x3b89921d	0.0041983263
159	0xbbabd4b3	-0.0052438616
160	0x3dda30c1	0.1065383
161	0xbeb661ff	-0.3562164
162	0x3d4d34a0	0.050099015
163	0xbe9e4d64	-0.3091842
164	0xbe3cd374	-0.18440038
165	0x3e756d67	0.23967515
166	0xbcdb8ab9	-0.026799547
167	0x3ea2a6f7	0.3176801
168	0x3dd10243	0.102055095
169	0x3e814395	0.25246873
170	0x3e63992b	0.22226398
171	0xbe621eeb	-0.22082107
172	0xbe90d017	-0.2828376
173	0xbc7f6ffd	-0.015590665
174	0xbeac75f8	-0.33683753
175	0xbe86c9c1	-0.263258
176	0x3dc6f788	0.097151816
177	0xbe4ec5f1	-0.20192696
178	0x3eb747a5	0.35796848
179	0xbecad735	-0.39617315
180	0xbd828b15	-0.06374184
181	0xbe7637b0	-0.2404468
182	0x3e916470	0.2839694
183	0xbe3cd3e1	-0.184402
184	0x3d3c73cd	0.046008874
185	0xbeee8add	-0.4659032
186	0xbedd8dd5	-0.43272272
187	0x3e6977d8	0.22799623
188	0xbef6a647	-0.48173735
189	0xbd2cc30b	-0.042178195
190	0x3d6bf53f	0.05760693
191	0x3e271620	0.16317034
192	0x3e895bda	0.2682789
193	0x3e3aa8b0	0.18228412
194	0xbd607635	-0.05480023
195	0x3e2713bf	0.16316126
196	0xbeb376f4	-0.35051692
197	0x3ea4df3c	0.32201564
198	0xbeac892d	-0.33698407
199	0x3e8692f0	0.2628398
200	0x3e548bef	0.20756505
201	0xbe7d0bf4	-0.24711591
202	0xbe5e821f	-0.21729325
203	0x3d939a08	0.072071135
204	0xbea5f75a	-0.32415277
205	0x3e8db07a	0.27673703
206	0x3ea3101b	0.31848225
207	0x3cb841d8	0.022492334
208	0x3cbf8ccc	0.023382567
209	0xbd9a2524	-0.07526615
210	0xbd6c4e15	-0.057691652
211	0x3e97e888	0.29669595
212	0x3dbf3cfd	0.093378045
213	0x3e6c8d3f	0.23100756
214	0x3e327f14	0.17431289
215	0x3ebf4aad	0.3736166
216	0xbe66d645	-0.22542675
217	0xbe0e03d3	-0.13868646
218	0x3db8024d	0.08984814
219	0xbe94240e	-0.28933758
220	0x3e2539c0	0.16135311
221	0xbc48e1ca	-0.012260864
222	0xbe09575f	-0.13412236
223	0x3e04bc08	0.12962353
224	0x3dd6e6f9	0.10493273
225	0xbe9d21bf	-0.3068981
226	0xbeaebaa5	-0.34126773
227	0x3e62eefe	0.22161481
228	0xbe3461ab	-0.17615382
229	0x3eb3efc8	0.35143876
230	0x3e5bfca2	0.2148309
231	0x3ea0beb1	0.31395486
232	0x3e1eb4a7	0.15498601
233	0x3d980847	0.07423454
234	0x3ea0863b	0.3135241
235	0xbe4ab470	-0.19795394
236	0xbee3dd1d	-0.44504634
237	0xbe1654a0	-0.1468072
238	0x3e9c5c7b	0.30539307
239	0xbe08d1b2	-0.13361242
240	0x3e7dbafd	0.24778362
241	0x3daddfc4	0.084899455
242	0xbdd7dbf0	-0.105399966
243	0xbe1d102a	-0.15338197
244	0x3ca9e21d	0.020737702
245	0xbe8ba7e7	-0.27276537
246	0xbedf4eac	-0.4361471
247	0x3d5acab9	0.053415988
248	0xbcf2e63f	-0.029650806
249	0xbed0cfc6	-0.4078352
250	0x3ebac648	0.36479402
251	0x3dd4aa1c	0.10384008
252	0xbe591ba5	-0.21201952
253	0x3e2410c0	0.16022015
254	0x3ccba33f	0.024858115
255	0x3e14affd	0.14520259

fc.2.weight f4 [256, 256]
0	0xbcb0bd10	-0.021574527
1	0xbd887580	-0.06663036
2	0xbd2de857	-0.042457905
3	0xbc0fa716	-0.008767864
4	0xbb8e2692	-0.004338094
5	0xbd648013	-0.055786204
6	0x3d41c0b2	0.04730291
7	0xbc7fe2b3	-0.015618014
8	0xbd5222bb	-0.051302653
9	0xbc7b0548	-0.015321083
10	0x3c439a80	0.011938691
11	0x3d11d6fe	0.035605423
12	0x3d76889e	0.060188882
13	0xbcd467d5	-0.025928417
14	0xbd7355d6	-0.05940803
15	0xbc928c43	-0.017889148
16	0xbd405d52	-0.046963997
17	0x3cb023dc	0.021501474
18	0xbce1e3e8	-0.027574494
19	0x3d2d6c1c	0.04233943
20	0xbd271638	-0.040792674
21	0x3cbd9df8	0.023146614
22	0x3d0803d6	0.033206783
23	0xbd78aaf8	-0.060709924
24	0xbd678b4f	-0.05652934
25	0x3c9e0790	0.019290715
26	0xbd4fd8c2	-0.050743826
27	0xbc455650	-0.012044504
28	0x3d7880fe	0.06066989
29	0x3c2d8308	0.010590322
30	0xbcfbfdc4	-0.030760653
31	0x3d28c012	0.041198798
32	0x3d35e5d1	0.044408623
33	0xbcd032ae	-0.025414791
34	0x3d645a97	0.055750456
35	0xbcaa7864	-0.02080936
36	0xbbc1ce0c	-0.0059144553
37	0x3ca707ad	0.020389402
38	0xbd1e964b	-0.03871755
39	0x3cbccaf9	0.023046004
40	0xbd3ea4ef	-0.04654401
41	0xbd2362e6	-0.03988924
42	0xbc83ff04	-0.016112812
43	0xbcb1cddc	-0.021704607
44	0x3d1bd108	0.038041145
45	0x3c82aeac	0.01595243
46	0xbd3d5b29	-0.046229515
47	0x3d5980ea	0.053101458
48	0x3cf1db27	0.029523445
49	0xbd6f694e	-0.058450036
50	0x3d1241b4	0.03570719
51	0xbd0d8116	-0.034546934
52	0xbd86e898	-0.065873325
53	0x3c50d488	0.012745984
54	0xbce98730	-0.028506845
55	0xbcfb2d54	-0.030661263
56	0xbd52ee48	-0.051496774
57	0xbc1085c8	-0.008820958
58	0x3ca6c230	0.020356268
59	0x3d5f8067	0.054565813
60	0xbcf7aa84	-0.030232675
61	0x3b5290e0	0.003212981
62	0x3ceac1ec	0.028656922
63	0x3d5fd162	0.054643042
64	0x3cee2adc	0.029073171
65	0xbd6cca4e	-0.05781012
66	0xbd22e1b4	-0.03976603
67	0x3cc92f68	0.024558738
68	0xbcf55f74	-0.029952742
69	0x3c7472ff	0.014919995
70	0xbc35c910	-0.0110953
71	0x3c2cfa9d	0.010557798
72	0x3d1c5744	0.03816916
73	0x3d7a8540	0.061162233
74	0xbcd0ecd4	-0.025503553
75	0x3ce290c0	0.027656913
76	0xbd36af68	-0.044600874
77	0xbcebc278	-0.028779253
78	0xbd1f92ea	-0.038958468
79	0xbcb8e337	-0.022569282
80	0xbca244e4	-0.01980824
81	0x3ce487e9	0.027896838
82	0x3d5f7938	0.054558963
83	0xbb601c00	-0.0034196377
84	0xbcf67800	-0.030086517
85	0x3c8b821c	0.017029814
86	0xbd00e292	-0.031466074
87	0x3cb639aa	0.022244293
88	0xbcd81f32	-0.026382063
89	0xbd53b574	-0.05168672
90	0x3d064568	0.032781035
91	0xbc1a26a6	-0.009408629
92	0xbc1b5749	-0.00948126
93	0x3d08027b	0.03320549
94	0xbd1a8461	-0.037723903
95	0xbb18d180	-0.002331823
96	0x3cc93625	0.024561951
97	0xbd3dc9d0	-0.04633504
98	0x3d014d31	0.031567756
99	0xbcf52f58	-0.029929802
100	0x3cbe181c	0.023204856
101	0xbd3d2cc8	-0.046185285
102	0xbd47c7ef	-0.048774656
103	0xbcd9547c	-0.026529543
104	0xbd336ebd	-0.04380678
105	0x3c920418	0.017824218
106	0xbd360fe1	-0.044448737
107	0xbd79f2c6	-0.061022542
108	0x38d49be7	0.00010137987
109	0xbc1f915f	-0.009739249
110	0x3ce1f422	0.027582232
111	0xbd436cc4	-0.04771115
112	0xbd2d715e	-0.042344444
113	0x3cc6c9f4	0.02426622
114	0x3ce232bc	0.027612083
115	0x3cbfaca0	0.023397744
116	0xbcef9d4e	-0.029249813
117	0x3cf47d4f	0.029844908
118	0xbce8b227	-0.028405262
119	0xbd7e38d4	-0.062065914
120	0xbc535800	-0.012899399
121	0xbc48cff8	-0.012256615
122	0xbc0f90e0	-0.008762568
123	0x3c92fc33	0.017942524
124	0xbd8c47f8	-0.068496644
125	0x3cf01abe	0.029309627
126	0x3d49d5bc	0.0492761
127	0x3c9a9b34	0.018872835
128	0x3cf84077	0.030304177
129	0x3ca6fea4	0.020385094
130	0x39bb3699	0.00035708098
131	0x3c89bea2	0.016814534
132	0xbcd14948	-0.025547639
133	0xbc0a3ac0	-0.008436859
134	0x3ce9097c	0.028446905
135	0x3c8b6fb8	0.017021045
136	0x3ca14f08	0.019691005
137	0xbd414f74	-0.047194913
138	0x3bc8b220	0.00612475
139	0xbbbe2e00	-0.0058038235
140	0x3d4ee8ee	0.050515108
141	0x37614000	1.3425946e-05
142	0xbd0ec958	-0.034859985
143	0xbcd5acd0	-0.02608338
144	0xbd749e5c	-0.059721336
145	0xbac663c0	-0.0015135929
146	0x3b95c6a0	0.004570797
147	0xbc90f764	-0.01769609
148	0x3c63f4f0	0.013913378
149	0xbc051470	-0.008122548
150	0xbd289948	-0.041161805
151	0x3d58548e	0.052815013
152	0x3cccadce	0.02498522
153	0x3b904440	0.0044026673
154	0x3bcbd91e	0.0062209507
155	0x3c946530	0.018114656
156	0x3d65bf1a	0.05609045
157	0xbd3cd7c7	-0.04610422
158	0x3d2acd51	0.04169971
159	0x3c5c3e9b	0.013442661
160	0xba72638c	-0.0009246401
161	0xbd10935d	-0.035296787
162	0xbc815448	-0.015787259
163	0xbd5738e4	-0.05254449
164	0xbd4008ba	-0.046883322
165	0xbd7ca156	-0.0616773
166	0xbd34d13e	-0.04414486
167	0x3c8f57ac	0.01749786
168	0x3bb9e9d0	0.0056736246
169	0x3c5731da	0.013134444
170	0x380bf8c5	3.3371867e-05
171	0xbbce05db	-0.006287319
172	0xbd16a0f4	-0.03677459
173	0xbd2af838	-0.041740626
174	0xbd80c4b3	-0.062875174
175	0xbbb2d790	-0.005457826
176	0x3d307a20	0.043085217
177	0xbd082396	-0.033237062
178	0x3d185226	0.037187718
179	0x3c8560ac	0.016281448
180	0xbd5f35e6	-0.05449476
181	0x3cafd8de	0.021465715
182	0xbd44694d	-0.047951985
183	0xbd119af9	-0.035548184
184	0xbd2f4738	-0.04279253
185	0xbc59cae0	-0.013292998
186	0x3c327ee8	0.010894515
187	0x3c460808	0.012086876
188	0x3c9b5e7f	0.018965958
189	0xbc901044	-0.017585881
190	0xbcde4be3	-0.027135795
191	0x3d503d4f	0.05083972
192	0xbd52ffb4	-0.05151339
193	0xbc5fd6b7	-0.013662032
194	0x3ce70340	0.028199792
195	0xbd134938	-0.0359585
196	0xbd3b65d0	-0.045751393
197	0x3d2d85fe	0.042364113
198	0x3d5e45a5	0.054265637
199	0x3c7e893c	0.015535649
200	0x3d2cb6a0	0.042166352
201	0xbd38031a	-0.044924833
202	0xbd36074c	-0.044440553
203	0xbd0209a6	-0.031747483
204	0xbd6c5f68	-0.057708174
205	0xbd8c37c1	-0.06846572
206	0x3d46bf78	0.048522443
207	0xbd85fbf4	-0.06542197
208	0xba853557	-0.0010162991
209	0xbb308f34	-0.0026940824
210	0x3d7877ce	0.06066113
211	0xba13b23e	-0.0005634165
212	0x3d610e86	0.05494549
213	0xbc5aca2b	-0.013353865
214	0xbd31c7e5	-0.043403525
215	0xbd525286	-0.05134823
216	0x3d000eba	0.031264044
217	0x3ad56440	0.0016280487
218	0x3d4ad26c	0.04951708
219	0xbc289ed6	-0.010291776
220	0x3ca94304	0.020661838
221	0x3d3397d4	0.043845966
222	0xbd31308e	-0.043259196
223	0x3b9434e0	0.0045229048
224	0xbcf1df20	-0.02952534
225	0x3b7c9700	0.0038542151
226	0xbd558574	-0.052129224
227	0xbd5a7e70	-0.053343236
228	0xbd7332e6	-0.059374712
229	0x3d114b0c	0.03547196
230	0xbcb14728	-0.021640375
231	0x3d3eb932	0.046563335
232	0xbd40cfdc	-0.04707323
233	0xbbd4e5f0	-0.0064971372
234	0xbd526172	-0.051362462
235	0xbbf1e700	-0.0073822737
236	0x3c889483	0.016672378
237	0xbd5c9ee8	-0.053862482
238	0x3c980459	0.01855676
239	0x3bf39790	0.007433839
240	0x3d380605	0.044927616
241	0xbd40c64f	-0.04706412
242	0x3cebd1c8	0.028786555
243	0xbc9c0e96	-0.019049924
244	0xbc3761da	-0.011192763
245	0x3d48905f	0.048965808
246	0xbd2c774e	-0.042105965
247	0xbc1bac50	-0.009501532
248	0xbcf0e018	-0.029403731
249	0x3cde1e2c	0.027113996
250	0xbaac5e40	-0.0013150647
251	0x3d52e4b9	0.05148766
252	0xbbd10d8a	-0.006379788
253	0xbca54df4	-0.020178773
254	0xbd0a9a2b	-0.033838432
255	0x3d0fdd47	0.035123136

fc.2.bias f4 [256]
0	0x3cff5bfe	0.031171795
1	0xbd8d345a	-0.06894751
2	0xbd0bf210	-0.034166396
3	0x3d34a310	0.04410082
4	0xbd7723ba	-0.060336806
5	0xbd6260c3	-0.05526806
6	0xbc631238	-0.013859324
7	0x3c4f2a0f	0.012644305
8	0xbdbe1a13	-0.09282317
9	0xbcd4f1dc	-0.025994234
10	0xbd8f37f4	-0.06993094
11	0x3c92f366	0.017938327
12	0xbd77eb7f	-0.06052732
13	0x3c264e55	0.010150512
14	0x3d116f08	0.03550628
15	0xbb52d229	-0.0032168722
16	0xbc99f1ef	-0.01879212
17	0x3cbfdf2f	0.023421852
18	0x3c6c2952	0.014414148
19	0xbd931060	-0.07180858
20	0xbd3b5a9d	-0.045740712
21	0xbc89e17a	-0.016831148
22	0x3d1649e0	0.036691546
23	0x3cb6392d	0.02224406
24	0xbd6d4d0a	-0.0579348
25	0x3d2ae871	0.04172558
26	0x3cf3230a	0.029679794
27	0x3d4b3a79	0.04961631
28	0xbd9b6039	-0.075867124
29	0xbd804300	-0.06262779
30	0xbd4faca6	-0.05070176
31	0x3cff6659	0.031176733
32	0xbd8e61f3	-0.06952276
33	0x3d53ec2a	0.051738895
34	0x3c37a538	0.011208825
35	0xbda431f5	-0.08017341
36	0x3c923ce2	0.017851297
37	0xbaadae9e	-0.0013250893
38	0xbd3f48f8	-0.046700448
39	0x3abdcce9	0.0014480624
40	0x3bb4072e	0.00549402
41	0xbd5c4ca2	-0.05378402
42	0x3cfecb25	0.031102726
43	0xbd4a24e6	-0.049351595
44	0x3cdf0a18	0.027226493
45	0x3d0f5da4	0.035001412
46	0xbbb55145	-0.0055333697
47	0xbd0ef21a	-0.034898855
48	0x3d365f47	0.044524457
49	0x3b9252dc	0.004465444
50	0x3d3b481e	0.045723073
51	0xbd49439e	-0.04913675
52	0x3d08aa81	0.03336573
53	0x3cd00d16	0.025396865
54	0x3c751ef2	0.014960991
55	0xbd2d7f92	-0.04235799
56	0x3c22f7b7	0.009946755
57	0xbcd215e8	-0.025645211
58	0xbcb2c95a	-0.021824528
59	0xbd7f1609	-0.062276874
60	0x3cb5e29e	0.022202786
61	0xbd05f018	-0.032699674
62	0x3d2ded9c	0.04246293
63	0xbc428fe0	-0.011875123
64	0xbdab0ceb	-0.08352073
65	0xbc27297a	-0.01020276
66	0xbd4e9d91	-0.050443236
67	0x3d15cac5	0.03657033
68	0xbc522330	-0.012825772
69	0xbd63d723	-0.055625092
70	0xbd899b93	-0.067191266
71	0x3d30b41a	0.04314051
72	0xbd32b596	-0.043630205
73	0xbcf7036d	-0.030153
74	0x3ca6646d	0.020311559
75	0xbd441ffc	-0.047882065
76	0xbd1a7b0b	-0.037715
77	0x3d2b970d	0.0418921
78	0xbd0af600	-0.03392601
79	0xbd2a444a	-0.04156903
80	0xbd934f40	-0.0719285
81	0xbd362a3d	-0.044473875
82	0x3c43c112	0.011947887
83	0xbd7965e3	-0.060888182
84	0xbd50164f	-0.050802525
85	0xbd8983e9	-0.06714613
86	0x3cb88ecc	0.022529028
87	0xbd7bf0bd	-0.061508883
88	0x3d0c8110	0.03430277
89	0x3d4b5614	0.049642637
90	0x3d8b490c	0.06801042
91	0xbc8fb147	-0.017540587
92	0xbcab2ecf	-0.020896344
93	0xbc0d0f28	-0.008609571
94	0xbc0dfb8e	-0.008665932
95	0x3d10e6e3	0.03537644
96	0x3d69c1b9	0.057069514
97	0xbc8d34c0	-0.017237067
98	0xbd6edf28	-0.058318287
99	0x3d6c48ce	0.05768662
100	0xbc6bb508	-0.014386423
101	0x3c9c69bd	0.019093389
102	0xbcf1deee	-0.029525246
103	0xbc7634fd	-0.015027282
104	0xbd6066cf	-0.054785546
105	0xbc829b3d	-0.015943164
106	0x3c96d9ca	0.018414397
107	0xbd0d1f6c	-0.034453794
108	0xbc4882cf	-0.012238218
109	0xbcadbb29	-0.021207409
110	0xbd8c5ed8	-0.068540275
111	0x3d26ce32	0.040723987
112	0xbcd781e4	-0.026307054
113	0x3d41bd3f	0.04729962
114	0xbac245cf	-0.001482183
115	0x3d394421	0.04523099
116	0xbc831f4c	-0.016006134
117	0xb8e881e7	-0.00011086818
118	0x3c59596c	0.013265949
119	0xbcdd88f3	-0.027042842
120	0xbc259374	-0.010105956
121	0xbbbf8c38	-0.005845573
122	0xbcd65a8a	-0.02616622
123	0xbbf4a90f	-0.0074664424
124	0xbd49a5b8	-0.049230307
125	0xbd45fef0	-0.04833883
126	0xbba22d57	-0.0049492526
127	0xbd3ecd25	-0.04658236
128	0x3d55dd6c	0.052213117
129	0xbbebf351	-0.0072006364
130	0xbcbe4e45	-0.023230681
131	0x3cfeb1ba	0.031090606
132	0x3d2b736e	0.04185813
133	0x3d1d0654	0.038336113
134	0xbd8c3df0	-0.06847751
135	0xbd22a4ce	-0.03970795
136	0x3b3e02d3	0.0028993383
137	0xbd8e0713	-0.06934943
138	0xbd6f8d2f	-0.058484253
139	0xbd771d5e	-0.06033074
140	0x3c9dc15c	0.01925724
141	0xbc1abee5	-0.009444927
142	0xbd57449e	-0.052555673
143	0x39a4ba3d	0.00031419276
144	0x3a2ee4fe	0.0006671696
145	0xbabb0c8f	-0.001427071
146	0xbb89cb2e	-0.004205129
147	0xbc78b11c	-0.015178945
148	0xbd92c6ce	-0.07166825
149	0x3dbed88e	0.09318648
150	0xbd6feb70	-0.05857414
151	0xbc7ea012	-0.015541093
152	0x3d3dde25	0.04635443
153	0x3d0a4888	0.033760577
154	0x3d3143e8	0.04327765
155	0xbbcb4e15	-0.0062043765
156	0x3c52d5ba	0.012868339
157	0xbd456397	-0.04819068
158	0xbd914550	-0.070932984
159	0x3ce79556	0.028269451
160	0xbce914b5	-0.028452257
161	0xbd89d780	-0.067305565
162	0x3c98c3a5	0.018647978
163	0x3beed453	0.0072884946
164	0xbd1a5656	-0.037679993
165	0x3cf90451	0.030397566
166	0x3cdbbab7	0.026822431
167	0xbd8dfd66	-0.069330975
168	0xbcaec83f	-0.02133572
169	0x3bf7d94f	0.007563747
170	0x3b3b1237	0.0028544792
171	0xbd66daf0	-0.05636114
172	0xbd5216b4	-0.051291183
173	0xbcdc04e9	-0.02685781
174	0xbd1dfa2e	-0.038568668
175	0x3d13b9dd	0.036065925
176	0x3d0e2ad9	0.03470883
177	0x3cd6e858	0.026233837
178	0xbc3a8c05	-0.011385922
179	0xbd85cb0e	-0.0653287
180	0xbd503646	-0.05083301
181	0xbcec7e91	-0.028868945
182	0x3cb00010	0.021484405
183	0x3c4f4667	0.012651063
184	0x3ced8613	0.028994596
185	0xbd7b4fe2	-0.06135548
186	0xbd07aae3	-0.033121955
187	0xbccf1faf	-0.025283663
188	0x3cab8072	0.020935271
189	0xbafd5979	-0.0019329033
190	0xbc18ff38	-0.009338193
191	0xbc09103c	-0.008365687
192	0xbd1ab351	-0.037768666
193	0x3d158c7d	0.036510933
194	0x3d4161b6	0.047212325
195	0xbceb4244	-0.028718121
196	0x3bacbb59	0.005271357
197	0x3c216d47	0.009852714
198	0xbd521d84	-0.05129768
199	0xbda3bddd	-0.07995198
200	0xbc51ae98	-0.012797974
201	0xbd73a2fc	-0.059481606
202	0xbca8ebc4	-0.020620234
203	0xbca7294d	-0.020405436
204	0xbd2398a5	-0.039940495
205	0xbb659117	-0.0035029107
206	0xbd8ee1a2	-0.0697663
207	0x3d04836a	0.03235189
208	0xbd868e23	-0.06570079
209	0x3d71c02d	0.059021164
210	0xbc845361	-0.01615304
211	0x3ccaec79	0.024770962
212	0x3cd8cf89	0.026466148
213	0x3beee4b7	0.0072904485
214	0xbd311940	-0.04323697
215	0xbbcc80fb	-0.0062409616
216	0xbc21fac9	-0.009886452
217	0xbd628fa8	-0.055312783
218	0xbd249959	-0.040185306
219	0xbd8f707a	-0.07003875
220	0x3c024bad	0.007952613
221	0xbdab4a7d	-0.08363817
222	0x3c013a21	0.007887394
223	0x3bd5a803	0.0065202727
224	0x3c3c225c	0.011482801
225	0xbc28f16c	-0.010311466
226	0x3cfddcd1	0.030989083
227	0xbd5e99ec	-0.05434601
228	0x3c164298	0.009171151
229	0xbd181d30	-0.03713721
230	0xbd86ee93	-0.06588473
231	0xbd359585	-0.044332046
232	0x3c6a66d1	0.01430674
233	0x3ceca2d7	0.028886242
234	0xbc81351e	-0.015772399
235	0xbcdf5e6e	-0.027266707
236	0xbcca3dd9	-0.024687694
237	0x3d0c8575	0.034306962
238	0xbca186d8	-0.019717619
239	0x3d0c727c	0.03428887
240	0x3c975722	0.018474165
241	0xbc9f1f9a	-0.019424248
242	0x3beb7532	0.0071856016
243	0xbd9227d0	-0.071365
244	0xbd85d051	-0.06533874
245	0xbba0c439	-0.004906204
246	0xbd180973	-0.037118386
247	0xbd1f231c	-0.038851842
248	0x3d1e8574	0.03870149
249	0xbd731a6c	-0.05935137
250	0x3d49e744	0.049292818
251	0xbd867b9d	-0.06566546
252	0x3c4b18ff	0.012396096
253	0x3d213034	0.03935261
254	0xbcffed78	-0.031241164
255	0xbcbf5a27	-0.023358418

fc.4.weight f4 [4, 256]
0	0xbd0e6624	-0.034765378
1	0xbd0d2828	-0.034462124
2	0x3cd31dd0	0.025771052
3	0xbc90ffd0	-0.017700106
4	0xbc85dc78	-0.01634048
5	0x39cd75c3	0.00039188386
6	0xbc94a0d8	-0.018143103
7	0xbd144e26	-0.03620734
8	0x3cc891be	0.024483558
9	0x3d1d172e	0.038352184
10	0xbb2c02bb	-0.0026246745
11	0xbd616aa2	-0.055033334
12	0xbd09e744	-0.033667818
13	0xbd3c66d8	-0.045996517
14	0x3d1b7df5	0.03796192
15	0x3d7721a2	0.06033481
16	0xbc7a5690	-0.015279427
17	0xb9f2220d	-0.00046183207
18	0x3c9dc6e9	0.019259887
19	0x3c6a93bc	0.014317449
20	0x3c119cf3	0.008887517
21	0xbd45efa7	-0.048324253
22	0xbd757f8a	-0.059936084
23	0xbcec2e01	-0.02883053
24	0xbd52a2de	-0.051424854
25	0x3cfcc25c	0.030854397
26	0xbc8d073a	-0.01721536
27	0x3b807960	0.003920719
28	0xbd09eb9e	-0.033671968
29	0x3d777de4	0.060422793
30	0x3d07fee0	0.033202052
31	0xbd670dfa	-0.056409813
32	0xbc8bbf30	-0.017058939
33	0xbc1a023c	-0.009399947
34	0x3d51c816	0.051216207
35	0x3c66e1ba	0.014091903
36	0xbd0ed922	-0.034875043
37	0xba5e7490	-0.0008485997
38	0xbd543168	-0.05180493
39	0xbd9866cf	-0.07441484
40	0xbd00adc0	-0.0314157
41	0x3d22c8e2	0.039742358
42	0xbd47e9f1	-0.04880709
43	0x3bf59ff0	0.0074958727
44	0xbd4a2428	-0.049350888
45	0x39e343c5	0.00043347306
46	0xbd84813c	-0.06469962
47	0x3cb21358	0.02173774
48	0x3d42ef36	0.04759141
49	0x3c869ef1	0.016433211
50	0xbd43ce1b	-0.04780398
51	0xbb38c4c4	-0.0028193453
52	0xbd1a22ba	-0.037630774
53	0xbd0afdc7	-0.033933427
54	0xbcbf6454	-0.02336327
55	0x3d2dca7c	0.042429432
56	0x3c5af75e	0.013364641
57	0x3d44a8c5	0.048012514
58	0x3d43ea5e	0.04783093
59	0xbd38118a	-0.0449386
60	0xbd409322	-0.047015317
61	0xbbc6dee2	-0.00606905
62	0x3d149b81	0.036281113
63	0xbc68e6a0	-0.014215142
64	0xbcbc6c9c	-0.023001008
65	0xbd3f7a4c	-0.04674749
66	0x3d6b4c58	0.057445854
67	0xbd031b01	-0.032008175
68	0xbd54b005	-0.051925678
69	0x3c45f24e	0.012081696
70	0x3cd72942	0.02626479
71	0xbd46d503	-0.048542988
72	0xbc70f0a0	-0.014705807
73	0xbb4d20a0	-0.0031299964
74	0x3d159112	0.036515303
75	0x3cc2d945	0.023785243
76	0xbb31268a	-0.0027031028
77	0xbd59fbf6	-0.053218804
78	0x3d2a3e4f	0.04156333
79	0x3caea43c	0.021318547
80	0x3cfc54a2	0.030802075
81	0x3cfd8e7c	0.03095173
82	0xbcd2cc43	-0.025732165
83	0xbd139d38	-0.036038607
84	0xbd336e72	-0.0438065
85	0xbc4dc1fe	-0.012558458
86	0x3b6fd7e9	0.0036597198
87	0xbb8c69ec	-0.004285088
88	0xbc95e682	-0.018298391
89	0x3ce8189a	0.028332043
90	0xbd706fef	-0.0587005
91	0x3d0abb90	0.03387028
92	0x3d03943e	0.032123797
93	0xbd157166	-0.0364851
94	0x3ce260f0	0.027634114
95	0xbd1fe589	-0.03903726
96	0xbc0e06fe	-0.008668659
97	0xbd77616a	-0.060395636
98	0xbc02e3d7	-0.007988892
99	0xbcb68194	-0.022278585
100	0x3c8a8087	0.01690699
101	0xbd13c722	-0.03607858
102	0x3d55bdda	0.05218301
103	0x3d6f37d0	0.058402836
104	0xbd134664	-0.0359558
105	0xbd3fc9af	-0.0468232
106	0x39077000	0.00012916327
107	0x3d23401d	0.039856065
108	0xbd16fba3	-0.036861073
109	0xbd7a7acc	-0.061152264
110	0x3d12f633	0.035879325
111	0xbae9abc6	-0.0017827682
112	0xbd26206c	-0.040558264
113	0xbd6306cc	-0.055426404
114	0x3d1c6d25	0.038190026
115	0xbb04c0c0	-0.002025649
116	0x3d2fc200	0.042909622
117	0x3d073eaf	0.033018764
118	0x3d4e1740	0.05031514
119	0xbc9bb548	-0.01900734
120	0x3d4bc94b	0.049752515
121	0xbd200c50	-0.039074242
122	0xbcc96718	-0.024585292
123	0xbc84ecec	-0.016226254
124	0x3ce9a3da	0.028520513
125	0x3d4642c3	0.048403513
126	0xbce19c97	-0.027540488
127	0x3d4cc18c	0.04998927
128	0xbd979036	-0.07400553
129	0x3c8e8394	0.017396726
130	0x38fd56b0	0.00012080127
131	0xbb7661a0	-0.003759481
132	0x3d126374	0.035739377
133	0xbd2443c2	-0.04010368
134	0x3d3d18a1	0.046166066
135	0xbd745ed1	-0.059660736
136	0xbd070fb7	-0.03297397
137	0xbd02855d	-0.031865466
138	0xbc42452c	-0.011857312
139	0xbc336c15	-0.010951062
140	0x3d1a6d0e	0.03770166
141	0x3d20a5d8	0.03922066
142	0x3c77cf55	0.015125115
143	0x3d5021e5	0.050813574
144	0x3cbf5571	0.023356171
145	0xbd418784	-0.04724838
146	0xbc16e2cf	-0.009209349
147	0x3d734364	0.05939044
148	0xbcd7eec3	-0.026358968
149	0xbd8a8a55	-0.06764666
150	0x3bf7aa5f	0.0075581516
151	0x3d109dae	0.035306625
152	0x3ce2b69c	0.027674966
153	0xbd1dc860	-0.03852117
154	0xbd4b758e	-0.049672656
155	0xbd0d2468	-0.034458548
156	0x3d4e2b2b	0.050334137
157	0x3d6e8113	0.058228564
158	0xbd51da7a	-0.051233746
159	0x3c79aea4	0.0152393915
160	0xbd495dff	-0.049161907
161	0x3d595aed	0.05306523
162	0xbd943ce4	-0.072381765
163	0x3d0b85e2	0.034063227
164	0x3d2a6910	0.0416041
165	0x3c81ef38	0.015861139
166	0xbd485304	-0.048907295
167	0x3d628108	0.055298835
168	0x3d1213fe	0.035663597
169	0xbd0af2aa	-0.03392283
170	0x3c0ade90	0.008475915
171	0x3c8a9659	0.016917394
172	0x3ce03d34	0.027372934
173	0x3d7a2622	0.061071523
174	0xbc43ba03	-0.011946204
175	0x3d18deab	0.037321728
176	0x3c00ec50	0.007868841
177	0x3d50570e	0.05086427
178	0x3d25cece	0.040480427
179	0x3d4fdbfa	0.050746895
180	0xbd3871dc	-0.04503046
181	0x3d43f2a8	0.047838837
182	0x3cd17c18	0.025571868
183	0x3c78ca30	0.015184924
184	0x3c79a155	0.015236218
185	0x3d0e25c2	0.034703977
186	0x3cdf048d	0.02722385
187	0xbd43cc35	-0.04780217
188	0xbd46f114	-0.048569754
189	0xbd351c4e	-0.044216447
190	0xbc03e168	-0.0080493465
191	0xbd03ea17	-0.032205667
192	0xbd520256	-0.05127176
193	0x3c5fb99c	0.013655093
194	0x3d0a725e	0.033800475
195	0xbca878d3	-0.020565426
196	0x3abb2476	0.0014277834
197	0x3c31d038	0.010852866
198	0xbd0b799a	-0.034051515
199	0xbc231bbe	-0.009955345
200	0xbd28a838	-0.04117605
201	0xbd6fb0c2	-0.05851818
202	0x3d1ec488	0.038761646
203	0xbd7c0a15	-0.061533052
204	0x398a12dc	0.00026335462
205	0x3cdc1226	0.026864123
206	0xbba22867	-0.004948664
207	0x3d1abf05	0.037779827
208	0x3c4d5fc3	0.012535038
209	0xbd016eb0	-0.0315997
210	0xbc0fc241	-0.008774341
211	0x3d400f9d	0.04688989
212	0xbda3acb5	-0.079919256
213	0x3b3f65a0	0.002920486
214	0x3c5d7da8	0.013518728
215	0x3c24e312	0.010063903
216	0x3ce36914	0.027760066
217	0x3d13faea	0.036127962
218	0xbd036288	-0.03207639
219	0xbcd2f7ea	-0.02575298
220	0xbb239f49	-0.0024966768
221	0x3c04eef1	0.008113609
222	0xbcae20ec	-0.021255933
223	0x3d1e5a30	0.03866023
224	0xbd51db31	-0.051234428
225	0xbc61b878	-0.013776891
226	0x3c20001c	0.009765651
227	0x3c434020	0.011917144
228	0x3ca6ee0c	0.020377181
229	0xbd312b0c	-0.043253943
230	0xbd5bdbc8	-0.053676397
231	0xbba630a9	-0.0050717187
232	0xbc2381d5	-0.009979685
233	0xba4ddc00	-0.0007852912
234	0xbd66f952	-0.056390114
235	0xbd0f77ee	-0.035026483
236	0xbd368b7a	-0.04456661
237	0xbc0b3cd8	-0.008498393
238	0xbd064af4	-0.032786325
239	0x3c9b79b0	0.018978924
240	0xbd2eb14e	-0.04264956
241	0xbcae0a08	-0.021245018
242	0xbae2b5c0	-0.0017296597
243	0xbb40db1a	-0.002942747
244	0xbd0aadf1	-0.03385729
245	0x3d7d0a5c	0.061777458
246	0x3bb61446	0.005556616
247	0xbc1793a0	-0.009251505
248	0xbd17855a	-0.03699241
249	0xbcfd52da	-0.030923296
250	0x3b215dbd	0.0024622523
251	0x3cd079ee	0.025448766
252	0xbc01997d	-0.00791013
253	0x3d040d2e	0.03223913
254	0x3cd2a020	0.02571112
255	0xbcabad38	-0.02095662

fc.4.bias f4 [4]
0	0xbbe8604f	-0.007091559
1	0xbcd94868	-0.026523784
2	0x3ce5c301	0.028047087
3	0xbdda20cd	-0.106507875
